…
I0222 16:41:59.090746  3493 net.cpp:296] The NetState phase (0) differed from the phase (1) specified by a rule in layer accuracy
I0222 16:41:59.091473  3493 net.cpp:53] Initializing net from parameters: 
name: "VGG_ILSVRC_19_layers"
state {
  phase: TRAIN
  level: 0
  stage: ""
}
layer {
  name: "data"
  type: "Data"
  top: "data"
  top: "label"
  include {
    phase: TRAIN
  }
  transform_param {
    mirror: true
    crop_size: 224
    mean_file: "/home/abc-5/Desktop/DOP17_SK_SM/Run1_20_2/colfer_mean.binaryproto"
  }
  data_param {
    source: "/home/abc-5/Desktop/DOP17_SK_SM/Run1_20_2/colfer_train_lmdb"
    batch_size: 10
    backend: LMDB
  }
}
layer {
  name: "conv1_1"
  type: "Convolution"
  bottom: "data"
  top: "conv1_1"
  param {
    lr_mult: 0
    decay_mult: 0
  }
  param {
    lr_mult: 0
    decay_mult: 0
  }
  convolution_param {
    num_output: 64
    pad: 1
    kernel_size: 3
    stride: 1
    weight_filler {
      type: "gaussian"
      std: 0.01
    }
    bias_filler {
      type: "constant"
      value: 0
    }
  }
}
layer {
  name: "ReLU1_1"
  type: "ReLU"
  bottom: "conv1_1"
  top: "conv1_1"
}
layer {
  name: "conv1_2"
  type: "Convolution"
  bottom: "conv1_1"
  top: "conv1_2"
  param {
    lr_mult: 0
    decay_mult: 0
  }
  param {
    lr_mult: 0
    decay_mult: 0
  }
  convolution_param {
    num_output: 64
    pad: 1
    kernel_size: 3
    stride: 1
    weight_filler {
      type: "gaussian"
      std: 0.01
    }
    bias_filler {
      type: "constant"
      value: 0
    }
  }
}
layer {
  name: "ReLU1_2"
  type: "ReLU"
  bottom: "conv1_2"
  top: "conv1_2"
}
layer {
  name: "pool1"
  type: "Pooling"
  bottom: "conv1_2"
  top: "pool1"
  pooling_param {
    pool: MAX
    kernel_size: 2
    stride: 2
  }
}
layer {
  name: "conv2_1"
  type: "Convolution"
  bottom: "pool1"
  top: "conv2_1"
  param {
    lr_mult: 0
    decay_mult: 0
  }
  param {
    lr_mult: 0
    decay_mult: 0
  }
  convolution_param {
    num_output: 128
    pad: 1
    kernel_size: 3
    stride: 1
    weight_filler {
      type: "gaussian"
      std: 0.01
    }
    bias_filler {
      type: "constant"
      value: 0
    }
  }
}
layer {
  name: "ReLU2_1"
  type: "ReLU"
  bottom: "conv2_1"
  top: "conv2_1"
}
layer {
  name: "conv2_2"
  type: "Convolution"
  bottom: "conv2_1"
  top: "conv2_2"
  param {
    lr_mult: 1
    decay_mult: 1
  }
  param {
    lr_mult: 2
    decay_mult: 0
  }
  convolution_param {
    num_output: 128
    pad: 1
    kernel_size: 3
    stride: 1
    weight_filler {
      type: "gaussian"
      std: 0.01
    }
    bias_filler {
      type: "constant"
      value: 0
    }
  }
}
layer {
  name: "ReLU2_2"
  type: "ReLU"
  bottom: "conv2_2"
  top: "conv2_2"
}
layer {
  name: "pool2"
  type: "Pooling"
  bottom: "conv2_2"
  top: "pool2"
  pooling_param {
    pool: MAX
    kernel_size: 2
    stride: 2
  }
}
layer {
  name: "conv3_1"
  type: "Convolution"
  bottom: "pool2"
  top: "conv3_1"
  param {
    lr_mult: 1
    decay_mult: 1
  }
  param {
    lr_mult: 2
    decay_mult: 0
  }
  convolution_param {
    num_output: 256
    pad: 1
    kernel_size: 3
    stride: 1
    weight_filler {
      type: "gaussian"
      std: 0.01
    }
    bias_filler {
      type: "constant"
      value: 0
    }
  }
}
layer {
  name: "ReLU3_1"
  type: "ReLU"
  bottom: "conv3_1"
  top: "conv3_1"
}
layer {
  name: "conv3_2"
  type: "Convolution"
  bottom: "conv3_1"
  top: "conv3_2"
  param {
    lr_mult: 1
    decay_mult: 1
  }
  param {
    lr_mult: 2
    decay_mult: 0
  }
  convolution_param {
    num_output: 256
    pad: 1
    kernel_size: 3
    stride: 1
    weight_filler {
      type: "gaussian"
      std: 0.01
    }
    bias_filler {
      type: "constant"
      value: 0
    }
  }
}
layer {
  name: "ReLU3_2"
  type: "ReLU"
  bottom: "conv3_2"
  top: "conv3_2"
}
layer {
  name: "conv3_3"
  type: "Convolution"
  bottom: "conv3_2"
  top: "conv3_3"
  param {
    lr_mult: 1
    decay_mult: 1
  }
  param {
    lr_mult: 2
    decay_mult: 0
  }
  convolution_param {
    num_output: 256
    pad: 1
    kernel_size: 3
    stride: 1
    weight_filler {
      type: "gaussian"
      std: 0.01
    }
    bias_filler {
      type: "constant"
      value: 0
    }
  }
}
layer {
  name: "ReLU3_3"
  type: "ReLU"
  bottom: "conv3_3"
  top: "conv3_3"
}
layer {
  name: "conv3_4"
  type: "Convolution"
  bottom: "conv3_3"
  top: "conv3_4"
  param {
    lr_mult: 1
    decay_mult: 1
  }
  param {
    lr_mult: 2
    decay_mult: 0
  }
  convolution_param {
    num_output: 256
    pad: 1
    kernel_size: 3
    stride: 1
    weight_filler {
      type: "gaussian"
      std: 0.01
    }
    bias_filler {
      type: "constant"
      value: 0
    }
  }
}
layer {
  name: "ReLU3_4"
  type: "ReLU"
  bottom: "conv3_4"
  top: "conv3_4"
}
layer {
  name: "pool3"
  type: "Pooling"
  bottom: "conv3_4"
  top: "pool3"
  pooling_param {
    pool: MAX
    kernel_size: 2
    stride: 2
  }
}
layer {
  name: "conv4_1"
  type: "Convolution"
  bottom: "pool3"
  top: "conv4_1"
  param {
    lr_mult: 1
    decay_mult: 1
  }
  param {
    lr_mult: 2
    decay_mult: 0
  }
  convolution_param {
    num_output: 512
    pad: 1
    kernel_size: 3
    stride: 1
    weight_filler {
      type: "gaussian"
      std: 0.01
    }
    bias_filler {
      type: "constant"
      value: 0
    }
  }
}
layer {
  name: "ReLU4_1"
  type: "ReLU"
  bottom: "conv4_1"
  top: "conv4_1"
}
layer {
  name: "conv4_2"
  type: "Convolution"
  bottom: "conv4_1"
  top: "conv4_2"
  param {
    lr_mult: 1
    decay_mult: 1
  }
  param {
    lr_mult: 2
    decay_mult: 0
  }
  convolution_param {
    num_output: 512
    pad: 1
    kernel_size: 3
    stride: 1
    weight_filler {
      type: "gaussian"
      std: 0.01
    }
    bias_filler {
      type: "constant"
      value: 0
    }
  }
}
layer {
  name: "ReLU4_2"
  type: "ReLU"
  bottom: "conv4_2"
  top: "conv4_2"
}
layer {
  name: "conv4_3"
  type: "Convolution"
  bottom: "conv4_2"
  top: "conv4_3"
  param {
    lr_mult: 1
    decay_mult: 1
  }
  param {
    lr_mult: 2
    decay_mult: 0
  }
  convolution_param {
    num_output: 512
    pad: 1
    kernel_size: 3
    stride: 1
    weight_filler {
      type: "gaussian"
      std: 0.01
    }
    bias_filler {
      type: "constant"
      value: 0
    }
  }
}
layer {
  name: "ReLU4_3"
  type: "ReLU"
  bottom: "conv4_3"
  top: "conv4_3"
}
layer {
  name: "conv4_4"
  type: "Convolution"
  bottom: "conv4_3"
  top: "conv4_4"
  param {
    lr_mult: 1
    decay_mult: 1
  }
  param {
    lr_mult: 2
    decay_mult: 0
  }
  convolution_param {
    num_output: 512
    pad: 1
    kernel_size: 3
    stride: 1
    weight_filler {
      type: "gaussian"
      std: 0.01
    }
    bias_filler {
      type: "constant"
      value: 0
    }
  }
}
layer {
  name: "ReLU4_4"
  type: "ReLU"
  bottom: "conv4_4"
  top: "conv4_4"
}
layer {
  name: "pool4"
  type: "Pooling"
  bottom: "conv4_4"
  top: "pool4"
  pooling_param {
    pool: MAX
    kernel_size: 2
    stride: 2
  }
}
layer {
  name: "conv5_1"
  type: "Convolution"
  bottom: "pool4"
  top: "conv5_1"
  param {
    lr_mult: 1
    decay_mult: 1
  }
  param {
    lr_mult: 2
    decay_mult: 0
  }
  convolution_param {
    num_output: 512
    pad: 1
    kernel_size: 3
    stride: 1
    weight_filler {
      type: "gaussian"
      std: 0.01
    }
    bias_filler {
      type: "constant"
      value: 0
    }
  }
}
layer {
  name: "ReLU5_1"
  type: "ReLU"
  bottom: "conv5_1"
  top: "conv5_1"
}
layer {
  name: "conv5_2"
  type: "Convolution"
  bottom: "conv5_1"
  top: "conv5_2"
  param {
    lr_mult: 1
    decay_mult: 1
  }
  param {
    lr_mult: 2
    decay_mult: 0
  }
  convolution_param {
    num_output: 512
    pad: 1
    kernel_size: 3
    stride: 1
    weight_filler {
      type: "gaussian"
      std: 0.01
    }
    bias_filler {
      type: "constant"
      value: 0
    }
  }
}
layer {
  name: "ReLU5_2"
  type: "ReLU"
  bottom: "conv5_2"
  top: "conv5_2"
}
layer {
  name: "conv5_3"
  type: "Convolution"
  bottom: "conv5_2"
  top: "conv5_3"
  param {
    lr_mult: 1
    decay_mult: 1
  }
  param {
    lr_mult: 2
    decay_mult: 0
  }
  convolution_param {
    num_output: 512
    pad: 1
    kernel_size: 3
    stride: 1
    weight_filler {
      type: "gaussian"
      std: 0.01
    }
    bias_filler {
      type: "constant"
      value: 0
    }
  }
}
layer {
  name: "ReLU5_3"
  type: "ReLU"
  bottom: "conv5_3"
  top: "conv5_3"
}
layer {
  name: "conv5_4"
  type: "Convolution"
  bottom: "conv5_3"
  top: "conv5_4"
  param {
    lr_mult: 1
    decay_mult: 1
  }
  param {
    lr_mult: 2
    decay_mult: 0
  }
  convolution_param {
    num_output: 512
    pad: 1
    kernel_size: 3
    stride: 1
    weight_filler {
      type: "gaussian"
      std: 0.01
    }
    bias_filler {
      type: "constant"
      value: 0
    }
  }
}
layer {
  name: "ReLU5_4"
  type: "ReLU"
  bottom: "conv5_4"
  top: "conv5_4"
}
layer {
  name: "pool5"
  type: "Pooling"
  bottom: "conv5_4"
  top: "pool5"
  pooling_param {
    pool: MAX
    kernel_size: 2
    stride: 2
  }
}
layer {
  name: "fc6"
  type: "InnerProduct"
  bottom: "pool5"
  top: "fc6"
  inner_product_param {
    num_output: 4096
  }
}
layer {
  name: "ReLU6"
  type: "ReLU"
  bottom: "fc6"
  top: "fc6"
}
layer {
  name: "drop6"
  type: "Dropout"
  bottom: "fc6"
  top: "fc6"
  dropout_param {
    dropout_ratio: 0.5
  }
}
layer {
  name: "fc7"
  type: "InnerProduct"
  bottom: "fc6"
  top: "fc7"
  inner_product_param {
    num_output: 4096
  }
}
layer {
  name: "ReLU7"
  type: "ReLU"
  bottom: "fc7"
  top: "fc7"
}
layer {
  name: "drop7"
  type: "Dropout"
  bottom: "fc7"
  top: "fc7"
  dropout_param {
    dropout_ratio: 0.5
  }
}
layer {
  name: "fc8"
  type: "InnerProduct"
  bottom: "fc7"
  top: "fc8"
  inner_product_param {
    num_output: 1000
  }
}
layer {
  name: "accuracy"
  type: "Accuracy"
  bottom: "fc8"
  bottom: "label"
  top: "accuracy"
  include {
    phase: TEST
  }
  include {
    phase: TRAIN
  }
}
layer {
  name: "loss"
  type: "SoftmaxWithLoss"
  bottom: "fc8"
  bottom: "label"
  top: "loss"
}
I0222 16:41:59.091950  3493 layer_factory.hpp:77] Creating layer data
I0222 16:41:59.113255  3493 db_lmdb.cpp:35] Opened lmdb /home/abc-5/Desktop/DOP17_SK_SM/Run1_20_2/colfer_train_lmdb
I0222 16:41:59.124001  3493 net.cpp:86] Creating Layer data
I0222 16:41:59.124063  3493 net.cpp:382] data -> data
I0222 16:41:59.124117  3493 net.cpp:382] data -> label
I0222 16:41:59.124153  3493 data_transformer.cpp:25] Loading mean file from: /home/abc-5/Desktop/DOP17_SK_SM/Run1_20_2/colfer_mean.binaryproto
I0222 16:41:59.164549  3493 data_layer.cpp:45] output data size: 10,3,224,224
I0222 16:41:59.187279  3493 net.cpp:124] Setting up data
I0222 16:41:59.187361  3493 net.cpp:131] Top shape: 10 3 224 224 (1505280)
I0222 16:41:59.187379  3493 net.cpp:131] Top shape: 10 (10)
I0222 16:41:59.187391  3493 net.cpp:139] Memory required for data: 6021160
I0222 16:41:59.187414  3493 layer_factory.hpp:77] Creating layer label_data_1_split
I0222 16:41:59.187443  3493 net.cpp:86] Creating Layer label_data_1_split
I0222 16:41:59.187460  3493 net.cpp:408] label_data_1_split <- label
I0222 16:41:59.187490  3493 net.cpp:382] label_data_1_split -> label_data_1_split_0
I0222 16:41:59.187518  3493 net.cpp:382] label_data_1_split -> label_data_1_split_1
I0222 16:41:59.187635  3493 net.cpp:124] Setting up label_data_1_split
I0222 16:41:59.187659  3493 net.cpp:131] Top shape: 10 (10)
I0222 16:41:59.187685  3493 net.cpp:131] Top shape: 10 (10)
I0222 16:41:59.187714  3493 net.cpp:139] Memory required for data: 6021240
I0222 16:41:59.187729  3493 layer_factory.hpp:77] Creating layer conv1_1
I0222 16:41:59.187782  3493 net.cpp:86] Creating Layer conv1_1
I0222 16:41:59.187794  3493 net.cpp:408] conv1_1 <- data
I0222 16:41:59.187815  3493 net.cpp:382] conv1_1 -> conv1_1
I0222 16:42:00.921912  3493 net.cpp:124] Setting up conv1_1
I0222 16:42:00.922025  3493 net.cpp:131] Top shape: 10 64 224 224 (32112640)
I0222 16:42:00.922051  3493 net.cpp:139] Memory required for data: 134471800
I0222 16:42:00.922112  3493 layer_factory.hpp:77] Creating layer ReLU1_1
I0222 16:42:00.922164  3493 net.cpp:86] Creating Layer ReLU1_1
I0222 16:42:00.922184  3493 net.cpp:408] ReLU1_1 <- conv1_1
I0222 16:42:00.922204  3493 net.cpp:369] ReLU1_1 -> conv1_1 (in-place)
I0222 16:42:00.922801  3493 net.cpp:124] Setting up ReLU1_1
I0222 16:42:00.922838  3493 net.cpp:131] Top shape: 10 64 224 224 (32112640)
I0222 16:42:00.922852  3493 net.cpp:139] Memory required for data: 262922360
I0222 16:42:00.922865  3493 layer_factory.hpp:77] Creating layer conv1_2
I0222 16:42:00.922902  3493 net.cpp:86] Creating Layer conv1_2
I0222 16:42:00.922919  3493 net.cpp:408] conv1_2 <- conv1_1
I0222 16:42:00.922940  3493 net.cpp:382] conv1_2 -> conv1_2
I0222 16:42:00.929354  3493 net.cpp:124] Setting up conv1_2
I0222 16:42:00.929388  3493 net.cpp:131] Top shape: 10 64 224 224 (32112640)
I0222 16:42:00.929399  3493 net.cpp:139] Memory required for data: 391372920
I0222 16:42:00.929419  3493 layer_factory.hpp:77] Creating layer ReLU1_2
I0222 16:42:00.929433  3493 net.cpp:86] Creating Layer ReLU1_2
I0222 16:42:00.929442  3493 net.cpp:408] ReLU1_2 <- conv1_2
I0222 16:42:00.929456  3493 net.cpp:369] ReLU1_2 -> conv1_2 (in-place)
I0222 16:42:00.930294  3493 net.cpp:124] Setting up ReLU1_2
I0222 16:42:00.930323  3493 net.cpp:131] Top shape: 10 64 224 224 (32112640)
I0222 16:42:00.930331  3493 net.cpp:139] Memory required for data: 519823480
I0222 16:42:00.930342  3493 layer_factory.hpp:77] Creating layer pool1
I0222 16:42:00.930356  3493 net.cpp:86] Creating Layer pool1
I0222 16:42:00.930366  3493 net.cpp:408] pool1 <- conv1_2
I0222 16:42:00.930380  3493 net.cpp:382] pool1 -> pool1
I0222 16:42:00.930485  3493 net.cpp:124] Setting up pool1
I0222 16:42:00.930500  3493 net.cpp:131] Top shape: 10 64 112 112 (8028160)
I0222 16:42:00.930510  3493 net.cpp:139] Memory required for data: 551936120
I0222 16:42:00.930517  3493 layer_factory.hpp:77] Creating layer conv2_1
I0222 16:42:00.930541  3493 net.cpp:86] Creating Layer conv2_1
I0222 16:42:00.930550  3493 net.cpp:408] conv2_1 <- pool1
I0222 16:42:00.930563  3493 net.cpp:382] conv2_1 -> conv2_1
I0222 16:42:00.934952  3493 net.cpp:124] Setting up conv2_1
I0222 16:42:00.934978  3493 net.cpp:131] Top shape: 10 128 112 112 (16056320)
I0222 16:42:00.934984  3493 net.cpp:139] Memory required for data: 616161400
I0222 16:42:00.934999  3493 layer_factory.hpp:77] Creating layer ReLU2_1
I0222 16:42:00.935014  3493 net.cpp:86] Creating Layer ReLU2_1
I0222 16:42:00.935022  3493 net.cpp:408] ReLU2_1 <- conv2_1
I0222 16:42:00.935031  3493 net.cpp:369] ReLU2_1 -> conv2_1 (in-place)
I0222 16:42:00.935653  3493 net.cpp:124] Setting up ReLU2_1
I0222 16:42:00.935672  3493 net.cpp:131] Top shape: 10 128 112 112 (16056320)
I0222 16:42:00.935680  3493 net.cpp:139] Memory required for data: 680386680
I0222 16:42:00.935688  3493 layer_factory.hpp:77] Creating layer conv2_2
I0222 16:42:00.935703  3493 net.cpp:86] Creating Layer conv2_2
I0222 16:42:00.935710  3493 net.cpp:408] conv2_2 <- conv2_1
I0222 16:42:00.935724  3493 net.cpp:382] conv2_2 -> conv2_2
I0222 16:42:00.972704  3493 net.cpp:124] Setting up conv2_2
I0222 16:42:00.972750  3493 net.cpp:131] Top shape: 10 128 112 112 (16056320)
I0222 16:42:00.972759  3493 net.cpp:139] Memory required for data: 744611960
I0222 16:42:00.972775  3493 layer_factory.hpp:77] Creating layer ReLU2_2
I0222 16:42:00.972789  3493 net.cpp:86] Creating Layer ReLU2_2
I0222 16:42:00.972796  3493 net.cpp:408] ReLU2_2 <- conv2_2
I0222 16:42:00.972823  3493 net.cpp:369] ReLU2_2 -> conv2_2 (in-place)
I0222 16:42:00.973157  3493 net.cpp:124] Setting up ReLU2_2
I0222 16:42:00.973176  3493 net.cpp:131] Top shape: 10 128 112 112 (16056320)
I0222 16:42:00.973182  3493 net.cpp:139] Memory required for data: 808837240
I0222 16:42:00.973189  3493 layer_factory.hpp:77] Creating layer pool2
I0222 16:42:00.973202  3493 net.cpp:86] Creating Layer pool2
I0222 16:42:00.973209  3493 net.cpp:408] pool2 <- conv2_2
I0222 16:42:00.973218  3493 net.cpp:382] pool2 -> pool2
I0222 16:42:00.973312  3493 net.cpp:124] Setting up pool2
I0222 16:42:00.973325  3493 net.cpp:131] Top shape: 10 128 56 56 (4014080)
I0222 16:42:00.973331  3493 net.cpp:139] Memory required for data: 824893560
I0222 16:42:00.973337  3493 layer_factory.hpp:77] Creating layer conv3_1
I0222 16:42:00.973353  3493 net.cpp:86] Creating Layer conv3_1
I0222 16:42:00.973361  3493 net.cpp:408] conv3_1 <- pool2
I0222 16:42:00.973373  3493 net.cpp:382] conv3_1 -> conv3_1
I0222 16:42:01.002189  3493 net.cpp:124] Setting up conv3_1
I0222 16:42:01.002252  3493 net.cpp:131] Top shape: 10 256 56 56 (8028160)
I0222 16:42:01.002266  3493 net.cpp:139] Memory required for data: 857006200
I0222 16:42:01.002300  3493 layer_factory.hpp:77] Creating layer ReLU3_1
I0222 16:42:01.002321  3493 net.cpp:86] Creating Layer ReLU3_1
I0222 16:42:01.002333  3493 net.cpp:408] ReLU3_1 <- conv3_1
I0222 16:42:01.002351  3493 net.cpp:369] ReLU3_1 -> conv3_1 (in-place)
I0222 16:42:01.003368  3493 net.cpp:124] Setting up ReLU3_1
I0222 16:42:01.003399  3493 net.cpp:131] Top shape: 10 256 56 56 (8028160)
I0222 16:42:01.003410  3493 net.cpp:139] Memory required for data: 889118840
I0222 16:42:01.003422  3493 layer_factory.hpp:77] Creating layer conv3_2
I0222 16:42:01.003458  3493 net.cpp:86] Creating Layer conv3_2
I0222 16:42:01.003471  3493 net.cpp:408] conv3_2 <- conv3_1
I0222 16:42:01.003489  3493 net.cpp:382] conv3_2 -> conv3_2
I0222 16:42:01.027606  3493 net.cpp:124] Setting up conv3_2
I0222 16:42:01.027667  3493 net.cpp:131] Top shape: 10 256 56 56 (8028160)
I0222 16:42:01.027684  3493 net.cpp:139] Memory required for data: 921231480
I0222 16:42:01.027709  3493 layer_factory.hpp:77] Creating layer ReLU3_2
I0222 16:42:01.027732  3493 net.cpp:86] Creating Layer ReLU3_2
I0222 16:42:01.027747  3493 net.cpp:408] ReLU3_2 <- conv3_2
I0222 16:42:01.027765  3493 net.cpp:369] ReLU3_2 -> conv3_2 (in-place)
I0222 16:42:01.028982  3493 net.cpp:124] Setting up ReLU3_2
I0222 16:42:01.029027  3493 net.cpp:131] Top shape: 10 256 56 56 (8028160)
I0222 16:42:01.029036  3493 net.cpp:139] Memory required for data: 953344120
I0222 16:42:01.029044  3493 layer_factory.hpp:77] Creating layer conv3_3
I0222 16:42:01.029072  3493 net.cpp:86] Creating Layer conv3_3
I0222 16:42:01.029083  3493 net.cpp:408] conv3_3 <- conv3_2
I0222 16:42:01.029099  3493 net.cpp:382] conv3_3 -> conv3_3
I0222 16:42:01.042171  3493 net.cpp:124] Setting up conv3_3
I0222 16:42:01.042194  3493 net.cpp:131] Top shape: 10 256 56 56 (8028160)
I0222 16:42:01.042201  3493 net.cpp:139] Memory required for data: 985456760
I0222 16:42:01.042212  3493 layer_factory.hpp:77] Creating layer ReLU3_3
I0222 16:42:01.042220  3493 net.cpp:86] Creating Layer ReLU3_3
I0222 16:42:01.042227  3493 net.cpp:408] ReLU3_3 <- conv3_3
I0222 16:42:01.042237  3493 net.cpp:369] ReLU3_3 -> conv3_3 (in-place)
I0222 16:42:01.042464  3493 net.cpp:124] Setting up ReLU3_3
I0222 16:42:01.042477  3493 net.cpp:131] Top shape: 10 256 56 56 (8028160)
I0222 16:42:01.042482  3493 net.cpp:139] Memory required for data: 1017569400
I0222 16:42:01.042490  3493 layer_factory.hpp:77] Creating layer conv3_4
I0222 16:42:01.042501  3493 net.cpp:86] Creating Layer conv3_4
I0222 16:42:01.042507  3493 net.cpp:408] conv3_4 <- conv3_3
I0222 16:42:01.042517  3493 net.cpp:382] conv3_4 -> conv3_4
I0222 16:42:01.051179  3493 net.cpp:124] Setting up conv3_4
I0222 16:42:01.051198  3493 net.cpp:131] Top shape: 10 256 56 56 (8028160)
I0222 16:42:01.051203  3493 net.cpp:139] Memory required for data: 1049682040
I0222 16:42:01.051215  3493 layer_factory.hpp:77] Creating layer ReLU3_4
I0222 16:42:01.051229  3493 net.cpp:86] Creating Layer ReLU3_4
I0222 16:42:01.051234  3493 net.cpp:408] ReLU3_4 <- conv3_4
I0222 16:42:01.051240  3493 net.cpp:369] ReLU3_4 -> conv3_4 (in-place)
I0222 16:42:01.051618  3493 net.cpp:124] Setting up ReLU3_4
I0222 16:42:01.051632  3493 net.cpp:131] Top shape: 10 256 56 56 (8028160)
I0222 16:42:01.051636  3493 net.cpp:139] Memory required for data: 1081794680
I0222 16:42:01.051640  3493 layer_factory.hpp:77] Creating layer pool3
I0222 16:42:01.051646  3493 net.cpp:86] Creating Layer pool3
I0222 16:42:01.051651  3493 net.cpp:408] pool3 <- conv3_4
I0222 16:42:01.051657  3493 net.cpp:382] pool3 -> pool3
I0222 16:42:01.051699  3493 net.cpp:124] Setting up pool3
I0222 16:42:01.051707  3493 net.cpp:131] Top shape: 10 256 28 28 (2007040)
I0222 16:42:01.051712  3493 net.cpp:139] Memory required for data: 1089822840
I0222 16:42:01.051714  3493 layer_factory.hpp:77] Creating layer conv4_1
I0222 16:42:01.051723  3493 net.cpp:86] Creating Layer conv4_1
I0222 16:42:01.051728  3493 net.cpp:408] conv4_1 <- pool3
I0222 16:42:01.051735  3493 net.cpp:382] conv4_1 -> conv4_1
I0222 16:42:01.063210  3493 net.cpp:124] Setting up conv4_1
I0222 16:42:01.063231  3493 net.cpp:131] Top shape: 10 512 28 28 (4014080)
I0222 16:42:01.063235  3493 net.cpp:139] Memory required for data: 1105879160
I0222 16:42:01.063246  3493 layer_factory.hpp:77] Creating layer ReLU4_1
I0222 16:42:01.063252  3493 net.cpp:86] Creating Layer ReLU4_1
I0222 16:42:01.063256  3493 net.cpp:408] ReLU4_1 <- conv4_1
I0222 16:42:01.063261  3493 net.cpp:369] ReLU4_1 -> conv4_1 (in-place)
I0222 16:42:01.063565  3493 net.cpp:124] Setting up ReLU4_1
I0222 16:42:01.063572  3493 net.cpp:131] Top shape: 10 512 28 28 (4014080)
I0222 16:42:01.063575  3493 net.cpp:139] Memory required for data: 1121935480
I0222 16:42:01.063578  3493 layer_factory.hpp:77] Creating layer conv4_2
I0222 16:42:01.063587  3493 net.cpp:86] Creating Layer conv4_2
I0222 16:42:01.063591  3493 net.cpp:408] conv4_2 <- conv4_1
I0222 16:42:01.063596  3493 net.cpp:382] conv4_2 -> conv4_2
I0222 16:42:01.082521  3493 net.cpp:124] Setting up conv4_2
I0222 16:42:01.082547  3493 net.cpp:131] Top shape: 10 512 28 28 (4014080)
I0222 16:42:01.082551  3493 net.cpp:139] Memory required for data: 1137991800
I0222 16:42:01.082572  3493 layer_factory.hpp:77] Creating layer ReLU4_2
I0222 16:42:01.082581  3493 net.cpp:86] Creating Layer ReLU4_2
I0222 16:42:01.082584  3493 net.cpp:408] ReLU4_2 <- conv4_2
I0222 16:42:01.082589  3493 net.cpp:369] ReLU4_2 -> conv4_2 (in-place)
I0222 16:42:01.082711  3493 net.cpp:124] Setting up ReLU4_2
I0222 16:42:01.082718  3493 net.cpp:131] Top shape: 10 512 28 28 (4014080)
I0222 16:42:01.082722  3493 net.cpp:139] Memory required for data: 1154048120
I0222 16:42:01.082725  3493 layer_factory.hpp:77] Creating layer conv4_3
I0222 16:42:01.082733  3493 net.cpp:86] Creating Layer conv4_3
I0222 16:42:01.082736  3493 net.cpp:408] conv4_3 <- conv4_2
I0222 16:42:01.082741  3493 net.cpp:382] conv4_3 -> conv4_3
I0222 16:42:01.101656  3493 net.cpp:124] Setting up conv4_3
I0222 16:42:01.101681  3493 net.cpp:131] Top shape: 10 512 28 28 (4014080)
I0222 16:42:01.101685  3493 net.cpp:139] Memory required for data: 1170104440
I0222 16:42:01.101692  3493 layer_factory.hpp:77] Creating layer ReLU4_3
I0222 16:42:01.101698  3493 net.cpp:86] Creating Layer ReLU4_3
I0222 16:42:01.101702  3493 net.cpp:408] ReLU4_3 <- conv4_3
I0222 16:42:01.101708  3493 net.cpp:369] ReLU4_3 -> conv4_3 (in-place)
I0222 16:42:01.102005  3493 net.cpp:124] Setting up ReLU4_3
I0222 16:42:01.102012  3493 net.cpp:131] Top shape: 10 512 28 28 (4014080)
I0222 16:42:01.102015  3493 net.cpp:139] Memory required for data: 1186160760
I0222 16:42:01.102018  3493 layer_factory.hpp:77] Creating layer conv4_4
I0222 16:42:01.102027  3493 net.cpp:86] Creating Layer conv4_4
I0222 16:42:01.102030  3493 net.cpp:408] conv4_4 <- conv4_3
I0222 16:42:01.102036  3493 net.cpp:382] conv4_4 -> conv4_4
I0222 16:42:01.120710  3493 net.cpp:124] Setting up conv4_4
I0222 16:42:01.120741  3493 net.cpp:131] Top shape: 10 512 28 28 (4014080)
I0222 16:42:01.120751  3493 net.cpp:139] Memory required for data: 1202217080
I0222 16:42:01.120759  3493 layer_factory.hpp:77] Creating layer ReLU4_4
I0222 16:42:01.120765  3493 net.cpp:86] Creating Layer ReLU4_4
I0222 16:42:01.120769  3493 net.cpp:408] ReLU4_4 <- conv4_4
I0222 16:42:01.120774  3493 net.cpp:369] ReLU4_4 -> conv4_4 (in-place)
I0222 16:42:01.121074  3493 net.cpp:124] Setting up ReLU4_4
I0222 16:42:01.121085  3493 net.cpp:131] Top shape: 10 512 28 28 (4014080)
I0222 16:42:01.121089  3493 net.cpp:139] Memory required for data: 1218273400
I0222 16:42:01.121093  3493 layer_factory.hpp:77] Creating layer pool4
I0222 16:42:01.121098  3493 net.cpp:86] Creating Layer pool4
I0222 16:42:01.121101  3493 net.cpp:408] pool4 <- conv4_4
I0222 16:42:01.121106  3493 net.cpp:382] pool4 -> pool4
I0222 16:42:01.121140  3493 net.cpp:124] Setting up pool4
I0222 16:42:01.121145  3493 net.cpp:131] Top shape: 10 512 14 14 (1003520)
I0222 16:42:01.121148  3493 net.cpp:139] Memory required for data: 1222287480
I0222 16:42:01.121151  3493 layer_factory.hpp:77] Creating layer conv5_1
I0222 16:42:01.121160  3493 net.cpp:86] Creating Layer conv5_1
I0222 16:42:01.121162  3493 net.cpp:408] conv5_1 <- pool4
I0222 16:42:01.121168  3493 net.cpp:382] conv5_1 -> conv5_1
I0222 16:42:01.140414  3493 net.cpp:124] Setting up conv5_1
I0222 16:42:01.140441  3493 net.cpp:131] Top shape: 10 512 14 14 (1003520)
I0222 16:42:01.140445  3493 net.cpp:139] Memory required for data: 1226301560
I0222 16:42:01.140452  3493 layer_factory.hpp:77] Creating layer ReLU5_1
I0222 16:42:01.140460  3493 net.cpp:86] Creating Layer ReLU5_1
I0222 16:42:01.140462  3493 net.cpp:408] ReLU5_1 <- conv5_1
I0222 16:42:01.140467  3493 net.cpp:369] ReLU5_1 -> conv5_1 (in-place)
I0222 16:42:01.140599  3493 net.cpp:124] Setting up ReLU5_1
I0222 16:42:01.140607  3493 net.cpp:131] Top shape: 10 512 14 14 (1003520)
I0222 16:42:01.140610  3493 net.cpp:139] Memory required for data: 1230315640
I0222 16:42:01.140614  3493 layer_factory.hpp:77] Creating layer conv5_2
I0222 16:42:01.140625  3493 net.cpp:86] Creating Layer conv5_2
I0222 16:42:01.140627  3493 net.cpp:408] conv5_2 <- conv5_1
I0222 16:42:01.140632  3493 net.cpp:382] conv5_2 -> conv5_2
I0222 16:42:01.159484  3493 net.cpp:124] Setting up conv5_2
I0222 16:42:01.159508  3493 net.cpp:131] Top shape: 10 512 14 14 (1003520)
I0222 16:42:01.159512  3493 net.cpp:139] Memory required for data: 1234329720
I0222 16:42:01.159519  3493 layer_factory.hpp:77] Creating layer ReLU5_2
I0222 16:42:01.159525  3493 net.cpp:86] Creating Layer ReLU5_2
I0222 16:42:01.159529  3493 net.cpp:408] ReLU5_2 <- conv5_2
I0222 16:42:01.159535  3493 net.cpp:369] ReLU5_2 -> conv5_2 (in-place)
I0222 16:42:01.159829  3493 net.cpp:124] Setting up ReLU5_2
I0222 16:42:01.159838  3493 net.cpp:131] Top shape: 10 512 14 14 (1003520)
I0222 16:42:01.159842  3493 net.cpp:139] Memory required for data: 1238343800
I0222 16:42:01.159845  3493 layer_factory.hpp:77] Creating layer conv5_3
I0222 16:42:01.159865  3493 net.cpp:86] Creating Layer conv5_3
I0222 16:42:01.159868  3493 net.cpp:408] conv5_3 <- conv5_2
I0222 16:42:01.159874  3493 net.cpp:382] conv5_3 -> conv5_3
I0222 16:42:01.178570  3493 net.cpp:124] Setting up conv5_3
I0222 16:42:01.178596  3493 net.cpp:131] Top shape: 10 512 14 14 (1003520)
I0222 16:42:01.178598  3493 net.cpp:139] Memory required for data: 1242357880
I0222 16:42:01.178606  3493 layer_factory.hpp:77] Creating layer ReLU5_3
I0222 16:42:01.178611  3493 net.cpp:86] Creating Layer ReLU5_3
I0222 16:42:01.178616  3493 net.cpp:408] ReLU5_3 <- conv5_3
I0222 16:42:01.178620  3493 net.cpp:369] ReLU5_3 -> conv5_3 (in-place)
I0222 16:42:01.178927  3493 net.cpp:124] Setting up ReLU5_3
I0222 16:42:01.178936  3493 net.cpp:131] Top shape: 10 512 14 14 (1003520)
I0222 16:42:01.178941  3493 net.cpp:139] Memory required for data: 1246371960
I0222 16:42:01.178943  3493 layer_factory.hpp:77] Creating layer conv5_4
I0222 16:42:01.178951  3493 net.cpp:86] Creating Layer conv5_4
I0222 16:42:01.178954  3493 net.cpp:408] conv5_4 <- conv5_3
I0222 16:42:01.178966  3493 net.cpp:382] conv5_4 -> conv5_4
I0222 16:42:01.198029  3493 net.cpp:124] Setting up conv5_4
I0222 16:42:01.198053  3493 net.cpp:131] Top shape: 10 512 14 14 (1003520)
I0222 16:42:01.198057  3493 net.cpp:139] Memory required for data: 1250386040
I0222 16:42:01.198065  3493 layer_factory.hpp:77] Creating layer ReLU5_4
I0222 16:42:01.198071  3493 net.cpp:86] Creating Layer ReLU5_4
I0222 16:42:01.198074  3493 net.cpp:408] ReLU5_4 <- conv5_4
I0222 16:42:01.198081  3493 net.cpp:369] ReLU5_4 -> conv5_4 (in-place)
I0222 16:42:01.198204  3493 net.cpp:124] Setting up ReLU5_4
I0222 16:42:01.198211  3493 net.cpp:131] Top shape: 10 512 14 14 (1003520)
I0222 16:42:01.198215  3493 net.cpp:139] Memory required for data: 1254400120
I0222 16:42:01.198217  3493 layer_factory.hpp:77] Creating layer pool5
I0222 16:42:01.198222  3493 net.cpp:86] Creating Layer pool5
I0222 16:42:01.198226  3493 net.cpp:408] pool5 <- conv5_4
I0222 16:42:01.198230  3493 net.cpp:382] pool5 -> pool5
I0222 16:42:01.198268  3493 net.cpp:124] Setting up pool5
I0222 16:42:01.198274  3493 net.cpp:131] Top shape: 10 512 7 7 (250880)
I0222 16:42:01.198277  3493 net.cpp:139] Memory required for data: 1255403640
I0222 16:42:01.198281  3493 layer_factory.hpp:77] Creating layer fc6
I0222 16:42:01.198284  3493 net.cpp:86] Creating Layer fc6
I0222 16:42:01.198287  3493 net.cpp:408] fc6 <- pool5
I0222 16:42:01.198292  3493 net.cpp:382] fc6 -> fc6
I0222 16:42:01.311327  3493 net.cpp:124] Setting up fc6
I0222 16:42:01.311358  3493 net.cpp:131] Top shape: 10 4096 (40960)
I0222 16:42:01.311362  3493 net.cpp:139] Memory required for data: 1255567480
I0222 16:42:01.311374  3493 layer_factory.hpp:77] Creating layer ReLU6
I0222 16:42:01.311383  3493 net.cpp:86] Creating Layer ReLU6
I0222 16:42:01.311386  3493 net.cpp:408] ReLU6 <- fc6
I0222 16:42:01.311391  3493 net.cpp:369] ReLU6 -> fc6 (in-place)
I0222 16:42:01.311785  3493 net.cpp:124] Setting up ReLU6
I0222 16:42:01.311794  3493 net.cpp:131] Top shape: 10 4096 (40960)
I0222 16:42:01.311796  3493 net.cpp:139] Memory required for data: 1255731320
I0222 16:42:01.311800  3493 layer_factory.hpp:77] Creating layer drop6
I0222 16:42:01.311806  3493 net.cpp:86] Creating Layer drop6
I0222 16:42:01.311810  3493 net.cpp:408] drop6 <- fc6
I0222 16:42:01.311815  3493 net.cpp:369] drop6 -> fc6 (in-place)
I0222 16:42:01.311843  3493 net.cpp:124] Setting up drop6
I0222 16:42:01.311848  3493 net.cpp:131] Top shape: 10 4096 (40960)
I0222 16:42:01.311851  3493 net.cpp:139] Memory required for data: 1255895160
I0222 16:42:01.311853  3493 layer_factory.hpp:77] Creating layer fc7
I0222 16:42:01.311858  3493 net.cpp:86] Creating Layer fc7
I0222 16:42:01.311862  3493 net.cpp:408] fc7 <- fc6
I0222 16:42:01.311866  3493 net.cpp:382] fc7 -> fc7
I0222 16:42:01.330235  3493 net.cpp:124] Setting up fc7
I0222 16:42:01.330262  3493 net.cpp:131] Top shape: 10 4096 (40960)
I0222 16:42:01.330266  3493 net.cpp:139] Memory required for data: 1256059000
I0222 16:42:01.330273  3493 layer_factory.hpp:77] Creating layer ReLU7
I0222 16:42:01.330281  3493 net.cpp:86] Creating Layer ReLU7
I0222 16:42:01.330284  3493 net.cpp:408] ReLU7 <- fc7
I0222 16:42:01.330291  3493 net.cpp:369] ReLU7 -> fc7 (in-place)
I0222 16:42:01.330457  3493 net.cpp:124] Setting up ReLU7
I0222 16:42:01.330463  3493 net.cpp:131] Top shape: 10 4096 (40960)
I0222 16:42:01.330466  3493 net.cpp:139] Memory required for data: 1256222840
I0222 16:42:01.330469  3493 layer_factory.hpp:77] Creating layer drop7
I0222 16:42:01.330474  3493 net.cpp:86] Creating Layer drop7
I0222 16:42:01.330477  3493 net.cpp:408] drop7 <- fc7
I0222 16:42:01.330482  3493 net.cpp:369] drop7 -> fc7 (in-place)
I0222 16:42:01.330505  3493 net.cpp:124] Setting up drop7
I0222 16:42:01.330509  3493 net.cpp:131] Top shape: 10 4096 (40960)
I0222 16:42:01.330513  3493 net.cpp:139] Memory required for data: 1256386680
I0222 16:42:01.330514  3493 layer_factory.hpp:77] Creating layer fc8
I0222 16:42:01.330519  3493 net.cpp:86] Creating Layer fc8
I0222 16:42:01.330523  3493 net.cpp:408] fc8 <- fc7
I0222 16:42:01.330531  3493 net.cpp:382] fc8 -> fc8
I0222 16:42:01.335369  3493 net.cpp:124] Setting up fc8
I0222 16:42:01.335397  3493 net.cpp:131] Top shape: 10 1000 (10000)
I0222 16:42:01.335399  3493 net.cpp:139] Memory required for data: 1256426680
I0222 16:42:01.335407  3493 layer_factory.hpp:77] Creating layer fc8_fc8_0_split
I0222 16:42:01.335414  3493 net.cpp:86] Creating Layer fc8_fc8_0_split
I0222 16:42:01.335419  3493 net.cpp:408] fc8_fc8_0_split <- fc8
I0222 16:42:01.335428  3493 net.cpp:382] fc8_fc8_0_split -> fc8_fc8_0_split_0
I0222 16:42:01.335434  3493 net.cpp:382] fc8_fc8_0_split -> fc8_fc8_0_split_1
I0222 16:42:01.335469  3493 net.cpp:124] Setting up fc8_fc8_0_split
I0222 16:42:01.335474  3493 net.cpp:131] Top shape: 10 1000 (10000)
I0222 16:42:01.335477  3493 net.cpp:131] Top shape: 10 1000 (10000)
I0222 16:42:01.335480  3493 net.cpp:139] Memory required for data: 1256506680
I0222 16:42:01.335482  3493 layer_factory.hpp:77] Creating layer accuracy
I0222 16:42:01.335489  3493 net.cpp:86] Creating Layer accuracy
I0222 16:42:01.335491  3493 net.cpp:408] accuracy <- fc8_fc8_0_split_0
I0222 16:42:01.335495  3493 net.cpp:408] accuracy <- label_data_1_split_0
I0222 16:42:01.335500  3493 net.cpp:382] accuracy -> accuracy
…
I0222 16:42:01.336601  3493 net.cpp:296] The NetState phase (1) differed from the phase (0) specified by a rule in layer data
I0222 16:42:01.336782  3493 net.cpp:53] Initializing net from parameters: 
name: "VGG_ILSVRC_19_layers"
state {
  phase: TEST
}
layer {
  name: "data"
  type: "Data"
  top: "data"
  top: "label"
  include {
    phase: TEST
  }
  transform_param {
    mirror: false
    crop_size: 224
    mean_file: "/home/abc-5/Desktop/DOP17_SK_SM/Run1_20_2/colfer_mean.binaryproto"
  }
  data_param {
    source: "/home/abc-5/Desktop/DOP17_SK_SM/Run1_20_2/colfer_val_lmdb"
    batch_size: 5
    backend: LMDB
  }
}
layer {
  name: "conv1_1"
  type: "Convolution"
  bottom: "data"
  top: "conv1_1"
  param {
    lr_mult: 0
    decay_mult: 0
  }
  param {
    lr_mult: 0
    decay_mult: 0
  }
  convolution_param {
    num_output: 64
    pad: 1
    kernel_size: 3
    stride: 1
    weight_filler {
      type: "gaussian"
      std: 0.01
    }
    bias_filler {
      type: "constant"
      value: 0
    }
  }
}
layer {
  name: "ReLU1_1"
  type: "ReLU"
  bottom: "conv1_1"
  top: "conv1_1"
}
layer {
  name: "conv1_2"
  type: "Convolution"
  bottom: "conv1_1"
  top: "conv1_2"
  param {
    lr_mult: 0
    decay_mult: 0
  }
  param {
    lr_mult: 0
    decay_mult: 0
  }
  convolution_param {
    num_output: 64
    pad: 1
    kernel_size: 3
    stride: 1
    weight_filler {
      type: "gaussian"
      std: 0.01
    }
    bias_filler {
      type: "constant"
      value: 0
    }
  }
}
layer {
  name: "ReLU1_2"
  type: "ReLU"
  bottom: "conv1_2"
  top: "conv1_2"
}
layer {
  name: "pool1"
  type: "Pooling"
  bottom: "conv1_2"
  top: "pool1"
  pooling_param {
    pool: MAX
    kernel_size: 2
    stride: 2
  }
}
layer {
  name: "conv2_1"
  type: "Convolution"
  bottom: "pool1"
  top: "conv2_1"
  param {
    lr_mult: 0
    decay_mult: 0
  }
  param {
    lr_mult: 0
    decay_mult: 0
  }
  convolution_param {
    num_output: 128
    pad: 1
    kernel_size: 3
    stride: 1
    weight_filler {
      type: "gaussian"
      std: 0.01
    }
    bias_filler {
      type: "constant"
      value: 0
    }
  }
}
layer {
  name: "ReLU2_1"
  type: "ReLU"
  bottom: "conv2_1"
  top: "conv2_1"
}
layer {
  name: "conv2_2"
  type: "Convolution"
  bottom: "conv2_1"
  top: "conv2_2"
  param {
    lr_mult: 1
    decay_mult: 1
  }
  param {
    lr_mult: 2
    decay_mult: 0
  }
  convolution_param {
    num_output: 128
    pad: 1
    kernel_size: 3
    stride: 1
    weight_filler {
      type: "gaussian"
      std: 0.01
    }
    bias_filler {
      type: "constant"
      value: 0
    }
  }
}
layer {
  name: "ReLU2_2"
  type: "ReLU"
  bottom: "conv2_2"
  top: "conv2_2"
}
layer {
  name: "pool2"
  type: "Pooling"
  bottom: "conv2_2"
  top: "pool2"
  pooling_param {
    pool: MAX
    kernel_size: 2
    stride: 2
  }
}
layer {
  name: "conv3_1"
  type: "Convolution"
  bottom: "pool2"
  top: "conv3_1"
  param {
    lr_mult: 1
    decay_mult: 1
  }
  param {
    lr_mult: 2
    decay_mult: 0
  }
  convolution_param {
    num_output: 256
    pad: 1
    kernel_size: 3
    stride: 1
    weight_filler {
      type: "gaussian"
      std: 0.01
    }
    bias_filler {
      type: "constant"
      value: 0
    }
  }
}
layer {
  name: "ReLU3_1"
  type: "ReLU"
  bottom: "conv3_1"
  top: "conv3_1"
}
layer {
  name: "conv3_2"
  type: "Convolution"
  bottom: "conv3_1"
  top: "conv3_2"
  param {
    lr_mult: 1
    decay_mult: 1
  }
  param {
    lr_mult: 2
    decay_mult: 0
  }
  convolution_param {
    num_output: 256
    pad: 1
    kernel_size: 3
    stride: 1
    weight_filler {
      type: "gaussian"
      std: 0.01
    }
    bias_filler {
      type: "constant"
      value: 0
    }
  }
}
layer {
  name: "ReLU3_2"
  type: "ReLU"
  bottom: "conv3_2"
  top: "conv3_2"
}
layer {
  name: "conv3_3"
  type: "Convolution"
  bottom: "conv3_2"
  top: "conv3_3"
  param {
    lr_mult: 1
    decay_mult: 1
  }
  param {
    lr_mult: 2
    decay_mult: 0
  }
  convolution_param {
    num_output: 256
    pad: 1
    kernel_size: 3
    stride: 1
    weight_filler {
      type: "gaussian"
      std: 0.01
    }
    bias_filler {
      type: "constant"
      value: 0
    }
  }
}
layer {
  name: "ReLU3_3"
  type: "ReLU"
  bottom: "conv3_3"
  top: "conv3_3"
}
layer {
  name: "conv3_4"
  type: "Convolution"
  bottom: "conv3_3"
  top: "conv3_4"
  param {
    lr_mult: 1
    decay_mult: 1
  }
  param {
    lr_mult: 2
    decay_mult: 0
  }
  convolution_param {
    num_output: 256
    pad: 1
    kernel_size: 3
    stride: 1
    weight_filler {
      type: "gaussian"
      std: 0.01
    }
    bias_filler {
      type: "constant"
      value: 0
    }
  }
}
layer {
  name: "ReLU3_4"
  type: "ReLU"
  bottom: "conv3_4"
  top: "conv3_4"
}
layer {
  name: "pool3"
  type: "Pooling"
  bottom: "conv3_4"
  top: "pool3"
  pooling_param {
    pool: MAX
    kernel_size: 2
    stride: 2
  }
}
layer {
  name: "conv4_1"
  type: "Convolution"
  bottom: "pool3"
  top: "conv4_1"
  param {
    lr_mult: 1
    decay_mult: 1
  }
  param {
    lr_mult: 2
    decay_mult: 0
  }
  convolution_param {
    num_output: 512
    pad: 1
    kernel_size: 3
    stride: 1
    weight_filler {
      type: "gaussian"
      std: 0.01
    }
    bias_filler {
      type: "constant"
      value: 0
    }
  }
}
layer {
  name: "ReLU4_1"
  type: "ReLU"
  bottom: "conv4_1"
  top: "conv4_1"
}
layer {
  name: "conv4_2"
  type: "Convolution"
  bottom: "conv4_1"
  top: "conv4_2"
  param {
    lr_mult: 1
    decay_mult: 1
  }
  param {
    lr_mult: 2
    decay_mult: 0
  }
  convolution_param {
    num_output: 512
    pad: 1
    kernel_size: 3
    stride: 1
    weight_filler {
      type: "gaussian"
      std: 0.01
    }
    bias_filler {
      type: "constant"
      value: 0
    }
  }
}
layer {
  name: "ReLU4_2"
  type: "ReLU"
  bottom: "conv4_2"
  top: "conv4_2"
}
layer {
  name: "conv4_3"
  type: "Convolution"
  bottom: "conv4_2"
  top: "conv4_3"
  param {
    lr_mult: 1
    decay_mult: 1
  }
  param {
    lr_mult: 2
    decay_mult: 0
  }
  convolution_param {
    num_output: 512
    pad: 1
    kernel_size: 3
    stride: 1
    weight_filler {
      type: "gaussian"
      std: 0.01
    }
    bias_filler {
      type: "constant"
      value: 0
    }
  }
}
layer {
  name: "ReLU4_3"
  type: "ReLU"
  bottom: "conv4_3"
  top: "conv4_3"
}
layer {
  name: "conv4_4"
  type: "Convolution"
  bottom: "conv4_3"
  top: "conv4_4"
  param {
    lr_mult: 1
    decay_mult: 1
  }
  param {
    lr_mult: 2
    decay_mult: 0
  }
  convolution_param {
    num_output: 512
    pad: 1
    kernel_size: 3
    stride: 1
    weight_filler {
      type: "gaussian"
      std: 0.01
    }
    bias_filler {
      type: "constant"
      value: 0
    }
  }
}
layer {
  name: "ReLU4_4"
  type: "ReLU"
  bottom: "conv4_4"
  top: "conv4_4"
}
layer {
  name: "pool4"
  type: "Pooling"
  bottom: "conv4_4"
  top: "pool4"
  pooling_param {
    pool: MAX
    kernel_size: 2
    stride: 2
  }
}
layer {
  name: "conv5_1"
  type: "Convolution"
  bottom: "pool4"
  top: "conv5_1"
  param {
    lr_mult: 1
    decay_mult: 1
  }
  param {
    lr_mult: 2
    decay_mult: 0
  }
  convolution_param {
    num_output: 512
    pad: 1
    kernel_size: 3
    stride: 1
    weight_filler {
      type: "gaussian"
      std: 0.01
    }
    bias_filler {
      type: "constant"
      value: 0
    }
  }
}
layer {
  name: "ReLU5_1"
  type: "ReLU"
  bottom: "conv5_1"
  top: "conv5_1"
}
layer {
  name: "conv5_2"
  type: "Convolution"
  bottom: "conv5_1"
  top: "conv5_2"
  param {
    lr_mult: 1
    decay_mult: 1
  }
  param {
    lr_mult: 2
    decay_mult: 0
  }
  convolution_param {
    num_output: 512
    pad: 1
    kernel_size: 3
    stride: 1
    weight_filler {
      type: "gaussian"
      std: 0.01
    }
    bias_filler {
      type: "constant"
      value: 0
    }
  }
}
layer {
  name: "ReLU5_2"
  type: "ReLU"
  bottom: "conv5_2"
  top: "conv5_2"
}
layer {
  name: "conv5_3"
  type: "Convolution"
  bottom: "conv5_2"
  top: "conv5_3"
  param {
    lr_mult: 1
    decay_mult: 1
  }
  param {
    lr_mult: 2
    decay_mult: 0
  }
  convolution_param {
    num_output: 512
    pad: 1
    kernel_size: 3
    stride: 1
    weight_filler {
      type: "gaussian"
      std: 0.01
    }
    bias_filler {
      type: "constant"
      value: 0
    }
  }
}
layer {
  name: "ReLU5_3"
  type: "ReLU"
  bottom: "conv5_3"
  top: "conv5_3"
}
layer {
  name: "conv5_4"
  type: "Convolution"
  bottom: "conv5_3"
  top: "conv5_4"
  param {
    lr_mult: 1
    decay_mult: 1
  }
  param {
    lr_mult: 2
    decay_mult: 0
  }
  convolution_param {
    num_output: 512
    pad: 1
    kernel_size: 3
    stride: 1
    weight_filler {
      type: "gaussian"
      std: 0.01
    }
    bias_filler {
      type: "constant"
      value: 0
    }
  }
}
layer {
  name: "ReLU5_4"
  type: "ReLU"
  bottom: "conv5_4"
  top: "conv5_4"
}
layer {
  name: "pool5"
  type: "Pooling"
  bottom: "conv5_4"
  top: "pool5"
  pooling_param {
    pool: MAX
    kernel_size: 2
    stride: 2
  }
}
layer {
  name: "fc6"
  type: "InnerProduct"
  bottom: "pool5"
  top: "fc6"
  inner_product_param {
    num_output: 4096
  }
}
layer {
  name: "ReLU6"
  type: "ReLU"
  bottom: "fc6"
  top: "fc6"
}
layer {
  name: "drop6"
  type: "Dropout"
  bottom: "fc6"
  top: "fc6"
  dropout_param {
    dropout_ratio: 0.5
  }
}
layer {
  name: "fc7"
  type: "InnerProduct"
  bottom: "fc6"
  top: "fc7"
  inner_product_param {
    num_output: 4096
  }
}
layer {
  name: "ReLU7"
  type: "ReLU"
  bottom: "fc7"
  top: "fc7"
}
layer {
  name: "drop7"
  type: "Dropout"
  bottom: "fc7"
  top: "fc7"
  dropout_param {
    dropout_ratio: 0.5
  }
}
layer {
  name: "fc8"
  type: "InnerProduct"
  bottom: "fc7"
  top: "fc8"
  inner_product_param {
    num_output: 1000
  }
}
layer {
  name: "accuracy"
  type: "Accuracy"
  bottom: "fc8"
  bottom: "label"
  top: "accuracy"
  include {
    phase: TEST
  }
  include {
    phase: TRAIN
  }
}
layer {
  name: "loss"
  type: "SoftmaxWithLoss"
  bottom: "fc8"
  bottom: "label"
  top: "loss"
}
I0222 16:42:01.336886  3493 layer_factory.hpp:77] Creating layer data
I0222 16:42:01.370370  3493 db_lmdb.cpp:35] Opened lmdb /home/abc-5/Desktop/DOP17_SK_SM/Run1_20_2/colfer_val_lmdb
I0222 16:42:01.385196  3493 net.cpp:86] Creating Layer data
I0222 16:42:01.385241  3493 net.cpp:382] data -> data
I0222 16:42:01.385259  3493 net.cpp:382] data -> label
I0222 16:42:01.385272  3493 data_transformer.cpp:25] Loading mean file from: /home/abc-5/Desktop/DOP17_SK_SM/Run1_20_2/colfer_mean.binaryproto
I0222 16:42:01.388140  3493 data_layer.cpp:45] output data size: 5,3,224,224
I0222 16:42:01.395450  3493 net.cpp:124] Setting up data
I0222 16:42:01.395493  3493 net.cpp:131] Top shape: 5 3 224 224 (752640)
I0222 16:42:01.395501  3493 net.cpp:131] Top shape: 5 (5)
I0222 16:42:01.395506  3493 net.cpp:139] Memory required for data: 3010580
I0222 16:42:01.395515  3493 layer_factory.hpp:77] Creating layer label_data_1_split
I0222 16:42:01.395531  3493 net.cpp:86] Creating Layer label_data_1_split
I0222 16:42:01.395539  3493 net.cpp:408] label_data_1_split <- label
I0222 16:42:01.395548  3493 net.cpp:382] label_data_1_split -> label_data_1_split_0
I0222 16:42:01.395562  3493 net.cpp:382] label_data_1_split -> label_data_1_split_1
I0222 16:42:01.395738  3493 net.cpp:124] Setting up label_data_1_split
I0222 16:42:01.395763  3493 net.cpp:131] Top shape: 5 (5)
I0222 16:42:01.395772  3493 net.cpp:131] Top shape: 5 (5)
I0222 16:42:01.395777  3493 net.cpp:139] Memory required for data: 3010620
I0222 16:42:01.395786  3493 layer_factory.hpp:77] Creating layer conv1_1
I0222 16:42:01.395803  3493 net.cpp:86] Creating Layer conv1_1
I0222 16:42:01.395809  3493 net.cpp:408] conv1_1 <- data
I0222 16:42:01.395820  3493 net.cpp:382] conv1_1 -> conv1_1
I0222 16:42:01.398633  3493 net.cpp:124] Setting up conv1_1
I0222 16:42:01.398659  3493 net.cpp:131] Top shape: 5 64 224 224 (16056320)
I0222 16:42:01.398666  3493 net.cpp:139] Memory required for data: 67235900
I0222 16:42:01.398682  3493 layer_factory.hpp:77] Creating layer ReLU1_1
I0222 16:42:01.398694  3493 net.cpp:86] Creating Layer ReLU1_1
I0222 16:42:01.398700  3493 net.cpp:408] ReLU1_1 <- conv1_1
I0222 16:42:01.398710  3493 net.cpp:369] ReLU1_1 -> conv1_1 (in-place)
I0222 16:42:01.398968  3493 net.cpp:124] Setting up ReLU1_1
I0222 16:42:01.398984  3493 net.cpp:131] Top shape: 5 64 224 224 (16056320)
I0222 16:42:01.398990  3493 net.cpp:139] Memory required for data: 131461180
I0222 16:42:01.398996  3493 layer_factory.hpp:77] Creating layer conv1_2
I0222 16:42:01.399010  3493 net.cpp:86] Creating Layer conv1_2
I0222 16:42:01.399018  3493 net.cpp:408] conv1_2 <- conv1_1
I0222 16:42:01.399027  3493 net.cpp:382] conv1_2 -> conv1_2
I0222 16:42:01.402276  3493 net.cpp:124] Setting up conv1_2
I0222 16:42:01.402299  3493 net.cpp:131] Top shape: 5 64 224 224 (16056320)
I0222 16:42:01.402307  3493 net.cpp:139] Memory required for data: 195686460
I0222 16:42:01.402321  3493 layer_factory.hpp:77] Creating layer ReLU1_2
I0222 16:42:01.402331  3493 net.cpp:86] Creating Layer ReLU1_2
I0222 16:42:01.402338  3493 net.cpp:408] ReLU1_2 <- conv1_2
I0222 16:42:01.402348  3493 net.cpp:369] ReLU1_2 -> conv1_2 (in-place)
I0222 16:42:01.403179  3493 net.cpp:124] Setting up ReLU1_2
I0222 16:42:01.403205  3493 net.cpp:131] Top shape: 5 64 224 224 (16056320)
I0222 16:42:01.403213  3493 net.cpp:139] Memory required for data: 259911740
I0222 16:42:01.403233  3493 layer_factory.hpp:77] Creating layer pool1
I0222 16:42:01.403244  3493 net.cpp:86] Creating Layer pool1
I0222 16:42:01.403250  3493 net.cpp:408] pool1 <- conv1_2
I0222 16:42:01.403259  3493 net.cpp:382] pool1 -> pool1
I0222 16:42:01.403337  3493 net.cpp:124] Setting up pool1
I0222 16:42:01.403348  3493 net.cpp:131] Top shape: 5 64 112 112 (4014080)
I0222 16:42:01.403353  3493 net.cpp:139] Memory required for data: 275968060
I0222 16:42:01.403358  3493 layer_factory.hpp:77] Creating layer conv2_1
I0222 16:42:01.403373  3493 net.cpp:86] Creating Layer conv2_1
I0222 16:42:01.403378  3493 net.cpp:408] conv2_1 <- pool1
I0222 16:42:01.403388  3493 net.cpp:382] conv2_1 -> conv2_1
I0222 16:42:01.406314  3493 net.cpp:124] Setting up conv2_1
I0222 16:42:01.406348  3493 net.cpp:131] Top shape: 5 128 112 112 (8028160)
I0222 16:42:01.406365  3493 net.cpp:139] Memory required for data: 308080700
I0222 16:42:01.406380  3493 layer_factory.hpp:77] Creating layer ReLU2_1
I0222 16:42:01.406393  3493 net.cpp:86] Creating Layer ReLU2_1
I0222 16:42:01.406400  3493 net.cpp:408] ReLU2_1 <- conv2_1
I0222 16:42:01.406409  3493 net.cpp:369] ReLU2_1 -> conv2_1 (in-place)
I0222 16:42:01.407387  3493 net.cpp:124] Setting up ReLU2_1
I0222 16:42:01.407413  3493 net.cpp:131] Top shape: 5 128 112 112 (8028160)
I0222 16:42:01.407421  3493 net.cpp:139] Memory required for data: 340193340
I0222 16:42:01.407428  3493 layer_factory.hpp:77] Creating layer conv2_2
I0222 16:42:01.407441  3493 net.cpp:86] Creating Layer conv2_2
I0222 16:42:01.407449  3493 net.cpp:408] conv2_2 <- conv2_1
I0222 16:42:01.407460  3493 net.cpp:382] conv2_2 -> conv2_2
I0222 16:42:01.412634  3493 net.cpp:124] Setting up conv2_2
I0222 16:42:01.412662  3493 net.cpp:131] Top shape: 5 128 112 112 (8028160)
I0222 16:42:01.412668  3493 net.cpp:139] Memory required for data: 372305980
I0222 16:42:01.412681  3493 layer_factory.hpp:77] Creating layer ReLU2_2
I0222 16:42:01.412691  3493 net.cpp:86] Creating Layer ReLU2_2
I0222 16:42:01.412698  3493 net.cpp:408] ReLU2_2 <- conv2_2
I0222 16:42:01.412705  3493 net.cpp:369] ReLU2_2 -> conv2_2 (in-place)
I0222 16:42:01.412991  3493 net.cpp:124] Setting up ReLU2_2
I0222 16:42:01.413005  3493 net.cpp:131] Top shape: 5 128 112 112 (8028160)
I0222 16:42:01.413012  3493 net.cpp:139] Memory required for data: 404418620
I0222 16:42:01.413017  3493 layer_factory.hpp:77] Creating layer pool2
I0222 16:42:01.413028  3493 net.cpp:86] Creating Layer pool2
I0222 16:42:01.413033  3493 net.cpp:408] pool2 <- conv2_2
I0222 16:42:01.413041  3493 net.cpp:382] pool2 -> pool2
I0222 16:42:01.413112  3493 net.cpp:124] Setting up pool2
I0222 16:42:01.413125  3493 net.cpp:131] Top shape: 5 128 56 56 (2007040)
I0222 16:42:01.413130  3493 net.cpp:139] Memory required for data: 412446780
I0222 16:42:01.413136  3493 layer_factory.hpp:77] Creating layer conv3_1
I0222 16:42:01.413147  3493 net.cpp:86] Creating Layer conv3_1
I0222 16:42:01.413156  3493 net.cpp:408] conv3_1 <- pool2
I0222 16:42:01.413164  3493 net.cpp:382] conv3_1 -> conv3_1
I0222 16:42:01.418906  3493 net.cpp:124] Setting up conv3_1
I0222 16:42:01.418926  3493 net.cpp:131] Top shape: 5 256 56 56 (4014080)
I0222 16:42:01.418931  3493 net.cpp:139] Memory required for data: 428503100
I0222 16:42:01.418944  3493 layer_factory.hpp:77] Creating layer ReLU3_1
I0222 16:42:01.418952  3493 net.cpp:86] Creating Layer ReLU3_1
I0222 16:42:01.418957  3493 net.cpp:408] ReLU3_1 <- conv3_1
I0222 16:42:01.418965  3493 net.cpp:369] ReLU3_1 -> conv3_1 (in-place)
I0222 16:42:01.419384  3493 net.cpp:124] Setting up ReLU3_1
I0222 16:42:01.419396  3493 net.cpp:131] Top shape: 5 256 56 56 (4014080)
I0222 16:42:01.419400  3493 net.cpp:139] Memory required for data: 444559420
I0222 16:42:01.419405  3493 layer_factory.hpp:77] Creating layer conv3_2
I0222 16:42:01.419414  3493 net.cpp:86] Creating Layer conv3_2
I0222 16:42:01.419420  3493 net.cpp:408] conv3_2 <- conv3_1
I0222 16:42:01.419426  3493 net.cpp:382] conv3_2 -> conv3_2
I0222 16:42:01.426682  3493 net.cpp:124] Setting up conv3_2
I0222 16:42:01.426699  3493 net.cpp:131] Top shape: 5 256 56 56 (4014080)
I0222 16:42:01.426703  3493 net.cpp:139] Memory required for data: 460615740
I0222 16:42:01.426710  3493 layer_factory.hpp:77] Creating layer ReLU3_2
I0222 16:42:01.426717  3493 net.cpp:86] Creating Layer ReLU3_2
I0222 16:42:01.426720  3493 net.cpp:408] ReLU3_2 <- conv3_2
I0222 16:42:01.426725  3493 net.cpp:369] ReLU3_2 -> conv3_2 (in-place)
I0222 16:42:01.427074  3493 net.cpp:124] Setting up ReLU3_2
I0222 16:42:01.427085  3493 net.cpp:131] Top shape: 5 256 56 56 (4014080)
I0222 16:42:01.427089  3493 net.cpp:139] Memory required for data: 476672060
I0222 16:42:01.427093  3493 layer_factory.hpp:77] Creating layer conv3_3
I0222 16:42:01.427101  3493 net.cpp:86] Creating Layer conv3_3
I0222 16:42:01.427111  3493 net.cpp:408] conv3_3 <- conv3_2
I0222 16:42:01.427125  3493 net.cpp:382] conv3_3 -> conv3_3
I0222 16:42:01.433598  3493 net.cpp:124] Setting up conv3_3
I0222 16:42:01.433615  3493 net.cpp:131] Top shape: 5 256 56 56 (4014080)
I0222 16:42:01.433619  3493 net.cpp:139] Memory required for data: 492728380
I0222 16:42:01.433625  3493 layer_factory.hpp:77] Creating layer ReLU3_3
I0222 16:42:01.433630  3493 net.cpp:86] Creating Layer ReLU3_3
I0222 16:42:01.433634  3493 net.cpp:408] ReLU3_3 <- conv3_3
I0222 16:42:01.433639  3493 net.cpp:369] ReLU3_3 -> conv3_3 (in-place)
I0222 16:42:01.433774  3493 net.cpp:124] Setting up ReLU3_3
I0222 16:42:01.433782  3493 net.cpp:131] Top shape: 5 256 56 56 (4014080)
I0222 16:42:01.433785  3493 net.cpp:139] Memory required for data: 508784700
I0222 16:42:01.433789  3493 layer_factory.hpp:77] Creating layer conv3_4
I0222 16:42:01.433795  3493 net.cpp:86] Creating Layer conv3_4
I0222 16:42:01.433799  3493 net.cpp:408] conv3_4 <- conv3_3
I0222 16:42:01.433804  3493 net.cpp:382] conv3_4 -> conv3_4
I0222 16:42:01.439471  3493 net.cpp:124] Setting up conv3_4
I0222 16:42:01.439483  3493 net.cpp:131] Top shape: 5 256 56 56 (4014080)
I0222 16:42:01.439486  3493 net.cpp:139] Memory required for data: 524841020
I0222 16:42:01.439492  3493 layer_factory.hpp:77] Creating layer ReLU3_4
I0222 16:42:01.439497  3493 net.cpp:86] Creating Layer ReLU3_4
I0222 16:42:01.439501  3493 net.cpp:408] ReLU3_4 <- conv3_4
I0222 16:42:01.439504  3493 net.cpp:369] ReLU3_4 -> conv3_4 (in-place)
I0222 16:42:01.439801  3493 net.cpp:124] Setting up ReLU3_4
I0222 16:42:01.439810  3493 net.cpp:131] Top shape: 5 256 56 56 (4014080)
I0222 16:42:01.439813  3493 net.cpp:139] Memory required for data: 540897340
I0222 16:42:01.439816  3493 layer_factory.hpp:77] Creating layer pool3
I0222 16:42:01.439821  3493 net.cpp:86] Creating Layer pool3
I0222 16:42:01.439824  3493 net.cpp:408] pool3 <- conv3_4
I0222 16:42:01.439828  3493 net.cpp:382] pool3 -> pool3
I0222 16:42:01.439867  3493 net.cpp:124] Setting up pool3
I0222 16:42:01.439872  3493 net.cpp:131] Top shape: 5 256 28 28 (1003520)
I0222 16:42:01.439875  3493 net.cpp:139] Memory required for data: 544911420
I0222 16:42:01.439878  3493 layer_factory.hpp:77] Creating layer conv4_1
I0222 16:42:01.439884  3493 net.cpp:86] Creating Layer conv4_1
I0222 16:42:01.439888  3493 net.cpp:408] conv4_1 <- pool3
I0222 16:42:01.439893  3493 net.cpp:382] conv4_1 -> conv4_1
I0222 16:42:01.449806  3493 net.cpp:124] Setting up conv4_1
I0222 16:42:01.449823  3493 net.cpp:131] Top shape: 5 512 28 28 (2007040)
I0222 16:42:01.449827  3493 net.cpp:139] Memory required for data: 552939580
I0222 16:42:01.449837  3493 layer_factory.hpp:77] Creating layer ReLU4_1
I0222 16:42:01.449844  3493 net.cpp:86] Creating Layer ReLU4_1
I0222 16:42:01.449847  3493 net.cpp:408] ReLU4_1 <- conv4_1
I0222 16:42:01.449852  3493 net.cpp:369] ReLU4_1 -> conv4_1 (in-place)
I0222 16:42:01.450173  3493 net.cpp:124] Setting up ReLU4_1
I0222 16:42:01.450182  3493 net.cpp:131] Top shape: 5 512 28 28 (2007040)
I0222 16:42:01.450186  3493 net.cpp:139] Memory required for data: 560967740
I0222 16:42:01.450188  3493 layer_factory.hpp:77] Creating layer conv4_2
I0222 16:42:01.450196  3493 net.cpp:86] Creating Layer conv4_2
I0222 16:42:01.450201  3493 net.cpp:408] conv4_2 <- conv4_1
I0222 16:42:01.450206  3493 net.cpp:382] conv4_2 -> conv4_2
I0222 16:42:01.469113  3493 net.cpp:124] Setting up conv4_2
I0222 16:42:01.469138  3493 net.cpp:131] Top shape: 5 512 28 28 (2007040)
I0222 16:42:01.469142  3493 net.cpp:139] Memory required for data: 568995900
I0222 16:42:01.469149  3493 layer_factory.hpp:77] Creating layer ReLU4_2
I0222 16:42:01.469156  3493 net.cpp:86] Creating Layer ReLU4_2
I0222 16:42:01.469161  3493 net.cpp:408] ReLU4_2 <- conv4_2
I0222 16:42:01.469166  3493 net.cpp:369] ReLU4_2 -> conv4_2 (in-place)
I0222 16:42:01.469298  3493 net.cpp:124] Setting up ReLU4_2
I0222 16:42:01.469305  3493 net.cpp:131] Top shape: 5 512 28 28 (2007040)
I0222 16:42:01.469307  3493 net.cpp:139] Memory required for data: 577024060
I0222 16:42:01.469316  3493 layer_factory.hpp:77] Creating layer conv4_3
I0222 16:42:01.469331  3493 net.cpp:86] Creating Layer conv4_3
I0222 16:42:01.469334  3493 net.cpp:408] conv4_3 <- conv4_2
I0222 16:42:01.469341  3493 net.cpp:382] conv4_3 -> conv4_3
I0222 16:42:01.488348  3493 net.cpp:124] Setting up conv4_3
I0222 16:42:01.488373  3493 net.cpp:131] Top shape: 5 512 28 28 (2007040)
I0222 16:42:01.488375  3493 net.cpp:139] Memory required for data: 585052220
I0222 16:42:01.488382  3493 layer_factory.hpp:77] Creating layer ReLU4_3
I0222 16:42:01.488389  3493 net.cpp:86] Creating Layer ReLU4_3
I0222 16:42:01.488392  3493 net.cpp:408] ReLU4_3 <- conv4_3
I0222 16:42:01.488397  3493 net.cpp:369] ReLU4_3 -> conv4_3 (in-place)
I0222 16:42:01.488708  3493 net.cpp:124] Setting up ReLU4_3
I0222 16:42:01.488718  3493 net.cpp:131] Top shape: 5 512 28 28 (2007040)
I0222 16:42:01.488720  3493 net.cpp:139] Memory required for data: 593080380
I0222 16:42:01.488723  3493 layer_factory.hpp:77] Creating layer conv4_4
I0222 16:42:01.488731  3493 net.cpp:86] Creating Layer conv4_4
I0222 16:42:01.488734  3493 net.cpp:408] conv4_4 <- conv4_3
I0222 16:42:01.488740  3493 net.cpp:382] conv4_4 -> conv4_4
I0222 16:42:01.507498  3493 net.cpp:124] Setting up conv4_4
I0222 16:42:01.507524  3493 net.cpp:131] Top shape: 5 512 28 28 (2007040)
I0222 16:42:01.507527  3493 net.cpp:139] Memory required for data: 601108540
I0222 16:42:01.507535  3493 layer_factory.hpp:77] Creating layer ReLU4_4
I0222 16:42:01.507541  3493 net.cpp:86] Creating Layer ReLU4_4
I0222 16:42:01.507545  3493 net.cpp:408] ReLU4_4 <- conv4_4
I0222 16:42:01.507550  3493 net.cpp:369] ReLU4_4 -> conv4_4 (in-place)
I0222 16:42:01.507871  3493 net.cpp:124] Setting up ReLU4_4
I0222 16:42:01.507880  3493 net.cpp:131] Top shape: 5 512 28 28 (2007040)
I0222 16:42:01.507884  3493 net.cpp:139] Memory required for data: 609136700
I0222 16:42:01.507886  3493 layer_factory.hpp:77] Creating layer pool4
I0222 16:42:01.507892  3493 net.cpp:86] Creating Layer pool4
I0222 16:42:01.507896  3493 net.cpp:408] pool4 <- conv4_4
I0222 16:42:01.507900  3493 net.cpp:382] pool4 -> pool4
I0222 16:42:01.507939  3493 net.cpp:124] Setting up pool4
I0222 16:42:01.507946  3493 net.cpp:131] Top shape: 5 512 14 14 (501760)
I0222 16:42:01.507947  3493 net.cpp:139] Memory required for data: 611143740
I0222 16:42:01.507951  3493 layer_factory.hpp:77] Creating layer conv5_1
I0222 16:42:01.507958  3493 net.cpp:86] Creating Layer conv5_1
I0222 16:42:01.507961  3493 net.cpp:408] conv5_1 <- pool4
I0222 16:42:01.507966  3493 net.cpp:382] conv5_1 -> conv5_1
I0222 16:42:01.526928  3493 net.cpp:124] Setting up conv5_1
I0222 16:42:01.526953  3493 net.cpp:131] Top shape: 5 512 14 14 (501760)
I0222 16:42:01.526957  3493 net.cpp:139] Memory required for data: 613150780
I0222 16:42:01.526963  3493 layer_factory.hpp:77] Creating layer ReLU5_1
I0222 16:42:01.526969  3493 net.cpp:86] Creating Layer ReLU5_1
I0222 16:42:01.526973  3493 net.cpp:408] ReLU5_1 <- conv5_1
I0222 16:42:01.526979  3493 net.cpp:369] ReLU5_1 -> conv5_1 (in-place)
I0222 16:42:01.527106  3493 net.cpp:124] Setting up ReLU5_1
I0222 16:42:01.527112  3493 net.cpp:131] Top shape: 5 512 14 14 (501760)
I0222 16:42:01.527115  3493 net.cpp:139] Memory required for data: 615157820
I0222 16:42:01.527118  3493 layer_factory.hpp:77] Creating layer conv5_2
I0222 16:42:01.527130  3493 net.cpp:86] Creating Layer conv5_2
I0222 16:42:01.527133  3493 net.cpp:408] conv5_2 <- conv5_1
I0222 16:42:01.527138  3493 net.cpp:382] conv5_2 -> conv5_2
I0222 16:42:01.546360  3493 net.cpp:124] Setting up conv5_2
I0222 16:42:01.546386  3493 net.cpp:131] Top shape: 5 512 14 14 (501760)
I0222 16:42:01.546388  3493 net.cpp:139] Memory required for data: 617164860
I0222 16:42:01.546396  3493 layer_factory.hpp:77] Creating layer ReLU5_2
I0222 16:42:01.546402  3493 net.cpp:86] Creating Layer ReLU5_2
I0222 16:42:01.546406  3493 net.cpp:408] ReLU5_2 <- conv5_2
I0222 16:42:01.546412  3493 net.cpp:369] ReLU5_2 -> conv5_2 (in-place)
I0222 16:42:01.546730  3493 net.cpp:124] Setting up ReLU5_2
I0222 16:42:01.546739  3493 net.cpp:131] Top shape: 5 512 14 14 (501760)
I0222 16:42:01.546752  3493 net.cpp:139] Memory required for data: 619171900
I0222 16:42:01.546756  3493 layer_factory.hpp:77] Creating layer conv5_3
I0222 16:42:01.546764  3493 net.cpp:86] Creating Layer conv5_3
I0222 16:42:01.546767  3493 net.cpp:408] conv5_3 <- conv5_2
I0222 16:42:01.546774  3493 net.cpp:382] conv5_3 -> conv5_3
I0222 16:42:01.565656  3493 net.cpp:124] Setting up conv5_3
I0222 16:42:01.565681  3493 net.cpp:131] Top shape: 5 512 14 14 (501760)
I0222 16:42:01.565685  3493 net.cpp:139] Memory required for data: 621178940
I0222 16:42:01.565691  3493 layer_factory.hpp:77] Creating layer ReLU5_3
I0222 16:42:01.565698  3493 net.cpp:86] Creating Layer ReLU5_3
I0222 16:42:01.565702  3493 net.cpp:408] ReLU5_3 <- conv5_3
I0222 16:42:01.565707  3493 net.cpp:369] ReLU5_3 -> conv5_3 (in-place)
I0222 16:42:01.566033  3493 net.cpp:124] Setting up ReLU5_3
I0222 16:42:01.566042  3493 net.cpp:131] Top shape: 5 512 14 14 (501760)
I0222 16:42:01.566045  3493 net.cpp:139] Memory required for data: 623185980
I0222 16:42:01.566049  3493 layer_factory.hpp:77] Creating layer conv5_4
I0222 16:42:01.566057  3493 net.cpp:86] Creating Layer conv5_4
I0222 16:42:01.566061  3493 net.cpp:408] conv5_4 <- conv5_3
I0222 16:42:01.566067  3493 net.cpp:382] conv5_4 -> conv5_4
I0222 16:42:01.585048  3493 net.cpp:124] Setting up conv5_4
I0222 16:42:01.585073  3493 net.cpp:131] Top shape: 5 512 14 14 (501760)
I0222 16:42:01.585077  3493 net.cpp:139] Memory required for data: 625193020
I0222 16:42:01.585084  3493 layer_factory.hpp:77] Creating layer ReLU5_4
I0222 16:42:01.585091  3493 net.cpp:86] Creating Layer ReLU5_4
I0222 16:42:01.585095  3493 net.cpp:408] ReLU5_4 <- conv5_4
I0222 16:42:01.585100  3493 net.cpp:369] ReLU5_4 -> conv5_4 (in-place)
I0222 16:42:01.585235  3493 net.cpp:124] Setting up ReLU5_4
I0222 16:42:01.585242  3493 net.cpp:131] Top shape: 5 512 14 14 (501760)
I0222 16:42:01.585245  3493 net.cpp:139] Memory required for data: 627200060
I0222 16:42:01.585248  3493 layer_factory.hpp:77] Creating layer pool5
I0222 16:42:01.585254  3493 net.cpp:86] Creating Layer pool5
I0222 16:42:01.585258  3493 net.cpp:408] pool5 <- conv5_4
I0222 16:42:01.585261  3493 net.cpp:382] pool5 -> pool5
I0222 16:42:01.585305  3493 net.cpp:124] Setting up pool5
I0222 16:42:01.585311  3493 net.cpp:131] Top shape: 5 512 7 7 (125440)
I0222 16:42:01.585314  3493 net.cpp:139] Memory required for data: 627701820
I0222 16:42:01.585317  3493 layer_factory.hpp:77] Creating layer fc6
I0222 16:42:01.585321  3493 net.cpp:86] Creating Layer fc6
I0222 16:42:01.585325  3493 net.cpp:408] fc6 <- pool5
I0222 16:42:01.585330  3493 net.cpp:382] fc6 -> fc6
I0222 16:42:01.696784  3493 net.cpp:124] Setting up fc6
I0222 16:42:01.696815  3493 net.cpp:131] Top shape: 5 4096 (20480)
I0222 16:42:01.696818  3493 net.cpp:139] Memory required for data: 627783740
I0222 16:42:01.696832  3493 layer_factory.hpp:77] Creating layer ReLU6
I0222 16:42:01.696840  3493 net.cpp:86] Creating Layer ReLU6
I0222 16:42:01.696843  3493 net.cpp:408] ReLU6 <- fc6
I0222 16:42:01.696848  3493 net.cpp:369] ReLU6 -> fc6 (in-place)
I0222 16:42:01.697244  3493 net.cpp:124] Setting up ReLU6
I0222 16:42:01.697252  3493 net.cpp:131] Top shape: 5 4096 (20480)
I0222 16:42:01.697255  3493 net.cpp:139] Memory required for data: 627865660
I0222 16:42:01.697258  3493 layer_factory.hpp:77] Creating layer drop6
I0222 16:42:01.697265  3493 net.cpp:86] Creating Layer drop6
I0222 16:42:01.697268  3493 net.cpp:408] drop6 <- fc6
I0222 16:42:01.697273  3493 net.cpp:369] drop6 -> fc6 (in-place)
I0222 16:42:01.697300  3493 net.cpp:124] Setting up drop6
I0222 16:42:01.697305  3493 net.cpp:131] Top shape: 5 4096 (20480)
I0222 16:42:01.697309  3493 net.cpp:139] Memory required for data: 627947580
I0222 16:42:01.697310  3493 layer_factory.hpp:77] Creating layer fc7
I0222 16:42:01.697315  3493 net.cpp:86] Creating Layer fc7
I0222 16:42:01.697319  3493 net.cpp:408] fc7 <- fc6
I0222 16:42:01.697324  3493 net.cpp:382] fc7 -> fc7
I0222 16:42:01.715955  3493 net.cpp:124] Setting up fc7
I0222 16:42:01.715984  3493 net.cpp:131] Top shape: 5 4096 (20480)
I0222 16:42:01.715993  3493 net.cpp:139] Memory required for data: 628029500
I0222 16:42:01.716002  3493 layer_factory.hpp:77] Creating layer ReLU7
I0222 16:42:01.716009  3493 net.cpp:86] Creating Layer ReLU7
I0222 16:42:01.716013  3493 net.cpp:408] ReLU7 <- fc7
I0222 16:42:01.716018  3493 net.cpp:369] ReLU7 -> fc7 (in-place)
I0222 16:42:01.716192  3493 net.cpp:124] Setting up ReLU7
I0222 16:42:01.716199  3493 net.cpp:131] Top shape: 5 4096 (20480)
I0222 16:42:01.716202  3493 net.cpp:139] Memory required for data: 628111420
I0222 16:42:01.716205  3493 layer_factory.hpp:77] Creating layer drop7
I0222 16:42:01.716210  3493 net.cpp:86] Creating Layer drop7
I0222 16:42:01.716213  3493 net.cpp:408] drop7 <- fc7
I0222 16:42:01.716217  3493 net.cpp:369] drop7 -> fc7 (in-place)
I0222 16:42:01.716243  3493 net.cpp:124] Setting up drop7
I0222 16:42:01.716248  3493 net.cpp:131] Top shape: 5 4096 (20480)
I0222 16:42:01.716249  3493 net.cpp:139] Memory required for data: 628193340
I0222 16:42:01.716253  3493 layer_factory.hpp:77] Creating layer fc8
I0222 16:42:01.716258  3493 net.cpp:86] Creating Layer fc8
I0222 16:42:01.716260  3493 net.cpp:408] fc8 <- fc7
I0222 16:42:01.716264  3493 net.cpp:382] fc8 -> fc8
I0222 16:42:01.720983  3493 net.cpp:124] Setting up fc8
I0222 16:42:01.721009  3493 net.cpp:131] Top shape: 5 1000 (5000)
I0222 16:42:01.721014  3493 net.cpp:139] Memory required for data: 628213340
I0222 16:42:01.721020  3493 layer_factory.hpp:77] Creating layer fc8_fc8_0_split
I0222 16:42:01.721027  3493 net.cpp:86] Creating Layer fc8_fc8_0_split
I0222 16:42:01.721031  3493 net.cpp:408] fc8_fc8_0_split <- fc8
I0222 16:42:01.721038  3493 net.cpp:382] fc8_fc8_0_split -> fc8_fc8_0_split_0
I0222 16:42:01.721045  3493 net.cpp:382] fc8_fc8_0_split -> fc8_fc8_0_split_1
I0222 16:42:01.721087  3493 net.cpp:124] Setting up fc8_fc8_0_split
I0222 16:42:01.721097  3493 net.cpp:131] Top shape: 5 1000 (5000)
I0222 16:42:01.721101  3493 net.cpp:131] Top shape: 5 1000 (5000)
I0222 16:42:01.721103  3493 net.cpp:139] Memory required for data: 628253340
I0222 16:42:01.721105  3493 layer_factory.hpp:77] Creating layer accuracy
I0222 16:42:01.721112  3493 net.cpp:86] Creating Layer accuracy
I0222 16:42:01.721115  3493 net.cpp:408] accuracy <- fc8_fc8_0_split_0
I0222 16:42:01.721119  3493 net.cpp:408] accuracy <- label_data_1_split_0
I0222 16:42:01.721124  3493 net.cpp:382] accuracy -> accuracy
…
