…
I0302 17:36:33.605525 10088 net.cpp:296] The NetState phase (0) differed from the phase (1) specified by a rule in layer accuracy
I0302 17:36:33.606385 10088 net.cpp:53] Initializing net from parameters: 
name: "VGG_ILSVRC_19_layers"
state {
  phase: TRAIN
  level: 0
  stage: ""
}
layer {
  name: "data"
  type: "Data"
  top: "data"
  top: "label"
  include {
    phase: TRAIN
  }
  transform_param {
    mirror: true
    crop_size: 224
    mean_file: "/home/abc-5/Desktop/DOP17_SK_SM/Run1_20_2/colfer_mean.binaryproto"
  }
  data_param {
    source: "/home/abc-5/Desktop/DOP17_SK_SM/Run1_20_2/colfer_train_lmdb"
    batch_size: 10
    backend: LMDB
  }
}
layer {
  name: "conv1_1"
  type: "Convolution"
  bottom: "data"
  top: "conv1_1"
  param {
    lr_mult: 0
    decay_mult: 0
  }
  param {
    lr_mult: 0
    decay_mult: 0
  }
  convolution_param {
    num_output: 64
    pad: 1
    kernel_size: 3
    stride: 1
    weight_filler {
      type: "gaussian"
      std: 0.01
    }
    bias_filler {
      type: "constant"
      value: 0
    }
  }
}
layer {
  name: "ReLU1_1"
  type: "ReLU"
  bottom: "conv1_1"
  top: "conv1_1"
}
layer {
  name: "conv1_2"
  type: "Convolution"
  bottom: "conv1_1"
  top: "conv1_2"
  param {
    lr_mult: 0
    decay_mult: 0
  }
  param {
    lr_mult: 0
    decay_mult: 0
  }
  convolution_param {
    num_output: 64
    pad: 1
    kernel_size: 3
    stride: 1
    weight_filler {
      type: "gaussian"
      std: 0.01
    }
    bias_filler {
      type: "constant"
      value: 0
    }
  }
}
layer {
  name: "ReLU1_2"
  type: "ReLU"
  bottom: "conv1_2"
  top: "conv1_2"
}
layer {
  name: "pool1"
  type: "Pooling"
  bottom: "conv1_2"
  top: "pool1"
  pooling_param {
    pool: MAX
    kernel_size: 2
    stride: 2
  }
}
layer {
  name: "conv2_1"
  type: "Convolution"
  bottom: "pool1"
  top: "conv2_1"
  param {
    lr_mult: 0
    decay_mult: 0
  }
  param {
    lr_mult: 0
    decay_mult: 0
  }
  convolution_param {
    num_output: 128
    pad: 1
    kernel_size: 3
    stride: 1
    weight_filler {
      type: "gaussian"
      std: 0.01
    }
    bias_filler {
      type: "constant"
      value: 0
    }
  }
}
layer {
  name: "ReLU2_1"
  type: "ReLU"
  bottom: "conv2_1"
  top: "conv2_1"
}
layer {
  name: "conv2_2"
  type: "Convolution"
  bottom: "conv2_1"
  top: "conv2_2"
  param {
    lr_mult: 1
    decay_mult: 1
  }
  param {
    lr_mult: 2
    decay_mult: 0
  }
  convolution_param {
    num_output: 128
    pad: 1
    kernel_size: 3
    stride: 1
    weight_filler {
      type: "gaussian"
      std: 0.01
    }
    bias_filler {
      type: "constant"
      value: 0
    }
  }
}
layer {
  name: "ReLU2_2"
  type: "ReLU"
  bottom: "conv2_2"
  top: "conv2_2"
}
layer {
  name: "pool2"
  type: "Pooling"
  bottom: "conv2_2"
  top: "pool2"
  pooling_param {
    pool: MAX
    kernel_size: 2
    stride: 2
  }
}
layer {
  name: "conv3_1"
  type: "Convolution"
  bottom: "pool2"
  top: "conv3_1"
  param {
    lr_mult: 1
    decay_mult: 1
  }
  param {
    lr_mult: 2
    decay_mult: 0
  }
  convolution_param {
    num_output: 256
    pad: 1
    kernel_size: 3
    stride: 1
    weight_filler {
      type: "gaussian"
      std: 0.01
    }
    bias_filler {
      type: "constant"
      value: 0
    }
  }
}
layer {
  name: "ReLU3_1"
  type: "ReLU"
  bottom: "conv3_1"
  top: "conv3_1"
}
layer {
  name: "conv3_2"
  type: "Convolution"
  bottom: "conv3_1"
  top: "conv3_2"
  param {
    lr_mult: 1
    decay_mult: 1
  }
  param {
    lr_mult: 2
    decay_mult: 0
  }
  convolution_param {
    num_output: 256
    pad: 1
    kernel_size: 3
    stride: 1
    weight_filler {
      type: "gaussian"
      std: 0.01
    }
    bias_filler {
      type: "constant"
      value: 0
    }
  }
}
layer {
  name: "ReLU3_2"
  type: "ReLU"
  bottom: "conv3_2"
  top: "conv3_2"
}
layer {
  name: "conv3_3"
  type: "Convolution"
  bottom: "conv3_2"
  top: "conv3_3"
  param {
    lr_mult: 1
    decay_mult: 1
  }
  param {
    lr_mult: 2
    decay_mult: 0
  }
  convolution_param {
    num_output: 256
    pad: 1
    kernel_size: 3
    stride: 1
    weight_filler {
      type: "gaussian"
      std: 0.01
    }
    bias_filler {
      type: "constant"
      value: 0
    }
  }
}
layer {
  name: "ReLU3_3"
  type: "ReLU"
  bottom: "conv3_3"
  top: "conv3_3"
}
layer {
  name: "conv3_4"
  type: "Convolution"
  bottom: "conv3_3"
  top: "conv3_4"
  param {
    lr_mult: 1
    decay_mult: 1
  }
  param {
    lr_mult: 2
    decay_mult: 0
  }
  convolution_param {
    num_output: 256
    pad: 1
    kernel_size: 3
    stride: 1
    weight_filler {
      type: "gaussian"
      std: 0.01
    }
    bias_filler {
      type: "constant"
      value: 0
    }
  }
}
layer {
  name: "ReLU3_4"
  type: "ReLU"
  bottom: "conv3_4"
  top: "conv3_4"
}
layer {
  name: "pool3"
  type: "Pooling"
  bottom: "conv3_4"
  top: "pool3"
  pooling_param {
    pool: MAX
    kernel_size: 2
    stride: 2
  }
}
layer {
  name: "conv4_1"
  type: "Convolution"
  bottom: "pool3"
  top: "conv4_1"
  param {
    lr_mult: 1
    decay_mult: 1
  }
  param {
    lr_mult: 2
    decay_mult: 0
  }
  convolution_param {
    num_output: 512
    pad: 1
    kernel_size: 3
    stride: 1
    weight_filler {
      type: "gaussian"
      std: 0.01
    }
    bias_filler {
      type: "constant"
      value: 0
    }
  }
}
layer {
  name: "ReLU4_1"
  type: "ReLU"
  bottom: "conv4_1"
  top: "conv4_1"
}
layer {
  name: "conv4_2"
  type: "Convolution"
  bottom: "conv4_1"
  top: "conv4_2"
  param {
    lr_mult: 1
    decay_mult: 1
  }
  param {
    lr_mult: 2
    decay_mult: 0
  }
  convolution_param {
    num_output: 512
    pad: 1
    kernel_size: 3
    stride: 1
    weight_filler {
      type: "gaussian"
      std: 0.01
    }
    bias_filler {
      type: "constant"
      value: 0
    }
  }
}
layer {
  name: "ReLU4_2"
  type: "ReLU"
  bottom: "conv4_2"
  top: "conv4_2"
}
layer {
  name: "conv4_3"
  type: "Convolution"
  bottom: "conv4_2"
  top: "conv4_3"
  param {
    lr_mult: 1
    decay_mult: 1
  }
  param {
    lr_mult: 2
    decay_mult: 0
  }
  convolution_param {
    num_output: 512
    pad: 1
    kernel_size: 3
    stride: 1
    weight_filler {
      type: "gaussian"
      std: 0.01
    }
    bias_filler {
      type: "constant"
      value: 0
    }
  }
}
layer {
  name: "ReLU4_3"
  type: "ReLU"
  bottom: "conv4_3"
  top: "conv4_3"
}
layer {
  name: "conv4_4"
  type: "Convolution"
  bottom: "conv4_3"
  top: "conv4_4"
  param {
    lr_mult: 1
    decay_mult: 1
  }
  param {
    lr_mult: 2
    decay_mult: 0
  }
  convolution_param {
    num_output: 512
    pad: 1
    kernel_size: 3
    stride: 1
    weight_filler {
      type: "gaussian"
      std: 0.01
    }
    bias_filler {
      type: "constant"
      value: 0
    }
  }
}
layer {
  name: "ReLU4_4"
  type: "ReLU"
  bottom: "conv4_4"
  top: "conv4_4"
}
layer {
  name: "pool4"
  type: "Pooling"
  bottom: "conv4_4"
  top: "pool4"
  pooling_param {
    pool: MAX
    kernel_size: 2
    stride: 2
  }
}
layer {
  name: "conv5_1"
  type: "Convolution"
  bottom: "pool4"
  top: "conv5_1"
  param {
    lr_mult: 1
    decay_mult: 1
  }
  param {
    lr_mult: 2
    decay_mult: 0
  }
  convolution_param {
    num_output: 512
    pad: 1
    kernel_size: 3
    stride: 1
    weight_filler {
      type: "gaussian"
      std: 0.01
    }
    bias_filler {
      type: "constant"
      value: 0
    }
  }
}
layer {
  name: "ReLU5_1"
  type: "ReLU"
  bottom: "conv5_1"
  top: "conv5_1"
}
layer {
  name: "conv5_2"
  type: "Convolution"
  bottom: "conv5_1"
  top: "conv5_2"
  param {
    lr_mult: 1
    decay_mult: 1
  }
  param {
    lr_mult: 2
    decay_mult: 0
  }
  convolution_param {
    num_output: 512
    pad: 1
    kernel_size: 3
    stride: 1
    weight_filler {
      type: "gaussian"
      std: 0.01
    }
    bias_filler {
      type: "constant"
      value: 0
    }
  }
}
layer {
  name: "ReLU5_2"
  type: "ReLU"
  bottom: "conv5_2"
  top: "conv5_2"
}
layer {
  name: "conv5_3"
  type: "Convolution"
  bottom: "conv5_2"
  top: "conv5_3"
  param {
    lr_mult: 1
    decay_mult: 1
  }
  param {
    lr_mult: 2
    decay_mult: 0
  }
  convolution_param {
    num_output: 512
    pad: 1
    kernel_size: 3
    stride: 1
    weight_filler {
      type: "gaussian"
      std: 0.01
    }
    bias_filler {
      type: "constant"
      value: 0
    }
  }
}
layer {
  name: "ReLU5_3"
  type: "ReLU"
  bottom: "conv5_3"
  top: "conv5_3"
}
layer {
  name: "conv5_4"
  type: "Convolution"
  bottom: "conv5_3"
  top: "conv5_4"
  param {
    lr_mult: 1
    decay_mult: 1
  }
  param {
    lr_mult: 2
    decay_mult: 0
  }
  convolution_param {
    num_output: 512
    pad: 1
    kernel_size: 3
    stride: 1
    weight_filler {
      type: "gaussian"
      std: 0.01
    }
    bias_filler {
      type: "constant"
      value: 0
    }
  }
}
layer {
  name: "ReLU5_4"
  type: "ReLU"
  bottom: "conv5_4"
  top: "conv5_4"
}
layer {
  name: "pool5"
  type: "Pooling"
  bottom: "conv5_4"
  top: "pool5"
  pooling_param {
    pool: MAX
    kernel_size: 2
    stride: 2
  }
}
layer {
  name: "fc6"
  type: "InnerProduct"
  bottom: "pool5"
  top: "fc6"
  inner_product_param {
    num_output: 4096
  }
}
layer {
  name: "ReLU6"
  type: "ReLU"
  bottom: "fc6"
  top: "fc6"
}
layer {
  name: "drop6"
  type: "Dropout"
  bottom: "fc6"
  top: "fc6"
  dropout_param {
    dropout_ratio: 0.5
  }
}
layer {
  name: "fc7"
  type: "InnerProduct"
  bottom: "fc6"
  top: "fc7"
  inner_product_param {
    num_output: 4096
  }
}
layer {
  name: "ReLU7"
  type: "ReLU"
  bottom: "fc7"
  top: "fc7"
}
layer {
  name: "drop7"
  type: "Dropout"
  bottom: "fc7"
  top: "fc7"
  dropout_param {
    dropout_ratio: 0.5
  }
}
layer {
  name: "fc8"
  type: "InnerProduct"
  bottom: "fc7"
  top: "fc8"
  inner_product_param {
    num_output: 1000
  }
}
layer {
  name: "accuracy"
  type: "Accuracy"
  bottom: "fc8"
  bottom: "label"
  top: "accuracy"
  include {
    phase: TEST
  }
  include {
    phase: TRAIN
  }
}
layer {
  name: "loss"
  type: "SoftmaxWithLoss"
  bottom: "fc8"
  bottom: "label"
  top: "loss"
}
I0302 17:36:33.606940 10088 layer_factory.hpp:77] Creating layer data
I0302 17:36:33.649778 10088 db_lmdb.cpp:35] Opened lmdb /home/abc-5/Desktop/DOP17_SK_SM/Run1_20_2/colfer_train_lmdb
I0302 17:36:33.660552 10088 net.cpp:86] Creating Layer data
I0302 17:36:33.660641 10088 net.cpp:382] data -> data
I0302 17:36:33.660722 10088 net.cpp:382] data -> label
I0302 17:36:33.660766 10088 data_transformer.cpp:25] Loading mean file from: /home/abc-5/Desktop/DOP17_SK_SM/Run1_20_2/colfer_mean.binaryproto
I0302 17:36:33.701098 10088 data_layer.cpp:45] output data size: 10,3,224,224
I0302 17:36:33.726706 10088 net.cpp:124] Setting up data
I0302 17:36:33.726783 10088 net.cpp:131] Top shape: 10 3 224 224 (1505280)
I0302 17:36:33.726804 10088 net.cpp:131] Top shape: 10 (10)
I0302 17:36:33.726817 10088 net.cpp:139] Memory required for data: 6021160
I0302 17:36:33.726842 10088 layer_factory.hpp:77] Creating layer label_data_1_split
I0302 17:36:33.726872 10088 net.cpp:86] Creating Layer label_data_1_split
I0302 17:36:33.726891 10088 net.cpp:408] label_data_1_split <- label
I0302 17:36:33.726927 10088 net.cpp:382] label_data_1_split -> label_data_1_split_0
I0302 17:36:33.726956 10088 net.cpp:382] label_data_1_split -> label_data_1_split_1
I0302 17:36:33.727135 10088 net.cpp:124] Setting up label_data_1_split
I0302 17:36:33.727196 10088 net.cpp:131] Top shape: 10 (10)
I0302 17:36:33.727233 10088 net.cpp:131] Top shape: 10 (10)
I0302 17:36:33.727265 10088 net.cpp:139] Memory required for data: 6021240
I0302 17:36:33.727279 10088 layer_factory.hpp:77] Creating layer conv1_1
I0302 17:36:33.727321 10088 net.cpp:86] Creating Layer conv1_1
I0302 17:36:33.727339 10088 net.cpp:408] conv1_1 <- data
I0302 17:36:33.727360 10088 net.cpp:382] conv1_1 -> conv1_1
I0302 17:36:35.430245 10088 net.cpp:124] Setting up conv1_1
I0302 17:36:35.430327 10088 net.cpp:131] Top shape: 10 64 224 224 (32112640)
I0302 17:36:35.430351 10088 net.cpp:139] Memory required for data: 134471800
I0302 17:36:35.430407 10088 layer_factory.hpp:77] Creating layer ReLU1_1
I0302 17:36:35.436130 10088 net.cpp:86] Creating Layer ReLU1_1
I0302 17:36:35.436182 10088 net.cpp:408] ReLU1_1 <- conv1_1
I0302 17:36:35.436209 10088 net.cpp:369] ReLU1_1 -> conv1_1 (in-place)
I0302 17:36:35.436799 10088 net.cpp:124] Setting up ReLU1_1
I0302 17:36:35.436832 10088 net.cpp:131] Top shape: 10 64 224 224 (32112640)
I0302 17:36:35.436846 10088 net.cpp:139] Memory required for data: 262922360
I0302 17:36:35.436861 10088 layer_factory.hpp:77] Creating layer conv1_2
I0302 17:36:35.436897 10088 net.cpp:86] Creating Layer conv1_2
I0302 17:36:35.436911 10088 net.cpp:408] conv1_2 <- conv1_1
I0302 17:36:35.436931 10088 net.cpp:382] conv1_2 -> conv1_2
I0302 17:36:35.463153 10088 net.cpp:124] Setting up conv1_2
I0302 17:36:35.463281 10088 net.cpp:131] Top shape: 10 64 224 224 (32112640)
I0302 17:36:35.463297 10088 net.cpp:139] Memory required for data: 391372920
I0302 17:36:35.463335 10088 layer_factory.hpp:77] Creating layer ReLU1_2
I0302 17:36:35.463364 10088 net.cpp:86] Creating Layer ReLU1_2
I0302 17:36:35.463379 10088 net.cpp:408] ReLU1_2 <- conv1_2
I0302 17:36:35.463397 10088 net.cpp:369] ReLU1_2 -> conv1_2 (in-place)
I0302 17:36:35.464690 10088 net.cpp:124] Setting up ReLU1_2
I0302 17:36:35.464733 10088 net.cpp:131] Top shape: 10 64 224 224 (32112640)
I0302 17:36:35.464747 10088 net.cpp:139] Memory required for data: 519823480
I0302 17:36:35.464761 10088 layer_factory.hpp:77] Creating layer pool1
I0302 17:36:35.464781 10088 net.cpp:86] Creating Layer pool1
I0302 17:36:35.464797 10088 net.cpp:408] pool1 <- conv1_2
I0302 17:36:35.464817 10088 net.cpp:382] pool1 -> pool1
I0302 17:36:35.464982 10088 net.cpp:124] Setting up pool1
I0302 17:36:35.465005 10088 net.cpp:131] Top shape: 10 64 112 112 (8028160)
I0302 17:36:35.465019 10088 net.cpp:139] Memory required for data: 551936120
I0302 17:36:35.465031 10088 layer_factory.hpp:77] Creating layer conv2_1
I0302 17:36:35.465059 10088 net.cpp:86] Creating Layer conv2_1
I0302 17:36:35.465073 10088 net.cpp:408] conv2_1 <- pool1
I0302 17:36:35.465095 10088 net.cpp:382] conv2_1 -> conv2_1
I0302 17:36:35.472095 10088 net.cpp:124] Setting up conv2_1
I0302 17:36:35.472143 10088 net.cpp:131] Top shape: 10 128 112 112 (16056320)
I0302 17:36:35.472157 10088 net.cpp:139] Memory required for data: 616161400
I0302 17:36:35.472190 10088 layer_factory.hpp:77] Creating layer ReLU2_1
I0302 17:36:35.472218 10088 net.cpp:86] Creating Layer ReLU2_1
I0302 17:36:35.472234 10088 net.cpp:408] ReLU2_1 <- conv2_1
I0302 17:36:35.472251 10088 net.cpp:369] ReLU2_1 -> conv2_1 (in-place)
I0302 17:36:35.473393 10088 net.cpp:124] Setting up ReLU2_1
I0302 17:36:35.473433 10088 net.cpp:131] Top shape: 10 128 112 112 (16056320)
I0302 17:36:35.473446 10088 net.cpp:139] Memory required for data: 680386680
I0302 17:36:35.473459 10088 layer_factory.hpp:77] Creating layer conv2_2
I0302 17:36:35.473492 10088 net.cpp:86] Creating Layer conv2_2
I0302 17:36:35.473507 10088 net.cpp:408] conv2_2 <- conv2_1
I0302 17:36:35.473534 10088 net.cpp:382] conv2_2 -> conv2_2
I0302 17:36:35.501132 10088 net.cpp:124] Setting up conv2_2
I0302 17:36:35.501215 10088 net.cpp:131] Top shape: 10 128 112 112 (16056320)
I0302 17:36:35.501230 10088 net.cpp:139] Memory required for data: 744611960
I0302 17:36:35.501258 10088 layer_factory.hpp:77] Creating layer ReLU2_2
I0302 17:36:35.501283 10088 net.cpp:86] Creating Layer ReLU2_2
I0302 17:36:35.501302 10088 net.cpp:408] ReLU2_2 <- conv2_2
I0302 17:36:35.501343 10088 net.cpp:369] ReLU2_2 -> conv2_2 (in-place)
I0302 17:36:35.502012 10088 net.cpp:124] Setting up ReLU2_2
I0302 17:36:35.502046 10088 net.cpp:131] Top shape: 10 128 112 112 (16056320)
I0302 17:36:35.502063 10088 net.cpp:139] Memory required for data: 808837240
I0302 17:36:35.502075 10088 layer_factory.hpp:77] Creating layer pool2
I0302 17:36:35.502100 10088 net.cpp:86] Creating Layer pool2
I0302 17:36:35.502115 10088 net.cpp:408] pool2 <- conv2_2
I0302 17:36:35.502135 10088 net.cpp:382] pool2 -> pool2
I0302 17:36:35.502295 10088 net.cpp:124] Setting up pool2
I0302 17:36:35.502317 10088 net.cpp:131] Top shape: 10 128 56 56 (4014080)
I0302 17:36:35.502329 10088 net.cpp:139] Memory required for data: 824893560
I0302 17:36:35.502343 10088 layer_factory.hpp:77] Creating layer conv3_1
I0302 17:36:35.502375 10088 net.cpp:86] Creating Layer conv3_1
I0302 17:36:35.502390 10088 net.cpp:408] conv3_1 <- pool2
I0302 17:36:35.502416 10088 net.cpp:382] conv3_1 -> conv3_1
I0302 17:36:35.517940 10088 net.cpp:124] Setting up conv3_1
I0302 17:36:35.518021 10088 net.cpp:131] Top shape: 10 256 56 56 (8028160)
I0302 17:36:35.518038 10088 net.cpp:139] Memory required for data: 857006200
I0302 17:36:35.518081 10088 layer_factory.hpp:77] Creating layer ReLU3_1
I0302 17:36:35.518110 10088 net.cpp:86] Creating Layer ReLU3_1
I0302 17:36:35.518126 10088 net.cpp:408] ReLU3_1 <- conv3_1
I0302 17:36:35.518146 10088 net.cpp:369] ReLU3_1 -> conv3_1 (in-place)
I0302 17:36:35.519572 10088 net.cpp:124] Setting up ReLU3_1
I0302 17:36:35.519618 10088 net.cpp:131] Top shape: 10 256 56 56 (8028160)
I0302 17:36:35.519634 10088 net.cpp:139] Memory required for data: 889118840
I0302 17:36:35.519646 10088 layer_factory.hpp:77] Creating layer conv3_2
I0302 17:36:35.519683 10088 net.cpp:86] Creating Layer conv3_2
I0302 17:36:35.519700 10088 net.cpp:408] conv3_2 <- conv3_1
I0302 17:36:35.519723 10088 net.cpp:382] conv3_2 -> conv3_2
I0302 17:36:35.532743 10088 net.cpp:124] Setting up conv3_2
I0302 17:36:35.532768 10088 net.cpp:131] Top shape: 10 256 56 56 (8028160)
I0302 17:36:35.532773 10088 net.cpp:139] Memory required for data: 921231480
I0302 17:36:35.532783 10088 layer_factory.hpp:77] Creating layer ReLU3_2
I0302 17:36:35.532791 10088 net.cpp:86] Creating Layer ReLU3_2
I0302 17:36:35.532798 10088 net.cpp:408] ReLU3_2 <- conv3_2
I0302 17:36:35.532804 10088 net.cpp:369] ReLU3_2 -> conv3_2 (in-place)
I0302 17:36:35.533315 10088 net.cpp:124] Setting up ReLU3_2
I0302 17:36:35.533331 10088 net.cpp:131] Top shape: 10 256 56 56 (8028160)
I0302 17:36:35.533336 10088 net.cpp:139] Memory required for data: 953344120
I0302 17:36:35.533341 10088 layer_factory.hpp:77] Creating layer conv3_3
I0302 17:36:35.533359 10088 net.cpp:86] Creating Layer conv3_3
I0302 17:36:35.533365 10088 net.cpp:408] conv3_3 <- conv3_2
I0302 17:36:35.533375 10088 net.cpp:382] conv3_3 -> conv3_3
I0302 17:36:35.541827 10088 net.cpp:124] Setting up conv3_3
I0302 17:36:35.541846 10088 net.cpp:131] Top shape: 10 256 56 56 (8028160)
I0302 17:36:35.541849 10088 net.cpp:139] Memory required for data: 985456760
I0302 17:36:35.541857 10088 layer_factory.hpp:77] Creating layer ReLU3_3
I0302 17:36:35.541863 10088 net.cpp:86] Creating Layer ReLU3_3
I0302 17:36:35.541867 10088 net.cpp:408] ReLU3_3 <- conv3_3
I0302 17:36:35.541874 10088 net.cpp:369] ReLU3_3 -> conv3_3 (in-place)
I0302 17:36:35.542035 10088 net.cpp:124] Setting up ReLU3_3
I0302 17:36:35.542043 10088 net.cpp:131] Top shape: 10 256 56 56 (8028160)
I0302 17:36:35.542047 10088 net.cpp:139] Memory required for data: 1017569400
I0302 17:36:35.542052 10088 layer_factory.hpp:77] Creating layer conv3_4
I0302 17:36:35.542060 10088 net.cpp:86] Creating Layer conv3_4
I0302 17:36:35.542064 10088 net.cpp:408] conv3_4 <- conv3_3
I0302 17:36:35.542073 10088 net.cpp:382] conv3_4 -> conv3_4
I0302 17:36:35.549063 10088 net.cpp:124] Setting up conv3_4
I0302 17:36:35.549078 10088 net.cpp:131] Top shape: 10 256 56 56 (8028160)
I0302 17:36:35.549082 10088 net.cpp:139] Memory required for data: 1049682040
I0302 17:36:35.549093 10088 layer_factory.hpp:77] Creating layer ReLU3_4
I0302 17:36:35.549106 10088 net.cpp:86] Creating Layer ReLU3_4
I0302 17:36:35.549110 10088 net.cpp:408] ReLU3_4 <- conv3_4
I0302 17:36:35.549115 10088 net.cpp:369] ReLU3_4 -> conv3_4 (in-place)
I0302 17:36:35.549455 10088 net.cpp:124] Setting up ReLU3_4
I0302 17:36:35.549466 10088 net.cpp:131] Top shape: 10 256 56 56 (8028160)
I0302 17:36:35.549469 10088 net.cpp:139] Memory required for data: 1081794680
I0302 17:36:35.549473 10088 layer_factory.hpp:77] Creating layer pool3
I0302 17:36:35.549479 10088 net.cpp:86] Creating Layer pool3
I0302 17:36:35.549484 10088 net.cpp:408] pool3 <- conv3_4
I0302 17:36:35.549489 10088 net.cpp:382] pool3 -> pool3
I0302 17:36:35.549526 10088 net.cpp:124] Setting up pool3
I0302 17:36:35.549532 10088 net.cpp:131] Top shape: 10 256 28 28 (2007040)
I0302 17:36:35.549535 10088 net.cpp:139] Memory required for data: 1089822840
I0302 17:36:35.549538 10088 layer_factory.hpp:77] Creating layer conv4_1
I0302 17:36:35.549546 10088 net.cpp:86] Creating Layer conv4_1
I0302 17:36:35.549551 10088 net.cpp:408] conv4_1 <- pool3
I0302 17:36:35.549556 10088 net.cpp:382] conv4_1 -> conv4_1
I0302 17:36:35.559921 10088 net.cpp:124] Setting up conv4_1
I0302 17:36:35.559942 10088 net.cpp:131] Top shape: 10 512 28 28 (4014080)
I0302 17:36:35.559945 10088 net.cpp:139] Memory required for data: 1105879160
I0302 17:36:35.559957 10088 layer_factory.hpp:77] Creating layer ReLU4_1
I0302 17:36:35.559963 10088 net.cpp:86] Creating Layer ReLU4_1
I0302 17:36:35.559967 10088 net.cpp:408] ReLU4_1 <- conv4_1
I0302 17:36:35.559972 10088 net.cpp:369] ReLU4_1 -> conv4_1 (in-place)
I0302 17:36:35.560276 10088 net.cpp:124] Setting up ReLU4_1
I0302 17:36:35.560286 10088 net.cpp:131] Top shape: 10 512 28 28 (4014080)
I0302 17:36:35.560288 10088 net.cpp:139] Memory required for data: 1121935480
I0302 17:36:35.560292 10088 layer_factory.hpp:77] Creating layer conv4_2
I0302 17:36:35.560300 10088 net.cpp:86] Creating Layer conv4_2
I0302 17:36:35.560303 10088 net.cpp:408] conv4_2 <- conv4_1
I0302 17:36:35.560308 10088 net.cpp:382] conv4_2 -> conv4_2
I0302 17:36:35.579181 10088 net.cpp:124] Setting up conv4_2
I0302 17:36:35.579206 10088 net.cpp:131] Top shape: 10 512 28 28 (4014080)
I0302 17:36:35.579210 10088 net.cpp:139] Memory required for data: 1137991800
I0302 17:36:35.579216 10088 layer_factory.hpp:77] Creating layer ReLU4_2
I0302 17:36:35.579223 10088 net.cpp:86] Creating Layer ReLU4_2
I0302 17:36:35.579227 10088 net.cpp:408] ReLU4_2 <- conv4_2
I0302 17:36:35.579234 10088 net.cpp:369] ReLU4_2 -> conv4_2 (in-place)
I0302 17:36:35.579365 10088 net.cpp:124] Setting up ReLU4_2
I0302 17:36:35.579371 10088 net.cpp:131] Top shape: 10 512 28 28 (4014080)
I0302 17:36:35.579375 10088 net.cpp:139] Memory required for data: 1154048120
I0302 17:36:35.579376 10088 layer_factory.hpp:77] Creating layer conv4_3
I0302 17:36:35.579385 10088 net.cpp:86] Creating Layer conv4_3
I0302 17:36:35.579388 10088 net.cpp:408] conv4_3 <- conv4_2
I0302 17:36:35.579393 10088 net.cpp:382] conv4_3 -> conv4_3
I0302 17:36:35.598350 10088 net.cpp:124] Setting up conv4_3
I0302 17:36:35.598373 10088 net.cpp:131] Top shape: 10 512 28 28 (4014080)
I0302 17:36:35.598376 10088 net.cpp:139] Memory required for data: 1170104440
I0302 17:36:35.598383 10088 layer_factory.hpp:77] Creating layer ReLU4_3
I0302 17:36:35.598389 10088 net.cpp:86] Creating Layer ReLU4_3
I0302 17:36:35.598393 10088 net.cpp:408] ReLU4_3 <- conv4_3
I0302 17:36:35.598398 10088 net.cpp:369] ReLU4_3 -> conv4_3 (in-place)
I0302 17:36:35.598698 10088 net.cpp:124] Setting up ReLU4_3
I0302 17:36:35.598707 10088 net.cpp:131] Top shape: 10 512 28 28 (4014080)
I0302 17:36:35.598711 10088 net.cpp:139] Memory required for data: 1186160760
I0302 17:36:35.598713 10088 layer_factory.hpp:77] Creating layer conv4_4
I0302 17:36:35.598722 10088 net.cpp:86] Creating Layer conv4_4
I0302 17:36:35.598726 10088 net.cpp:408] conv4_4 <- conv4_3
I0302 17:36:35.598731 10088 net.cpp:382] conv4_4 -> conv4_4
I0302 17:36:35.617414 10088 net.cpp:124] Setting up conv4_4
I0302 17:36:35.617445 10088 net.cpp:131] Top shape: 10 512 28 28 (4014080)
I0302 17:36:35.617455 10088 net.cpp:139] Memory required for data: 1202217080
I0302 17:36:35.617462 10088 layer_factory.hpp:77] Creating layer ReLU4_4
I0302 17:36:35.617470 10088 net.cpp:86] Creating Layer ReLU4_4
I0302 17:36:35.617473 10088 net.cpp:408] ReLU4_4 <- conv4_4
I0302 17:36:35.617478 10088 net.cpp:369] ReLU4_4 -> conv4_4 (in-place)
I0302 17:36:35.617779 10088 net.cpp:124] Setting up ReLU4_4
I0302 17:36:35.617787 10088 net.cpp:131] Top shape: 10 512 28 28 (4014080)
I0302 17:36:35.617790 10088 net.cpp:139] Memory required for data: 1218273400
I0302 17:36:35.617794 10088 layer_factory.hpp:77] Creating layer pool4
I0302 17:36:35.617800 10088 net.cpp:86] Creating Layer pool4
I0302 17:36:35.617804 10088 net.cpp:408] pool4 <- conv4_4
I0302 17:36:35.617808 10088 net.cpp:382] pool4 -> pool4
I0302 17:36:35.617841 10088 net.cpp:124] Setting up pool4
I0302 17:36:35.617846 10088 net.cpp:131] Top shape: 10 512 14 14 (1003520)
I0302 17:36:35.617848 10088 net.cpp:139] Memory required for data: 1222287480
I0302 17:36:35.617852 10088 layer_factory.hpp:77] Creating layer conv5_1
I0302 17:36:35.617859 10088 net.cpp:86] Creating Layer conv5_1
I0302 17:36:35.617862 10088 net.cpp:408] conv5_1 <- pool4
I0302 17:36:35.617868 10088 net.cpp:382] conv5_1 -> conv5_1
I0302 17:36:35.636909 10088 net.cpp:124] Setting up conv5_1
I0302 17:36:35.636934 10088 net.cpp:131] Top shape: 10 512 14 14 (1003520)
I0302 17:36:35.636939 10088 net.cpp:139] Memory required for data: 1226301560
I0302 17:36:35.636945 10088 layer_factory.hpp:77] Creating layer ReLU5_1
I0302 17:36:35.636951 10088 net.cpp:86] Creating Layer ReLU5_1
I0302 17:36:35.636955 10088 net.cpp:408] ReLU5_1 <- conv5_1
I0302 17:36:35.636960 10088 net.cpp:369] ReLU5_1 -> conv5_1 (in-place)
I0302 17:36:35.637092 10088 net.cpp:124] Setting up ReLU5_1
I0302 17:36:35.637100 10088 net.cpp:131] Top shape: 10 512 14 14 (1003520)
I0302 17:36:35.637102 10088 net.cpp:139] Memory required for data: 1230315640
I0302 17:36:35.637105 10088 layer_factory.hpp:77] Creating layer conv5_2
I0302 17:36:35.637117 10088 net.cpp:86] Creating Layer conv5_2
I0302 17:36:35.637121 10088 net.cpp:408] conv5_2 <- conv5_1
I0302 17:36:35.637126 10088 net.cpp:382] conv5_2 -> conv5_2
I0302 17:36:35.656002 10088 net.cpp:124] Setting up conv5_2
I0302 17:36:35.656024 10088 net.cpp:131] Top shape: 10 512 14 14 (1003520)
I0302 17:36:35.656028 10088 net.cpp:139] Memory required for data: 1234329720
I0302 17:36:35.656034 10088 layer_factory.hpp:77] Creating layer ReLU5_2
I0302 17:36:35.656041 10088 net.cpp:86] Creating Layer ReLU5_2
I0302 17:36:35.656044 10088 net.cpp:408] ReLU5_2 <- conv5_2
I0302 17:36:35.656050 10088 net.cpp:369] ReLU5_2 -> conv5_2 (in-place)
I0302 17:36:35.656347 10088 net.cpp:124] Setting up ReLU5_2
I0302 17:36:35.656355 10088 net.cpp:131] Top shape: 10 512 14 14 (1003520)
I0302 17:36:35.656358 10088 net.cpp:139] Memory required for data: 1238343800
I0302 17:36:35.656361 10088 layer_factory.hpp:77] Creating layer conv5_3
I0302 17:36:35.656369 10088 net.cpp:86] Creating Layer conv5_3
I0302 17:36:35.656373 10088 net.cpp:408] conv5_3 <- conv5_2
I0302 17:36:35.656378 10088 net.cpp:382] conv5_3 -> conv5_3
I0302 17:36:35.675106 10088 net.cpp:124] Setting up conv5_3
I0302 17:36:35.675132 10088 net.cpp:131] Top shape: 10 512 14 14 (1003520)
I0302 17:36:35.675135 10088 net.cpp:139] Memory required for data: 1242357880
I0302 17:36:35.675142 10088 layer_factory.hpp:77] Creating layer ReLU5_3
I0302 17:36:35.675148 10088 net.cpp:86] Creating Layer ReLU5_3
I0302 17:36:35.675153 10088 net.cpp:408] ReLU5_3 <- conv5_3
I0302 17:36:35.675160 10088 net.cpp:369] ReLU5_3 -> conv5_3 (in-place)
I0302 17:36:35.675462 10088 net.cpp:124] Setting up ReLU5_3
I0302 17:36:35.675472 10088 net.cpp:131] Top shape: 10 512 14 14 (1003520)
I0302 17:36:35.675475 10088 net.cpp:139] Memory required for data: 1246371960
I0302 17:36:35.675477 10088 layer_factory.hpp:77] Creating layer conv5_4
I0302 17:36:35.675485 10088 net.cpp:86] Creating Layer conv5_4
I0302 17:36:35.675489 10088 net.cpp:408] conv5_4 <- conv5_3
I0302 17:36:35.675499 10088 net.cpp:382] conv5_4 -> conv5_4
I0302 17:36:35.694551 10088 net.cpp:124] Setting up conv5_4
I0302 17:36:35.694576 10088 net.cpp:131] Top shape: 10 512 14 14 (1003520)
I0302 17:36:35.694581 10088 net.cpp:139] Memory required for data: 1250386040
I0302 17:36:35.694587 10088 layer_factory.hpp:77] Creating layer ReLU5_4
I0302 17:36:35.694593 10088 net.cpp:86] Creating Layer ReLU5_4
I0302 17:36:35.694597 10088 net.cpp:408] ReLU5_4 <- conv5_4
I0302 17:36:35.694602 10088 net.cpp:369] ReLU5_4 -> conv5_4 (in-place)
I0302 17:36:35.694725 10088 net.cpp:124] Setting up ReLU5_4
I0302 17:36:35.694732 10088 net.cpp:131] Top shape: 10 512 14 14 (1003520)
I0302 17:36:35.694735 10088 net.cpp:139] Memory required for data: 1254400120
I0302 17:36:35.694738 10088 layer_factory.hpp:77] Creating layer pool5
I0302 17:36:35.694744 10088 net.cpp:86] Creating Layer pool5
I0302 17:36:35.694747 10088 net.cpp:408] pool5 <- conv5_4
I0302 17:36:35.694751 10088 net.cpp:382] pool5 -> pool5
I0302 17:36:35.694788 10088 net.cpp:124] Setting up pool5
I0302 17:36:35.694793 10088 net.cpp:131] Top shape: 10 512 7 7 (250880)
I0302 17:36:35.694797 10088 net.cpp:139] Memory required for data: 1255403640
I0302 17:36:35.694799 10088 layer_factory.hpp:77] Creating layer fc6
I0302 17:36:35.694804 10088 net.cpp:86] Creating Layer fc6
I0302 17:36:35.694806 10088 net.cpp:408] fc6 <- pool5
I0302 17:36:35.694811 10088 net.cpp:382] fc6 -> fc6
I0302 17:36:35.805162 10088 net.cpp:124] Setting up fc6
I0302 17:36:35.805189 10088 net.cpp:131] Top shape: 10 4096 (40960)
I0302 17:36:35.805193 10088 net.cpp:139] Memory required for data: 1255567480
I0302 17:36:35.805204 10088 layer_factory.hpp:77] Creating layer ReLU6
I0302 17:36:35.805212 10088 net.cpp:86] Creating Layer ReLU6
I0302 17:36:35.805217 10088 net.cpp:408] ReLU6 <- fc6
I0302 17:36:35.805222 10088 net.cpp:369] ReLU6 -> fc6 (in-place)
I0302 17:36:35.805619 10088 net.cpp:124] Setting up ReLU6
I0302 17:36:35.805627 10088 net.cpp:131] Top shape: 10 4096 (40960)
I0302 17:36:35.805631 10088 net.cpp:139] Memory required for data: 1255731320
I0302 17:36:35.805634 10088 layer_factory.hpp:77] Creating layer drop6
I0302 17:36:35.805640 10088 net.cpp:86] Creating Layer drop6
I0302 17:36:35.805644 10088 net.cpp:408] drop6 <- fc6
I0302 17:36:35.805647 10088 net.cpp:369] drop6 -> fc6 (in-place)
I0302 17:36:35.805692 10088 net.cpp:124] Setting up drop6
I0302 17:36:35.805696 10088 net.cpp:131] Top shape: 10 4096 (40960)
I0302 17:36:35.805699 10088 net.cpp:139] Memory required for data: 1255895160
I0302 17:36:35.805702 10088 layer_factory.hpp:77] Creating layer fc7
I0302 17:36:35.805706 10088 net.cpp:86] Creating Layer fc7
I0302 17:36:35.805709 10088 net.cpp:408] fc7 <- fc6
I0302 17:36:35.805714 10088 net.cpp:382] fc7 -> fc7
I0302 17:36:35.823945 10088 net.cpp:124] Setting up fc7
I0302 17:36:35.823971 10088 net.cpp:131] Top shape: 10 4096 (40960)
I0302 17:36:35.823974 10088 net.cpp:139] Memory required for data: 1256059000
I0302 17:36:35.823982 10088 layer_factory.hpp:77] Creating layer ReLU7
I0302 17:36:35.823989 10088 net.cpp:86] Creating Layer ReLU7
I0302 17:36:35.823992 10088 net.cpp:408] ReLU7 <- fc7
I0302 17:36:35.823998 10088 net.cpp:369] ReLU7 -> fc7 (in-place)
I0302 17:36:35.824165 10088 net.cpp:124] Setting up ReLU7
I0302 17:36:35.824172 10088 net.cpp:131] Top shape: 10 4096 (40960)
I0302 17:36:35.824175 10088 net.cpp:139] Memory required for data: 1256222840
I0302 17:36:35.824178 10088 layer_factory.hpp:77] Creating layer drop7
I0302 17:36:35.824183 10088 net.cpp:86] Creating Layer drop7
I0302 17:36:35.824187 10088 net.cpp:408] drop7 <- fc7
I0302 17:36:35.824192 10088 net.cpp:369] drop7 -> fc7 (in-place)
I0302 17:36:35.824214 10088 net.cpp:124] Setting up drop7
I0302 17:36:35.824218 10088 net.cpp:131] Top shape: 10 4096 (40960)
I0302 17:36:35.824221 10088 net.cpp:139] Memory required for data: 1256386680
I0302 17:36:35.824224 10088 layer_factory.hpp:77] Creating layer fc8
I0302 17:36:35.824229 10088 net.cpp:86] Creating Layer fc8
I0302 17:36:35.824231 10088 net.cpp:408] fc8 <- fc7
I0302 17:36:35.824241 10088 net.cpp:382] fc8 -> fc8
I0302 17:36:35.828896 10088 net.cpp:124] Setting up fc8
I0302 17:36:35.828920 10088 net.cpp:131] Top shape: 10 1000 (10000)
I0302 17:36:35.828923 10088 net.cpp:139] Memory required for data: 1256426680
I0302 17:36:35.828930 10088 layer_factory.hpp:77] Creating layer fc8_fc8_0_split
I0302 17:36:35.828938 10088 net.cpp:86] Creating Layer fc8_fc8_0_split
I0302 17:36:35.828943 10088 net.cpp:408] fc8_fc8_0_split <- fc8
I0302 17:36:35.828949 10088 net.cpp:382] fc8_fc8_0_split -> fc8_fc8_0_split_0
I0302 17:36:35.828956 10088 net.cpp:382] fc8_fc8_0_split -> fc8_fc8_0_split_1
I0302 17:36:35.828989 10088 net.cpp:124] Setting up fc8_fc8_0_split
I0302 17:36:35.828995 10088 net.cpp:131] Top shape: 10 1000 (10000)
I0302 17:36:35.828999 10088 net.cpp:131] Top shape: 10 1000 (10000)
I0302 17:36:35.829001 10088 net.cpp:139] Memory required for data: 1256506680
I0302 17:36:35.829004 10088 layer_factory.hpp:77] Creating layer accuracy
I0302 17:36:35.829008 10088 net.cpp:86] Creating Layer accuracy
I0302 17:36:35.829011 10088 net.cpp:408] accuracy <- fc8_fc8_0_split_0
I0302 17:36:35.829015 10088 net.cpp:408] accuracy <- label_data_1_split_0
I0302 17:36:35.829020 10088 net.cpp:382] accuracy -> accuracy
…
I0302 17:36:35.830085 10088 net.cpp:296] The NetState phase (1) differed from the phase (0) specified by a rule in layer data
I0302 17:36:35.830277 10088 net.cpp:53] Initializing net from parameters: 
name: "VGG_ILSVRC_19_layers"
state {
  phase: TEST
}
layer {
  name: "data"
  type: "Data"
  top: "data"
  top: "label"
  include {
    phase: TEST
  }
  transform_param {
    mirror: false
    crop_size: 224
    mean_file: "/home/abc-5/Desktop/DOP17_SK_SM/Run1_20_2/colfer_mean.binaryproto"
  }
  data_param {
    source: "/home/abc-5/Desktop/DOP17_SK_SM/Run1_20_2/colfer_val_lmdb"
    batch_size: 5
    backend: LMDB
  }
}
layer {
  name: "conv1_1"
  type: "Convolution"
  bottom: "data"
  top: "conv1_1"
  param {
    lr_mult: 0
    decay_mult: 0
  }
  param {
    lr_mult: 0
    decay_mult: 0
  }
  convolution_param {
    num_output: 64
    pad: 1
    kernel_size: 3
    stride: 1
    weight_filler {
      type: "gaussian"
      std: 0.01
    }
    bias_filler {
      type: "constant"
      value: 0
    }
  }
}
layer {
  name: "ReLU1_1"
  type: "ReLU"
  bottom: "conv1_1"
  top: "conv1_1"
}
layer {
  name: "conv1_2"
  type: "Convolution"
  bottom: "conv1_1"
  top: "conv1_2"
  param {
    lr_mult: 0
    decay_mult: 0
  }
  param {
    lr_mult: 0
    decay_mult: 0
  }
  convolution_param {
    num_output: 64
    pad: 1
    kernel_size: 3
    stride: 1
    weight_filler {
      type: "gaussian"
      std: 0.01
    }
    bias_filler {
      type: "constant"
      value: 0
    }
  }
}
layer {
  name: "ReLU1_2"
  type: "ReLU"
  bottom: "conv1_2"
  top: "conv1_2"
}
layer {
  name: "pool1"
  type: "Pooling"
  bottom: "conv1_2"
  top: "pool1"
  pooling_param {
    pool: MAX
    kernel_size: 2
    stride: 2
  }
}
layer {
  name: "conv2_1"
  type: "Convolution"
  bottom: "pool1"
  top: "conv2_1"
  param {
    lr_mult: 0
    decay_mult: 0
  }
  param {
    lr_mult: 0
    decay_mult: 0
  }
  convolution_param {
    num_output: 128
    pad: 1
    kernel_size: 3
    stride: 1
    weight_filler {
      type: "gaussian"
      std: 0.01
    }
    bias_filler {
      type: "constant"
      value: 0
    }
  }
}
layer {
  name: "ReLU2_1"
  type: "ReLU"
  bottom: "conv2_1"
  top: "conv2_1"
}
layer {
  name: "conv2_2"
  type: "Convolution"
  bottom: "conv2_1"
  top: "conv2_2"
  param {
    lr_mult: 1
    decay_mult: 1
  }
  param {
    lr_mult: 2
    decay_mult: 0
  }
  convolution_param {
    num_output: 128
    pad: 1
    kernel_size: 3
    stride: 1
    weight_filler {
      type: "gaussian"
      std: 0.01
    }
    bias_filler {
      type: "constant"
      value: 0
    }
  }
}
layer {
  name: "ReLU2_2"
  type: "ReLU"
  bottom: "conv2_2"
  top: "conv2_2"
}
layer {
  name: "pool2"
  type: "Pooling"
  bottom: "conv2_2"
  top: "pool2"
  pooling_param {
    pool: MAX
    kernel_size: 2
    stride: 2
  }
}
layer {
  name: "conv3_1"
  type: "Convolution"
  bottom: "pool2"
  top: "conv3_1"
  param {
    lr_mult: 1
    decay_mult: 1
  }
  param {
    lr_mult: 2
    decay_mult: 0
  }
  convolution_param {
    num_output: 256
    pad: 1
    kernel_size: 3
    stride: 1
    weight_filler {
      type: "gaussian"
      std: 0.01
    }
    bias_filler {
      type: "constant"
      value: 0
    }
  }
}
layer {
  name: "ReLU3_1"
  type: "ReLU"
  bottom: "conv3_1"
  top: "conv3_1"
}
layer {
  name: "conv3_2"
  type: "Convolution"
  bottom: "conv3_1"
  top: "conv3_2"
  param {
    lr_mult: 1
    decay_mult: 1
  }
  param {
    lr_mult: 2
    decay_mult: 0
  }
  convolution_param {
    num_output: 256
    pad: 1
    kernel_size: 3
    stride: 1
    weight_filler {
      type: "gaussian"
      std: 0.01
    }
    bias_filler {
      type: "constant"
      value: 0
    }
  }
}
layer {
  name: "ReLU3_2"
  type: "ReLU"
  bottom: "conv3_2"
  top: "conv3_2"
}
layer {
  name: "conv3_3"
  type: "Convolution"
  bottom: "conv3_2"
  top: "conv3_3"
  param {
    lr_mult: 1
    decay_mult: 1
  }
  param {
    lr_mult: 2
    decay_mult: 0
  }
  convolution_param {
    num_output: 256
    pad: 1
    kernel_size: 3
    stride: 1
    weight_filler {
      type: "gaussian"
      std: 0.01
    }
    bias_filler {
      type: "constant"
      value: 0
    }
  }
}
layer {
  name: "ReLU3_3"
  type: "ReLU"
  bottom: "conv3_3"
  top: "conv3_3"
}
layer {
  name: "conv3_4"
  type: "Convolution"
  bottom: "conv3_3"
  top: "conv3_4"
  param {
    lr_mult: 1
    decay_mult: 1
  }
  param {
    lr_mult: 2
    decay_mult: 0
  }
  convolution_param {
    num_output: 256
    pad: 1
    kernel_size: 3
    stride: 1
    weight_filler {
      type: "gaussian"
      std: 0.01
    }
    bias_filler {
      type: "constant"
      value: 0
    }
  }
}
layer {
  name: "ReLU3_4"
  type: "ReLU"
  bottom: "conv3_4"
  top: "conv3_4"
}
layer {
  name: "pool3"
  type: "Pooling"
  bottom: "conv3_4"
  top: "pool3"
  pooling_param {
    pool: MAX
    kernel_size: 2
    stride: 2
  }
}
layer {
  name: "conv4_1"
  type: "Convolution"
  bottom: "pool3"
  top: "conv4_1"
  param {
    lr_mult: 1
    decay_mult: 1
  }
  param {
    lr_mult: 2
    decay_mult: 0
  }
  convolution_param {
    num_output: 512
    pad: 1
    kernel_size: 3
    stride: 1
    weight_filler {
      type: "gaussian"
      std: 0.01
    }
    bias_filler {
      type: "constant"
      value: 0
    }
  }
}
layer {
  name: "ReLU4_1"
  type: "ReLU"
  bottom: "conv4_1"
  top: "conv4_1"
}
layer {
  name: "conv4_2"
  type: "Convolution"
  bottom: "conv4_1"
  top: "conv4_2"
  param {
    lr_mult: 1
    decay_mult: 1
  }
  param {
    lr_mult: 2
    decay_mult: 0
  }
  convolution_param {
    num_output: 512
    pad: 1
    kernel_size: 3
    stride: 1
    weight_filler {
      type: "gaussian"
      std: 0.01
    }
    bias_filler {
      type: "constant"
      value: 0
    }
  }
}
layer {
  name: "ReLU4_2"
  type: "ReLU"
  bottom: "conv4_2"
  top: "conv4_2"
}
layer {
  name: "conv4_3"
  type: "Convolution"
  bottom: "conv4_2"
  top: "conv4_3"
  param {
    lr_mult: 1
    decay_mult: 1
  }
  param {
    lr_mult: 2
    decay_mult: 0
  }
  convolution_param {
    num_output: 512
    pad: 1
    kernel_size: 3
    stride: 1
    weight_filler {
      type: "gaussian"
      std: 0.01
    }
    bias_filler {
      type: "constant"
      value: 0
    }
  }
}
layer {
  name: "ReLU4_3"
  type: "ReLU"
  bottom: "conv4_3"
  top: "conv4_3"
}
layer {
  name: "conv4_4"
  type: "Convolution"
  bottom: "conv4_3"
  top: "conv4_4"
  param {
    lr_mult: 1
    decay_mult: 1
  }
  param {
    lr_mult: 2
    decay_mult: 0
  }
  convolution_param {
    num_output: 512
    pad: 1
    kernel_size: 3
    stride: 1
    weight_filler {
      type: "gaussian"
      std: 0.01
    }
    bias_filler {
      type: "constant"
      value: 0
    }
  }
}
layer {
  name: "ReLU4_4"
  type: "ReLU"
  bottom: "conv4_4"
  top: "conv4_4"
}
layer {
  name: "pool4"
  type: "Pooling"
  bottom: "conv4_4"
  top: "pool4"
  pooling_param {
    pool: MAX
    kernel_size: 2
    stride: 2
  }
}
layer {
  name: "conv5_1"
  type: "Convolution"
  bottom: "pool4"
  top: "conv5_1"
  param {
    lr_mult: 1
    decay_mult: 1
  }
  param {
    lr_mult: 2
    decay_mult: 0
  }
  convolution_param {
    num_output: 512
    pad: 1
    kernel_size: 3
    stride: 1
    weight_filler {
      type: "gaussian"
      std: 0.01
    }
    bias_filler {
      type: "constant"
      value: 0
    }
  }
}
layer {
  name: "ReLU5_1"
  type: "ReLU"
  bottom: "conv5_1"
  top: "conv5_1"
}
layer {
  name: "conv5_2"
  type: "Convolution"
  bottom: "conv5_1"
  top: "conv5_2"
  param {
    lr_mult: 1
    decay_mult: 1
  }
  param {
    lr_mult: 2
    decay_mult: 0
  }
  convolution_param {
    num_output: 512
    pad: 1
    kernel_size: 3
    stride: 1
    weight_filler {
      type: "gaussian"
      std: 0.01
    }
    bias_filler {
      type: "constant"
      value: 0
    }
  }
}
layer {
  name: "ReLU5_2"
  type: "ReLU"
  bottom: "conv5_2"
  top: "conv5_2"
}
layer {
  name: "conv5_3"
  type: "Convolution"
  bottom: "conv5_2"
  top: "conv5_3"
  param {
    lr_mult: 1
    decay_mult: 1
  }
  param {
    lr_mult: 2
    decay_mult: 0
  }
  convolution_param {
    num_output: 512
    pad: 1
    kernel_size: 3
    stride: 1
    weight_filler {
      type: "gaussian"
      std: 0.01
    }
    bias_filler {
      type: "constant"
      value: 0
    }
  }
}
layer {
  name: "ReLU5_3"
  type: "ReLU"
  bottom: "conv5_3"
  top: "conv5_3"
}
layer {
  name: "conv5_4"
  type: "Convolution"
  bottom: "conv5_3"
  top: "conv5_4"
  param {
    lr_mult: 1
    decay_mult: 1
  }
  param {
    lr_mult: 2
    decay_mult: 0
  }
  convolution_param {
    num_output: 512
    pad: 1
    kernel_size: 3
    stride: 1
    weight_filler {
      type: "gaussian"
      std: 0.01
    }
    bias_filler {
      type: "constant"
      value: 0
    }
  }
}
layer {
  name: "ReLU5_4"
  type: "ReLU"
  bottom: "conv5_4"
  top: "conv5_4"
}
layer {
  name: "pool5"
  type: "Pooling"
  bottom: "conv5_4"
  top: "pool5"
  pooling_param {
    pool: MAX
    kernel_size: 2
    stride: 2
  }
}
layer {
  name: "fc6"
  type: "InnerProduct"
  bottom: "pool5"
  top: "fc6"
  inner_product_param {
    num_output: 4096
  }
}
layer {
  name: "ReLU6"
  type: "ReLU"
  bottom: "fc6"
  top: "fc6"
}
layer {
  name: "drop6"
  type: "Dropout"
  bottom: "fc6"
  top: "fc6"
  dropout_param {
    dropout_ratio: 0.5
  }
}
layer {
  name: "fc7"
  type: "InnerProduct"
  bottom: "fc6"
  top: "fc7"
  inner_product_param {
    num_output: 4096
  }
}
layer {
  name: "ReLU7"
  type: "ReLU"
  bottom: "fc7"
  top: "fc7"
}
layer {
  name: "drop7"
  type: "Dropout"
  bottom: "fc7"
  top: "fc7"
  dropout_param {
    dropout_ratio: 0.5
  }
}
layer {
  name: "fc8"
  type: "InnerProduct"
  bottom: "fc7"
  top: "fc8"
  inner_product_param {
    num_output: 1000
  }
}
layer {
  name: "accuracy"
  type: "Accuracy"
  bottom: "fc8"
  bottom: "label"
  top: "accuracy"
  include {
    phase: TEST
  }
  include {
    phase: TRAIN
  }
}
layer {
  name: "loss"
  type: "SoftmaxWithLoss"
  bottom: "fc8"
  bottom: "label"
  top: "loss"
}
I0302 17:36:35.830379 10088 layer_factory.hpp:77] Creating layer data
I0302 17:36:35.865066 10088 db_lmdb.cpp:35] Opened lmdb /home/abc-5/Desktop/DOP17_SK_SM/Run1_20_2/colfer_val_lmdb
I0302 17:36:35.879874 10088 net.cpp:86] Creating Layer data
I0302 17:36:35.879920 10088 net.cpp:382] data -> data
I0302 17:36:35.879937 10088 net.cpp:382] data -> label
I0302 17:36:35.879950 10088 data_transformer.cpp:25] Loading mean file from: /home/abc-5/Desktop/DOP17_SK_SM/Run1_20_2/colfer_mean.binaryproto
I0302 17:36:35.883064 10088 data_layer.cpp:45] output data size: 5,3,224,224
I0302 17:36:35.891342 10088 net.cpp:124] Setting up data
I0302 17:36:35.891386 10088 net.cpp:131] Top shape: 5 3 224 224 (752640)
I0302 17:36:35.891396 10088 net.cpp:131] Top shape: 5 (5)
I0302 17:36:35.891403 10088 net.cpp:139] Memory required for data: 3010580
I0302 17:36:35.891413 10088 layer_factory.hpp:77] Creating layer label_data_1_split
I0302 17:36:35.891430 10088 net.cpp:86] Creating Layer label_data_1_split
I0302 17:36:35.891439 10088 net.cpp:408] label_data_1_split <- label
I0302 17:36:35.891451 10088 net.cpp:382] label_data_1_split -> label_data_1_split_0
I0302 17:36:35.891466 10088 net.cpp:382] label_data_1_split -> label_data_1_split_1
I0302 17:36:35.891686 10088 net.cpp:124] Setting up label_data_1_split
I0302 17:36:35.891716 10088 net.cpp:131] Top shape: 5 (5)
I0302 17:36:35.891726 10088 net.cpp:131] Top shape: 5 (5)
I0302 17:36:35.891732 10088 net.cpp:139] Memory required for data: 3010620
I0302 17:36:35.891739 10088 layer_factory.hpp:77] Creating layer conv1_1
I0302 17:36:35.891759 10088 net.cpp:86] Creating Layer conv1_1
I0302 17:36:35.891768 10088 net.cpp:408] conv1_1 <- data
I0302 17:36:35.891780 10088 net.cpp:382] conv1_1 -> conv1_1
I0302 17:36:35.894991 10088 net.cpp:124] Setting up conv1_1
I0302 17:36:35.895021 10088 net.cpp:131] Top shape: 5 64 224 224 (16056320)
I0302 17:36:35.895031 10088 net.cpp:139] Memory required for data: 67235900
I0302 17:36:35.895051 10088 layer_factory.hpp:77] Creating layer ReLU1_1
I0302 17:36:35.895072 10088 net.cpp:86] Creating Layer ReLU1_1
I0302 17:36:35.895079 10088 net.cpp:408] ReLU1_1 <- conv1_1
I0302 17:36:35.895089 10088 net.cpp:369] ReLU1_1 -> conv1_1 (in-place)
I0302 17:36:35.895424 10088 net.cpp:124] Setting up ReLU1_1
I0302 17:36:35.895443 10088 net.cpp:131] Top shape: 5 64 224 224 (16056320)
I0302 17:36:35.895450 10088 net.cpp:139] Memory required for data: 131461180
I0302 17:36:35.895457 10088 layer_factory.hpp:77] Creating layer conv1_2
I0302 17:36:35.895474 10088 net.cpp:86] Creating Layer conv1_2
I0302 17:36:35.895483 10088 net.cpp:408] conv1_2 <- conv1_1
I0302 17:36:35.895493 10088 net.cpp:382] conv1_2 -> conv1_2
I0302 17:36:35.899422 10088 net.cpp:124] Setting up conv1_2
I0302 17:36:35.899448 10088 net.cpp:131] Top shape: 5 64 224 224 (16056320)
I0302 17:36:35.899456 10088 net.cpp:139] Memory required for data: 195686460
I0302 17:36:35.899471 10088 layer_factory.hpp:77] Creating layer ReLU1_2
I0302 17:36:35.899484 10088 net.cpp:86] Creating Layer ReLU1_2
I0302 17:36:35.899492 10088 net.cpp:408] ReLU1_2 <- conv1_2
I0302 17:36:35.899502 10088 net.cpp:369] ReLU1_2 -> conv1_2 (in-place)
I0302 17:36:35.900442 10088 net.cpp:124] Setting up ReLU1_2
I0302 17:36:35.900472 10088 net.cpp:131] Top shape: 5 64 224 224 (16056320)
I0302 17:36:35.900482 10088 net.cpp:139] Memory required for data: 259911740
I0302 17:36:35.900490 10088 layer_factory.hpp:77] Creating layer pool1
I0302 17:36:35.900503 10088 net.cpp:86] Creating Layer pool1
I0302 17:36:35.900511 10088 net.cpp:408] pool1 <- conv1_2
I0302 17:36:35.900522 10088 net.cpp:382] pool1 -> pool1
I0302 17:36:35.900612 10088 net.cpp:124] Setting up pool1
I0302 17:36:35.900625 10088 net.cpp:131] Top shape: 5 64 112 112 (4014080)
I0302 17:36:35.900631 10088 net.cpp:139] Memory required for data: 275968060
I0302 17:36:35.900640 10088 layer_factory.hpp:77] Creating layer conv2_1
I0302 17:36:35.900653 10088 net.cpp:86] Creating Layer conv2_1
I0302 17:36:35.900661 10088 net.cpp:408] conv2_1 <- pool1
I0302 17:36:35.900672 10088 net.cpp:382] conv2_1 -> conv2_1
I0302 17:36:35.904672 10088 net.cpp:124] Setting up conv2_1
I0302 17:36:35.904713 10088 net.cpp:131] Top shape: 5 128 112 112 (8028160)
I0302 17:36:35.904734 10088 net.cpp:139] Memory required for data: 308080700
I0302 17:36:35.904753 10088 layer_factory.hpp:77] Creating layer ReLU2_1
I0302 17:36:35.904769 10088 net.cpp:86] Creating Layer ReLU2_1
I0302 17:36:35.904778 10088 net.cpp:408] ReLU2_1 <- conv2_1
I0302 17:36:35.904788 10088 net.cpp:369] ReLU2_1 -> conv2_1 (in-place)
I0302 17:36:35.905503 10088 net.cpp:124] Setting up ReLU2_1
I0302 17:36:35.905526 10088 net.cpp:131] Top shape: 5 128 112 112 (8028160)
I0302 17:36:35.905534 10088 net.cpp:139] Memory required for data: 340193340
I0302 17:36:35.905541 10088 layer_factory.hpp:77] Creating layer conv2_2
I0302 17:36:35.905556 10088 net.cpp:86] Creating Layer conv2_2
I0302 17:36:35.905565 10088 net.cpp:408] conv2_2 <- conv2_1
I0302 17:36:35.905592 10088 net.cpp:382] conv2_2 -> conv2_2
I0302 17:36:35.910955 10088 net.cpp:124] Setting up conv2_2
I0302 17:36:35.910976 10088 net.cpp:131] Top shape: 5 128 112 112 (8028160)
I0302 17:36:35.910984 10088 net.cpp:139] Memory required for data: 372305980
I0302 17:36:35.910992 10088 layer_factory.hpp:77] Creating layer ReLU2_2
I0302 17:36:35.911001 10088 net.cpp:86] Creating Layer ReLU2_2
I0302 17:36:35.911007 10088 net.cpp:408] ReLU2_2 <- conv2_2
I0302 17:36:35.911015 10088 net.cpp:369] ReLU2_2 -> conv2_2 (in-place)
I0302 17:36:35.911265 10088 net.cpp:124] Setting up ReLU2_2
I0302 17:36:35.911279 10088 net.cpp:131] Top shape: 5 128 112 112 (8028160)
I0302 17:36:35.911284 10088 net.cpp:139] Memory required for data: 404418620
I0302 17:36:35.911291 10088 layer_factory.hpp:77] Creating layer pool2
I0302 17:36:35.911299 10088 net.cpp:86] Creating Layer pool2
I0302 17:36:35.911305 10088 net.cpp:408] pool2 <- conv2_2
I0302 17:36:35.911312 10088 net.cpp:382] pool2 -> pool2
I0302 17:36:35.911381 10088 net.cpp:124] Setting up pool2
I0302 17:36:35.911389 10088 net.cpp:131] Top shape: 5 128 56 56 (2007040)
I0302 17:36:35.911396 10088 net.cpp:139] Memory required for data: 412446780
I0302 17:36:35.911399 10088 layer_factory.hpp:77] Creating layer conv3_1
I0302 17:36:35.911412 10088 net.cpp:86] Creating Layer conv3_1
I0302 17:36:35.911417 10088 net.cpp:408] conv3_1 <- pool2
I0302 17:36:35.911427 10088 net.cpp:382] conv3_1 -> conv3_1
I0302 17:36:35.917327 10088 net.cpp:124] Setting up conv3_1
I0302 17:36:35.917346 10088 net.cpp:131] Top shape: 5 256 56 56 (4014080)
I0302 17:36:35.917351 10088 net.cpp:139] Memory required for data: 428503100
I0302 17:36:35.917361 10088 layer_factory.hpp:77] Creating layer ReLU3_1
I0302 17:36:35.917368 10088 net.cpp:86] Creating Layer ReLU3_1
I0302 17:36:35.917374 10088 net.cpp:408] ReLU3_1 <- conv3_1
I0302 17:36:35.917381 10088 net.cpp:369] ReLU3_1 -> conv3_1 (in-place)
I0302 17:36:35.917836 10088 net.cpp:124] Setting up ReLU3_1
I0302 17:36:35.917850 10088 net.cpp:131] Top shape: 5 256 56 56 (4014080)
I0302 17:36:35.917855 10088 net.cpp:139] Memory required for data: 444559420
I0302 17:36:35.917860 10088 layer_factory.hpp:77] Creating layer conv3_2
I0302 17:36:35.917870 10088 net.cpp:86] Creating Layer conv3_2
I0302 17:36:35.917875 10088 net.cpp:408] conv3_2 <- conv3_1
I0302 17:36:35.917882 10088 net.cpp:382] conv3_2 -> conv3_2
I0302 17:36:35.925504 10088 net.cpp:124] Setting up conv3_2
I0302 17:36:35.925516 10088 net.cpp:131] Top shape: 5 256 56 56 (4014080)
I0302 17:36:35.925520 10088 net.cpp:139] Memory required for data: 460615740
I0302 17:36:35.925526 10088 layer_factory.hpp:77] Creating layer ReLU3_2
I0302 17:36:35.925532 10088 net.cpp:86] Creating Layer ReLU3_2
I0302 17:36:35.925535 10088 net.cpp:408] ReLU3_2 <- conv3_2
I0302 17:36:35.925540 10088 net.cpp:369] ReLU3_2 -> conv3_2 (in-place)
I0302 17:36:35.925879 10088 net.cpp:124] Setting up ReLU3_2
I0302 17:36:35.925889 10088 net.cpp:131] Top shape: 5 256 56 56 (4014080)
I0302 17:36:35.925894 10088 net.cpp:139] Memory required for data: 476672060
I0302 17:36:35.925896 10088 layer_factory.hpp:77] Creating layer conv3_3
I0302 17:36:35.925906 10088 net.cpp:86] Creating Layer conv3_3
I0302 17:36:35.925915 10088 net.cpp:408] conv3_3 <- conv3_2
I0302 17:36:35.925926 10088 net.cpp:382] conv3_3 -> conv3_3
I0302 17:36:35.932445 10088 net.cpp:124] Setting up conv3_3
I0302 17:36:35.932456 10088 net.cpp:131] Top shape: 5 256 56 56 (4014080)
I0302 17:36:35.932459 10088 net.cpp:139] Memory required for data: 492728380
I0302 17:36:35.932464 10088 layer_factory.hpp:77] Creating layer ReLU3_3
I0302 17:36:35.932469 10088 net.cpp:86] Creating Layer ReLU3_3
I0302 17:36:35.932472 10088 net.cpp:408] ReLU3_3 <- conv3_3
I0302 17:36:35.932477 10088 net.cpp:369] ReLU3_3 -> conv3_3 (in-place)
I0302 17:36:35.932608 10088 net.cpp:124] Setting up ReLU3_3
I0302 17:36:35.932615 10088 net.cpp:131] Top shape: 5 256 56 56 (4014080)
I0302 17:36:35.932617 10088 net.cpp:139] Memory required for data: 508784700
I0302 17:36:35.932621 10088 layer_factory.hpp:77] Creating layer conv3_4
I0302 17:36:35.932627 10088 net.cpp:86] Creating Layer conv3_4
I0302 17:36:35.932631 10088 net.cpp:408] conv3_4 <- conv3_3
I0302 17:36:35.932636 10088 net.cpp:382] conv3_4 -> conv3_4
I0302 17:36:35.938372 10088 net.cpp:124] Setting up conv3_4
I0302 17:36:35.938386 10088 net.cpp:131] Top shape: 5 256 56 56 (4014080)
I0302 17:36:35.938390 10088 net.cpp:139] Memory required for data: 524841020
I0302 17:36:35.938395 10088 layer_factory.hpp:77] Creating layer ReLU3_4
I0302 17:36:35.938400 10088 net.cpp:86] Creating Layer ReLU3_4
I0302 17:36:35.938402 10088 net.cpp:408] ReLU3_4 <- conv3_4
I0302 17:36:35.938406 10088 net.cpp:369] ReLU3_4 -> conv3_4 (in-place)
I0302 17:36:35.938689 10088 net.cpp:124] Setting up ReLU3_4
I0302 17:36:35.938697 10088 net.cpp:131] Top shape: 5 256 56 56 (4014080)
I0302 17:36:35.938700 10088 net.cpp:139] Memory required for data: 540897340
I0302 17:36:35.938704 10088 layer_factory.hpp:77] Creating layer pool3
I0302 17:36:35.938709 10088 net.cpp:86] Creating Layer pool3
I0302 17:36:35.938711 10088 net.cpp:408] pool3 <- conv3_4
I0302 17:36:35.938716 10088 net.cpp:382] pool3 -> pool3
I0302 17:36:35.938755 10088 net.cpp:124] Setting up pool3
I0302 17:36:35.938760 10088 net.cpp:131] Top shape: 5 256 28 28 (1003520)
I0302 17:36:35.938762 10088 net.cpp:139] Memory required for data: 544911420
I0302 17:36:35.938765 10088 layer_factory.hpp:77] Creating layer conv4_1
I0302 17:36:35.938771 10088 net.cpp:86] Creating Layer conv4_1
I0302 17:36:35.938774 10088 net.cpp:408] conv4_1 <- pool3
I0302 17:36:35.938779 10088 net.cpp:382] conv4_1 -> conv4_1
I0302 17:36:35.948719 10088 net.cpp:124] Setting up conv4_1
I0302 17:36:35.948739 10088 net.cpp:131] Top shape: 5 512 28 28 (2007040)
I0302 17:36:35.948741 10088 net.cpp:139] Memory required for data: 552939580
I0302 17:36:35.948752 10088 layer_factory.hpp:77] Creating layer ReLU4_1
I0302 17:36:35.948758 10088 net.cpp:86] Creating Layer ReLU4_1
I0302 17:36:35.948761 10088 net.cpp:408] ReLU4_1 <- conv4_1
I0302 17:36:35.948766 10088 net.cpp:369] ReLU4_1 -> conv4_1 (in-place)
I0302 17:36:35.949074 10088 net.cpp:124] Setting up ReLU4_1
I0302 17:36:35.949082 10088 net.cpp:131] Top shape: 5 512 28 28 (2007040)
I0302 17:36:35.949085 10088 net.cpp:139] Memory required for data: 560967740
I0302 17:36:35.949089 10088 layer_factory.hpp:77] Creating layer conv4_2
I0302 17:36:35.949097 10088 net.cpp:86] Creating Layer conv4_2
I0302 17:36:35.949100 10088 net.cpp:408] conv4_2 <- conv4_1
I0302 17:36:35.949105 10088 net.cpp:382] conv4_2 -> conv4_2
I0302 17:36:35.968065 10088 net.cpp:124] Setting up conv4_2
I0302 17:36:35.968091 10088 net.cpp:131] Top shape: 5 512 28 28 (2007040)
I0302 17:36:35.968093 10088 net.cpp:139] Memory required for data: 568995900
I0302 17:36:35.968101 10088 layer_factory.hpp:77] Creating layer ReLU4_2
I0302 17:36:35.968108 10088 net.cpp:86] Creating Layer ReLU4_2
I0302 17:36:35.968112 10088 net.cpp:408] ReLU4_2 <- conv4_2
I0302 17:36:35.968117 10088 net.cpp:369] ReLU4_2 -> conv4_2 (in-place)
I0302 17:36:35.968268 10088 net.cpp:124] Setting up ReLU4_2
I0302 17:36:35.968274 10088 net.cpp:131] Top shape: 5 512 28 28 (2007040)
I0302 17:36:35.968278 10088 net.cpp:139] Memory required for data: 577024060
I0302 17:36:35.968286 10088 layer_factory.hpp:77] Creating layer conv4_3
I0302 17:36:35.968299 10088 net.cpp:86] Creating Layer conv4_3
I0302 17:36:35.968303 10088 net.cpp:408] conv4_3 <- conv4_2
I0302 17:36:35.968309 10088 net.cpp:382] conv4_3 -> conv4_3
I0302 17:36:35.987263 10088 net.cpp:124] Setting up conv4_3
I0302 17:36:35.987305 10088 net.cpp:131] Top shape: 5 512 28 28 (2007040)
I0302 17:36:35.987308 10088 net.cpp:139] Memory required for data: 585052220
I0302 17:36:35.987315 10088 layer_factory.hpp:77] Creating layer ReLU4_3
I0302 17:36:35.987323 10088 net.cpp:86] Creating Layer ReLU4_3
I0302 17:36:35.987325 10088 net.cpp:408] ReLU4_3 <- conv4_3
I0302 17:36:35.987330 10088 net.cpp:369] ReLU4_3 -> conv4_3 (in-place)
I0302 17:36:35.987643 10088 net.cpp:124] Setting up ReLU4_3
I0302 17:36:35.987653 10088 net.cpp:131] Top shape: 5 512 28 28 (2007040)
I0302 17:36:35.987655 10088 net.cpp:139] Memory required for data: 593080380
I0302 17:36:35.987658 10088 layer_factory.hpp:77] Creating layer conv4_4
I0302 17:36:35.987668 10088 net.cpp:86] Creating Layer conv4_4
I0302 17:36:35.987670 10088 net.cpp:408] conv4_4 <- conv4_3
I0302 17:36:35.987675 10088 net.cpp:382] conv4_4 -> conv4_4
I0302 17:36:36.006453 10088 net.cpp:124] Setting up conv4_4
I0302 17:36:36.006474 10088 net.cpp:131] Top shape: 5 512 28 28 (2007040)
I0302 17:36:36.006477 10088 net.cpp:139] Memory required for data: 601108540
I0302 17:36:36.006484 10088 layer_factory.hpp:77] Creating layer ReLU4_4
I0302 17:36:36.006491 10088 net.cpp:86] Creating Layer ReLU4_4
I0302 17:36:36.006495 10088 net.cpp:408] ReLU4_4 <- conv4_4
I0302 17:36:36.006500 10088 net.cpp:369] ReLU4_4 -> conv4_4 (in-place)
I0302 17:36:36.006821 10088 net.cpp:124] Setting up ReLU4_4
I0302 17:36:36.006829 10088 net.cpp:131] Top shape: 5 512 28 28 (2007040)
I0302 17:36:36.006834 10088 net.cpp:139] Memory required for data: 609136700
I0302 17:36:36.006836 10088 layer_factory.hpp:77] Creating layer pool4
I0302 17:36:36.006841 10088 net.cpp:86] Creating Layer pool4
I0302 17:36:36.006844 10088 net.cpp:408] pool4 <- conv4_4
I0302 17:36:36.006850 10088 net.cpp:382] pool4 -> pool4
I0302 17:36:36.006888 10088 net.cpp:124] Setting up pool4
I0302 17:36:36.006893 10088 net.cpp:131] Top shape: 5 512 14 14 (501760)
I0302 17:36:36.006896 10088 net.cpp:139] Memory required for data: 611143740
I0302 17:36:36.006899 10088 layer_factory.hpp:77] Creating layer conv5_1
I0302 17:36:36.006907 10088 net.cpp:86] Creating Layer conv5_1
I0302 17:36:36.006911 10088 net.cpp:408] conv5_1 <- pool4
I0302 17:36:36.006916 10088 net.cpp:382] conv5_1 -> conv5_1
I0302 17:36:36.026109 10088 net.cpp:124] Setting up conv5_1
I0302 17:36:36.026135 10088 net.cpp:131] Top shape: 5 512 14 14 (501760)
I0302 17:36:36.026139 10088 net.cpp:139] Memory required for data: 613150780
I0302 17:36:36.026145 10088 layer_factory.hpp:77] Creating layer ReLU5_1
I0302 17:36:36.026152 10088 net.cpp:86] Creating Layer ReLU5_1
I0302 17:36:36.026155 10088 net.cpp:408] ReLU5_1 <- conv5_1
I0302 17:36:36.026161 10088 net.cpp:369] ReLU5_1 -> conv5_1 (in-place)
I0302 17:36:36.026290 10088 net.cpp:124] Setting up ReLU5_1
I0302 17:36:36.026298 10088 net.cpp:131] Top shape: 5 512 14 14 (501760)
I0302 17:36:36.026300 10088 net.cpp:139] Memory required for data: 615157820
I0302 17:36:36.026304 10088 layer_factory.hpp:77] Creating layer conv5_2
I0302 17:36:36.026315 10088 net.cpp:86] Creating Layer conv5_2
I0302 17:36:36.026319 10088 net.cpp:408] conv5_2 <- conv5_1
I0302 17:36:36.026324 10088 net.cpp:382] conv5_2 -> conv5_2
I0302 17:36:36.045466 10088 net.cpp:124] Setting up conv5_2
I0302 17:36:36.045491 10088 net.cpp:131] Top shape: 5 512 14 14 (501760)
I0302 17:36:36.045495 10088 net.cpp:139] Memory required for data: 617164860
I0302 17:36:36.045501 10088 layer_factory.hpp:77] Creating layer ReLU5_2
I0302 17:36:36.045508 10088 net.cpp:86] Creating Layer ReLU5_2
I0302 17:36:36.045511 10088 net.cpp:408] ReLU5_2 <- conv5_2
I0302 17:36:36.045517 10088 net.cpp:369] ReLU5_2 -> conv5_2 (in-place)
I0302 17:36:36.045828 10088 net.cpp:124] Setting up ReLU5_2
I0302 17:36:36.045837 10088 net.cpp:131] Top shape: 5 512 14 14 (501760)
I0302 17:36:36.045850 10088 net.cpp:139] Memory required for data: 619171900
I0302 17:36:36.045853 10088 layer_factory.hpp:77] Creating layer conv5_3
I0302 17:36:36.045861 10088 net.cpp:86] Creating Layer conv5_3
I0302 17:36:36.045864 10088 net.cpp:408] conv5_3 <- conv5_2
I0302 17:36:36.045871 10088 net.cpp:382] conv5_3 -> conv5_3
I0302 17:36:36.064661 10088 net.cpp:124] Setting up conv5_3
I0302 17:36:36.064687 10088 net.cpp:131] Top shape: 5 512 14 14 (501760)
I0302 17:36:36.064690 10088 net.cpp:139] Memory required for data: 621178940
I0302 17:36:36.064697 10088 layer_factory.hpp:77] Creating layer ReLU5_3
I0302 17:36:36.064703 10088 net.cpp:86] Creating Layer ReLU5_3
I0302 17:36:36.064707 10088 net.cpp:408] ReLU5_3 <- conv5_3
I0302 17:36:36.064713 10088 net.cpp:369] ReLU5_3 -> conv5_3 (in-place)
I0302 17:36:36.065023 10088 net.cpp:124] Setting up ReLU5_3
I0302 17:36:36.065032 10088 net.cpp:131] Top shape: 5 512 14 14 (501760)
I0302 17:36:36.065035 10088 net.cpp:139] Memory required for data: 623185980
I0302 17:36:36.065038 10088 layer_factory.hpp:77] Creating layer conv5_4
I0302 17:36:36.065047 10088 net.cpp:86] Creating Layer conv5_4
I0302 17:36:36.065050 10088 net.cpp:408] conv5_4 <- conv5_3
I0302 17:36:36.065055 10088 net.cpp:382] conv5_4 -> conv5_4
I0302 17:36:36.083998 10088 net.cpp:124] Setting up conv5_4
I0302 17:36:36.084022 10088 net.cpp:131] Top shape: 5 512 14 14 (501760)
I0302 17:36:36.084026 10088 net.cpp:139] Memory required for data: 625193020
I0302 17:36:36.084033 10088 layer_factory.hpp:77] Creating layer ReLU5_4
I0302 17:36:36.084039 10088 net.cpp:86] Creating Layer ReLU5_4
I0302 17:36:36.084043 10088 net.cpp:408] ReLU5_4 <- conv5_4
I0302 17:36:36.084048 10088 net.cpp:369] ReLU5_4 -> conv5_4 (in-place)
I0302 17:36:36.084179 10088 net.cpp:124] Setting up ReLU5_4
I0302 17:36:36.084187 10088 net.cpp:131] Top shape: 5 512 14 14 (501760)
I0302 17:36:36.084189 10088 net.cpp:139] Memory required for data: 627200060
I0302 17:36:36.084192 10088 layer_factory.hpp:77] Creating layer pool5
I0302 17:36:36.084198 10088 net.cpp:86] Creating Layer pool5
I0302 17:36:36.084202 10088 net.cpp:408] pool5 <- conv5_4
I0302 17:36:36.084205 10088 net.cpp:382] pool5 -> pool5
I0302 17:36:36.084249 10088 net.cpp:124] Setting up pool5
I0302 17:36:36.084254 10088 net.cpp:131] Top shape: 5 512 7 7 (125440)
I0302 17:36:36.084255 10088 net.cpp:139] Memory required for data: 627701820
I0302 17:36:36.084259 10088 layer_factory.hpp:77] Creating layer fc6
I0302 17:36:36.084264 10088 net.cpp:86] Creating Layer fc6
I0302 17:36:36.084266 10088 net.cpp:408] fc6 <- pool5
I0302 17:36:36.084270 10088 net.cpp:382] fc6 -> fc6
I0302 17:36:36.194061 10088 net.cpp:124] Setting up fc6
I0302 17:36:36.194088 10088 net.cpp:131] Top shape: 5 4096 (20480)
I0302 17:36:36.194092 10088 net.cpp:139] Memory required for data: 627783740
I0302 17:36:36.194105 10088 layer_factory.hpp:77] Creating layer ReLU6
I0302 17:36:36.194113 10088 net.cpp:86] Creating Layer ReLU6
I0302 17:36:36.194118 10088 net.cpp:408] ReLU6 <- fc6
I0302 17:36:36.194121 10088 net.cpp:369] ReLU6 -> fc6 (in-place)
I0302 17:36:36.194546 10088 net.cpp:124] Setting up ReLU6
I0302 17:36:36.194555 10088 net.cpp:131] Top shape: 5 4096 (20480)
I0302 17:36:36.194558 10088 net.cpp:139] Memory required for data: 627865660
I0302 17:36:36.194561 10088 layer_factory.hpp:77] Creating layer drop6
I0302 17:36:36.194566 10088 net.cpp:86] Creating Layer drop6
I0302 17:36:36.194569 10088 net.cpp:408] drop6 <- fc6
I0302 17:36:36.194576 10088 net.cpp:369] drop6 -> fc6 (in-place)
I0302 17:36:36.194602 10088 net.cpp:124] Setting up drop6
I0302 17:36:36.194605 10088 net.cpp:131] Top shape: 5 4096 (20480)
I0302 17:36:36.194608 10088 net.cpp:139] Memory required for data: 627947580
I0302 17:36:36.194612 10088 layer_factory.hpp:77] Creating layer fc7
I0302 17:36:36.194615 10088 net.cpp:86] Creating Layer fc7
I0302 17:36:36.194618 10088 net.cpp:408] fc7 <- fc6
I0302 17:36:36.194623 10088 net.cpp:382] fc7 -> fc7
I0302 17:36:36.212985 10088 net.cpp:124] Setting up fc7
I0302 17:36:36.213016 10088 net.cpp:131] Top shape: 5 4096 (20480)
I0302 17:36:36.213026 10088 net.cpp:139] Memory required for data: 628029500
I0302 17:36:36.213032 10088 layer_factory.hpp:77] Creating layer ReLU7
I0302 17:36:36.213040 10088 net.cpp:86] Creating Layer ReLU7
I0302 17:36:36.213044 10088 net.cpp:408] ReLU7 <- fc7
I0302 17:36:36.213049 10088 net.cpp:369] ReLU7 -> fc7 (in-place)
I0302 17:36:36.213222 10088 net.cpp:124] Setting up ReLU7
I0302 17:36:36.213228 10088 net.cpp:131] Top shape: 5 4096 (20480)
I0302 17:36:36.213232 10088 net.cpp:139] Memory required for data: 628111420
I0302 17:36:36.213234 10088 layer_factory.hpp:77] Creating layer drop7
I0302 17:36:36.213239 10088 net.cpp:86] Creating Layer drop7
I0302 17:36:36.213243 10088 net.cpp:408] drop7 <- fc7
I0302 17:36:36.213246 10088 net.cpp:369] drop7 -> fc7 (in-place)
I0302 17:36:36.213273 10088 net.cpp:124] Setting up drop7
I0302 17:36:36.213276 10088 net.cpp:131] Top shape: 5 4096 (20480)
I0302 17:36:36.213279 10088 net.cpp:139] Memory required for data: 628193340
I0302 17:36:36.213282 10088 layer_factory.hpp:77] Creating layer fc8
I0302 17:36:36.213286 10088 net.cpp:86] Creating Layer fc8
I0302 17:36:36.213289 10088 net.cpp:408] fc8 <- fc7
I0302 17:36:36.213294 10088 net.cpp:382] fc8 -> fc8
I0302 17:36:36.218049 10088 net.cpp:124] Setting up fc8
I0302 17:36:36.218075 10088 net.cpp:131] Top shape: 5 1000 (5000)
I0302 17:36:36.218077 10088 net.cpp:139] Memory required for data: 628213340
I0302 17:36:36.218086 10088 layer_factory.hpp:77] Creating layer fc8_fc8_0_split
I0302 17:36:36.218091 10088 net.cpp:86] Creating Layer fc8_fc8_0_split
I0302 17:36:36.218096 10088 net.cpp:408] fc8_fc8_0_split <- fc8
I0302 17:36:36.218102 10088 net.cpp:382] fc8_fc8_0_split -> fc8_fc8_0_split_0
I0302 17:36:36.218109 10088 net.cpp:382] fc8_fc8_0_split -> fc8_fc8_0_split_1
I0302 17:36:36.218148 10088 net.cpp:124] Setting up fc8_fc8_0_split
I0302 17:36:36.218153 10088 net.cpp:131] Top shape: 5 1000 (5000)
I0302 17:36:36.218156 10088 net.cpp:131] Top shape: 5 1000 (5000)
I0302 17:36:36.218159 10088 net.cpp:139] Memory required for data: 628253340
I0302 17:36:36.218163 10088 layer_factory.hpp:77] Creating layer accuracy
I0302 17:36:36.218168 10088 net.cpp:86] Creating Layer accuracy
I0302 17:36:36.218171 10088 net.cpp:408] accuracy <- fc8_fc8_0_split_0
I0302 17:36:36.218175 10088 net.cpp:408] accuracy <- label_data_1_split_0
I0302 17:36:36.218180 10088 net.cpp:382] accuracy -> accuracy
…
