…
I0426 18:37:43.038014  2235 net.cpp:296] The NetState phase (0) differed from the phase (1) specified by a rule in layer accuracyLFWoverYTF
I0426 18:37:43.038841  2235 net.cpp:53] Initializing net from parameters: 
name: "VGG_ILSVRC_19_layers"
state {
  phase: TRAIN
  level: 0
  stage: ""
}
layer {
  name: "data"
  type: "Data"
  top: "data"
  top: "label"
  include {
    phase: TRAIN
  }
  transform_param {
    mirror: true
    crop_size: 224
    mean_file: "/home/abc-5/Desktop/DOP17_SK_SM/Run3_15_3/LFW_mean_15_3.binaryproto"
  }
  data_param {
    source: "/home/abc-5/Desktop/DOP17_SK_SM/Run3_15_3/LFW_train_lmdb_15_3"
    batch_size: 5
    backend: LMDB
  }
}
layer {
  name: "conv1_1"
  type: "Convolution"
  bottom: "data"
  top: "conv1_1"
  param {
    lr_mult: 1
    decay_mult: 1
  }
  param {
    lr_mult: 2
    decay_mult: 0
  }
  convolution_param {
    num_output: 64
    pad: 1
    kernel_size: 3
    stride: 1
    weight_filler {
      type: "msra"
      variance_norm: AVERAGE
    }
    bias_filler {
      type: "constant"
      value: 0
    }
  }
}
layer {
  name: "ReLU1_1"
  type: "ReLU"
  bottom: "conv1_1"
  top: "conv1_1"
}
layer {
  name: "conv1_2"
  type: "Convolution"
  bottom: "conv1_1"
  top: "conv1_2"
  param {
    lr_mult: 1
    decay_mult: 1
  }
  param {
    lr_mult: 2
    decay_mult: 0
  }
  convolution_param {
    num_output: 64
    pad: 1
    kernel_size: 3
    stride: 1
    weight_filler {
      type: "msra"
      variance_norm: AVERAGE
    }
    bias_filler {
      type: "constant"
      value: 0
    }
  }
}
layer {
  name: "ReLU1_2"
  type: "ReLU"
  bottom: "conv1_2"
  top: "conv1_2"
}
layer {
  name: "pool1"
  type: "Pooling"
  bottom: "conv1_2"
  top: "pool1"
  pooling_param {
    pool: MAX
    kernel_size: 2
    stride: 2
  }
}
layer {
  name: "conv2_1"
  type: "Convolution"
  bottom: "pool1"
  top: "conv2_1"
  param {
    lr_mult: 1
    decay_mult: 1
  }
  param {
    lr_mult: 2
    decay_mult: 0
  }
  convolution_param {
    num_output: 128
    pad: 1
    kernel_size: 3
    stride: 1
    weight_filler {
      type: "msra"
      variance_norm: AVERAGE
    }
    bias_filler {
      type: "constant"
      value: 0
    }
  }
}
layer {
  name: "ReLU2_1"
  type: "ReLU"
  bottom: "conv2_1"
  top: "conv2_1"
}
layer {
  name: "conv2_2"
  type: "Convolution"
  bottom: "conv2_1"
  top: "conv2_2"
  param {
    lr_mult: 1
    decay_mult: 1
  }
  param {
    lr_mult: 2
    decay_mult: 0
  }
  convolution_param {
    num_output: 128
    pad: 1
    kernel_size: 3
    stride: 1
    weight_filler {
      type: "msra"
      variance_norm: AVERAGE
    }
    bias_filler {
      type: "constant"
      value: 0
    }
  }
}
layer {
  name: "ReLU2_2"
  type: "ReLU"
  bottom: "conv2_2"
  top: "conv2_2"
}
layer {
  name: "pool2"
  type: "Pooling"
  bottom: "conv2_2"
  top: "pool2"
  pooling_param {
    pool: MAX
    kernel_size: 2
    stride: 2
  }
}
layer {
  name: "conv3_1"
  type: "Convolution"
  bottom: "pool2"
  top: "conv3_1"
  param {
    lr_mult: 1
    decay_mult: 1
  }
  param {
    lr_mult: 2
    decay_mult: 0
  }
  convolution_param {
    num_output: 256
    pad: 1
    kernel_size: 3
    stride: 1
    weight_filler {
      type: "msra"
      variance_norm: AVERAGE
    }
    bias_filler {
      type: "constant"
      value: 0
    }
  }
}
layer {
  name: "ReLU3_1"
  type: "ReLU"
  bottom: "conv3_1"
  top: "conv3_1"
}
layer {
  name: "conv3_2"
  type: "Convolution"
  bottom: "conv3_1"
  top: "conv3_2"
  param {
    lr_mult: 1
    decay_mult: 1
  }
  param {
    lr_mult: 2
    decay_mult: 0
  }
  convolution_param {
    num_output: 256
    pad: 1
    kernel_size: 3
    stride: 1
    weight_filler {
      type: "msra"
      variance_norm: AVERAGE
    }
    bias_filler {
      type: "constant"
      value: 0
    }
  }
}
layer {
  name: "ReLU3_2"
  type: "ReLU"
  bottom: "conv3_2"
  top: "conv3_2"
}
layer {
  name: "conv3_3"
  type: "Convolution"
  bottom: "conv3_2"
  top: "conv3_3"
  param {
    lr_mult: 1
    decay_mult: 1
  }
  param {
    lr_mult: 2
    decay_mult: 0
  }
  convolution_param {
    num_output: 256
    pad: 1
    kernel_size: 3
    stride: 1
    weight_filler {
      type: "msra"
      variance_norm: AVERAGE
    }
    bias_filler {
      type: "constant"
      value: 0
    }
  }
}
layer {
  name: "ReLU3_3"
  type: "ReLU"
  bottom: "conv3_3"
  top: "conv3_3"
}
layer {
  name: "conv3_4"
  type: "Convolution"
  bottom: "conv3_3"
  top: "conv3_4"
  param {
    lr_mult: 1
    decay_mult: 1
  }
  param {
    lr_mult: 2
    decay_mult: 0
  }
  convolution_param {
    num_output: 256
    pad: 1
    kernel_size: 3
    stride: 1
    weight_filler {
      type: "msra"
      variance_norm: AVERAGE
    }
    bias_filler {
      type: "constant"
      value: 0
    }
  }
}
layer {
  name: "ReLU3_4"
  type: "ReLU"
  bottom: "conv3_4"
  top: "conv3_4"
}
layer {
  name: "pool3"
  type: "Pooling"
  bottom: "conv3_4"
  top: "pool3"
  pooling_param {
    pool: MAX
    kernel_size: 2
    stride: 2
  }
}
layer {
  name: "conv4_1"
  type: "Convolution"
  bottom: "pool3"
  top: "conv4_1"
  param {
    lr_mult: 1
    decay_mult: 1
  }
  param {
    lr_mult: 2
    decay_mult: 0
  }
  convolution_param {
    num_output: 512
    pad: 1
    kernel_size: 3
    stride: 1
    weight_filler {
      type: "msra"
      variance_norm: AVERAGE
    }
    bias_filler {
      type: "constant"
      value: 0
    }
  }
}
layer {
  name: "ReLU4_1"
  type: "ReLU"
  bottom: "conv4_1"
  top: "conv4_1"
}
layer {
  name: "conv4_2"
  type: "Convolution"
  bottom: "conv4_1"
  top: "conv4_2"
  param {
    lr_mult: 1
    decay_mult: 1
  }
  param {
    lr_mult: 2
    decay_mult: 0
  }
  convolution_param {
    num_output: 512
    pad: 1
    kernel_size: 3
    stride: 1
    weight_filler {
      type: "msra"
      variance_norm: AVERAGE
    }
    bias_filler {
      type: "constant"
      value: 0
    }
  }
}
layer {
  name: "ReLU4_2"
  type: "ReLU"
  bottom: "conv4_2"
  top: "conv4_2"
}
layer {
  name: "conv4_3"
  type: "Convolution"
  bottom: "conv4_2"
  top: "conv4_3"
  param {
    lr_mult: 1
    decay_mult: 1
  }
  param {
    lr_mult: 2
    decay_mult: 0
  }
  convolution_param {
    num_output: 512
    pad: 1
    kernel_size: 3
    stride: 1
    weight_filler {
      type: "msra"
      variance_norm: AVERAGE
    }
    bias_filler {
      type: "constant"
      value: 0
    }
  }
}
layer {
  name: "ReLU4_3"
  type: "ReLU"
  bottom: "conv4_3"
  top: "conv4_3"
}
layer {
  name: "conv4_4"
  type: "Convolution"
  bottom: "conv4_3"
  top: "conv4_4"
  param {
    lr_mult: 1
    decay_mult: 1
  }
  param {
    lr_mult: 2
    decay_mult: 0
  }
  convolution_param {
    num_output: 512
    pad: 1
    kernel_size: 3
    stride: 1
    weight_filler {
      type: "msra"
      variance_norm: AVERAGE
    }
    bias_filler {
      type: "constant"
      value: 0
    }
  }
}
layer {
  name: "ReLU4_4"
  type: "ReLU"
  bottom: "conv4_4"
  top: "conv4_4"
}
layer {
  name: "pool4"
  type: "Pooling"
  bottom: "conv4_4"
  top: "pool4"
  pooling_param {
    pool: MAX
    kernel_size: 2
    stride: 2
  }
}
layer {
  name: "conv5_1"
  type: "Convolution"
  bottom: "pool4"
  top: "conv5_1"
  param {
    lr_mult: 1
    decay_mult: 1
  }
  param {
    lr_mult: 2
    decay_mult: 0
  }
  convolution_param {
    num_output: 512
    pad: 1
    kernel_size: 3
    stride: 1
    weight_filler {
      type: "msra"
      variance_norm: AVERAGE
    }
    bias_filler {
      type: "constant"
      value: 0
    }
  }
}
layer {
  name: "ReLU5_1"
  type: "ReLU"
  bottom: "conv5_1"
  top: "conv5_1"
}
layer {
  name: "conv5_2"
  type: "Convolution"
  bottom: "conv5_1"
  top: "conv5_2"
  param {
    lr_mult: 1
    decay_mult: 1
  }
  param {
    lr_mult: 2
    decay_mult: 0
  }
  convolution_param {
    num_output: 512
    pad: 1
    kernel_size: 3
    stride: 1
    weight_filler {
      type: "msra"
      variance_norm: AVERAGE
    }
    bias_filler {
      type: "constant"
      value: 0
    }
  }
}
layer {
  name: "ReLU5_2"
  type: "ReLU"
  bottom: "conv5_2"
  top: "conv5_2"
}
layer {
  name: "conv5_3"
  type: "Convolution"
  bottom: "conv5_2"
  top: "conv5_3"
  param {
    lr_mult: 1
    decay_mult: 1
  }
  param {
    lr_mult: 2
    decay_mult: 0
  }
  convolution_param {
    num_output: 512
    pad: 1
    kernel_size: 3
    stride: 1
    weight_filler {
      type: "msra"
      variance_norm: AVERAGE
    }
    bias_filler {
      type: "constant"
      value: 0
    }
  }
}
layer {
  name: "ReLU5_3"
  type: "ReLU"
  bottom: "conv5_3"
  top: "conv5_3"
}
layer {
  name: "conv5_4"
  type: "Convolution"
  bottom: "conv5_3"
  top: "conv5_4"
  param {
    lr_mult: 1
    decay_mult: 1
  }
  param {
    lr_mult: 2
    decay_mult: 0
  }
  convolution_param {
    num_output: 512
    pad: 1
    kernel_size: 3
    stride: 1
    weight_filler {
      type: "msra"
      variance_norm: AVERAGE
    }
    bias_filler {
      type: "constant"
      value: 0
    }
  }
}
layer {
  name: "ReLU5_4"
  type: "ReLU"
  bottom: "conv5_4"
  top: "conv5_4"
}
layer {
  name: "pool5"
  type: "Pooling"
  bottom: "conv5_4"
  top: "pool5"
  pooling_param {
    pool: MAX
    kernel_size: 2
    stride: 2
  }
}
layer {
  name: "fc6"
  type: "InnerProduct"
  bottom: "pool5"
  top: "fc6"
  inner_product_param {
    num_output: 4096
  }
}
layer {
  name: "ReLU6"
  type: "ReLU"
  bottom: "fc6"
  top: "fc6"
}
layer {
  name: "drop6"
  type: "Dropout"
  bottom: "fc6"
  top: "fc6"
  dropout_param {
    dropout_ratio: 0.5
  }
}
layer {
  name: "fc7"
  type: "InnerProduct"
  bottom: "fc6"
  top: "fc7"
  inner_product_param {
    num_output: 4096
  }
}
layer {
  name: "ReLU7"
  type: "ReLU"
  bottom: "fc7"
  top: "fc7"
}
layer {
  name: "drop7"
  type: "Dropout"
  bottom: "fc7"
  top: "fc7"
  dropout_param {
    dropout_ratio: 0.5
  }
}
layer {
  name: "fcLFWoverYTF8"
  type: "InnerProduct"
  bottom: "fc7"
  top: "fcLFWoverYTF8"
  inner_product_param {
    num_output: 5749
  }
}
layer {
  name: "accuracyLFWoverYTF"
  type: "Accuracy"
  bottom: "fcLFWoverYTF8"
  bottom: "label"
  top: "accuracyLFWoverYTF"
  include {
    phase: TEST
  }
  include {
    phase: TRAIN
  }
}
layer {
  name: "accuracyLFWoverYTF"
  type: "SoftmaxWithLoss"
  bottom: "fcLFWoverYTF8"
  bottom: "label"
  top: "lossYTF"
}
I0426 18:37:43.039410  2235 layer_factory.hpp:77] Creating layer data
I0426 18:37:43.096863  2235 db_lmdb.cpp:35] Opened lmdb /home/abc-5/Desktop/DOP17_SK_SM/Run3_15_3/LFW_train_lmdb_15_3
I0426 18:37:43.110143  2235 net.cpp:86] Creating Layer data
I0426 18:37:43.110241  2235 net.cpp:382] data -> data
I0426 18:37:43.110306  2235 net.cpp:382] data -> label
I0426 18:37:43.110365  2235 data_transformer.cpp:25] Loading mean file from: /home/abc-5/Desktop/DOP17_SK_SM/Run3_15_3/LFW_mean_15_3.binaryproto
I0426 18:37:43.156340  2235 data_layer.cpp:45] output data size: 5,3,224,224
I0426 18:37:43.171058  2235 net.cpp:124] Setting up data
I0426 18:37:43.171135  2235 net.cpp:131] Top shape: 5 3 224 224 (752640)
I0426 18:37:43.171155  2235 net.cpp:131] Top shape: 5 (5)
I0426 18:37:43.171169  2235 net.cpp:139] Memory required for data: 3010580
I0426 18:37:43.171231  2235 layer_factory.hpp:77] Creating layer label_data_1_split
I0426 18:37:43.171262  2235 net.cpp:86] Creating Layer label_data_1_split
I0426 18:37:43.171279  2235 net.cpp:408] label_data_1_split <- label
I0426 18:37:43.171315  2235 net.cpp:382] label_data_1_split -> label_data_1_split_0
I0426 18:37:43.171381  2235 net.cpp:382] label_data_1_split -> label_data_1_split_1
I0426 18:37:43.171501  2235 net.cpp:124] Setting up label_data_1_split
I0426 18:37:43.171522  2235 net.cpp:131] Top shape: 5 (5)
I0426 18:37:43.171540  2235 net.cpp:131] Top shape: 5 (5)
I0426 18:37:43.171550  2235 net.cpp:139] Memory required for data: 3010620
I0426 18:37:43.171562  2235 layer_factory.hpp:77] Creating layer conv1_1
I0426 18:37:43.171602  2235 net.cpp:86] Creating Layer conv1_1
I0426 18:37:43.171618  2235 net.cpp:408] conv1_1 <- data
I0426 18:37:43.171639  2235 net.cpp:382] conv1_1 -> conv1_1
I0426 18:37:47.589890  2235 net.cpp:124] Setting up conv1_1
I0426 18:37:47.589946  2235 net.cpp:131] Top shape: 5 64 224 224 (16056320)
I0426 18:37:47.589960  2235 net.cpp:139] Memory required for data: 67235900
I0426 18:37:47.590018  2235 layer_factory.hpp:77] Creating layer ReLU1_1
I0426 18:37:47.590051  2235 net.cpp:86] Creating Layer ReLU1_1
I0426 18:37:47.590070  2235 net.cpp:408] ReLU1_1 <- conv1_1
I0426 18:37:47.590085  2235 net.cpp:369] ReLU1_1 -> conv1_1 (in-place)
I0426 18:37:47.590386  2235 net.cpp:124] Setting up ReLU1_1
I0426 18:37:47.590406  2235 net.cpp:131] Top shape: 5 64 224 224 (16056320)
I0426 18:37:47.590414  2235 net.cpp:139] Memory required for data: 131461180
I0426 18:37:47.590420  2235 layer_factory.hpp:77] Creating layer conv1_2
I0426 18:37:47.590441  2235 net.cpp:86] Creating Layer conv1_2
I0426 18:37:47.590450  2235 net.cpp:408] conv1_2 <- conv1_1
I0426 18:37:47.590462  2235 net.cpp:382] conv1_2 -> conv1_2
I0426 18:37:47.593351  2235 net.cpp:124] Setting up conv1_2
I0426 18:37:47.593376  2235 net.cpp:131] Top shape: 5 64 224 224 (16056320)
I0426 18:37:47.593384  2235 net.cpp:139] Memory required for data: 195686460
I0426 18:37:47.593399  2235 layer_factory.hpp:77] Creating layer ReLU1_2
I0426 18:37:47.593412  2235 net.cpp:86] Creating Layer ReLU1_2
I0426 18:37:47.593421  2235 net.cpp:408] ReLU1_2 <- conv1_2
I0426 18:37:47.593430  2235 net.cpp:369] ReLU1_2 -> conv1_2 (in-place)
I0426 18:37:47.594058  2235 net.cpp:124] Setting up ReLU1_2
I0426 18:37:47.594080  2235 net.cpp:131] Top shape: 5 64 224 224 (16056320)
I0426 18:37:47.594089  2235 net.cpp:139] Memory required for data: 259911740
I0426 18:37:47.594095  2235 layer_factory.hpp:77] Creating layer pool1
I0426 18:37:47.594108  2235 net.cpp:86] Creating Layer pool1
I0426 18:37:47.594116  2235 net.cpp:408] pool1 <- conv1_2
I0426 18:37:47.594127  2235 net.cpp:382] pool1 -> pool1
I0426 18:37:47.594208  2235 net.cpp:124] Setting up pool1
I0426 18:37:47.594220  2235 net.cpp:131] Top shape: 5 64 112 112 (4014080)
I0426 18:37:47.594226  2235 net.cpp:139] Memory required for data: 275968060
I0426 18:37:47.594234  2235 layer_factory.hpp:77] Creating layer conv2_1
I0426 18:37:47.594250  2235 net.cpp:86] Creating Layer conv2_1
I0426 18:37:47.594257  2235 net.cpp:408] conv2_1 <- pool1
I0426 18:37:47.594270  2235 net.cpp:382] conv2_1 -> conv2_1
I0426 18:37:47.597730  2235 net.cpp:124] Setting up conv2_1
I0426 18:37:47.597751  2235 net.cpp:131] Top shape: 5 128 112 112 (8028160)
I0426 18:37:47.597759  2235 net.cpp:139] Memory required for data: 308080700
I0426 18:37:47.597771  2235 layer_factory.hpp:77] Creating layer ReLU2_1
I0426 18:37:47.597781  2235 net.cpp:86] Creating Layer ReLU2_1
I0426 18:37:47.597787  2235 net.cpp:408] ReLU2_1 <- conv2_1
I0426 18:37:47.597797  2235 net.cpp:369] ReLU2_1 -> conv2_1 (in-place)
I0426 18:37:47.598300  2235 net.cpp:124] Setting up ReLU2_1
I0426 18:37:47.598318  2235 net.cpp:131] Top shape: 5 128 112 112 (8028160)
I0426 18:37:47.598325  2235 net.cpp:139] Memory required for data: 340193340
I0426 18:37:47.598330  2235 layer_factory.hpp:77] Creating layer conv2_2
I0426 18:37:47.598343  2235 net.cpp:86] Creating Layer conv2_2
I0426 18:37:47.598350  2235 net.cpp:408] conv2_2 <- conv2_1
I0426 18:37:47.598358  2235 net.cpp:382] conv2_2 -> conv2_2
I0426 18:37:47.618592  2235 net.cpp:124] Setting up conv2_2
I0426 18:37:47.618638  2235 net.cpp:131] Top shape: 5 128 112 112 (8028160)
I0426 18:37:47.618664  2235 net.cpp:139] Memory required for data: 372305980
I0426 18:37:47.618705  2235 layer_factory.hpp:77] Creating layer ReLU2_2
I0426 18:37:47.618731  2235 net.cpp:86] Creating Layer ReLU2_2
I0426 18:37:47.618746  2235 net.cpp:408] ReLU2_2 <- conv2_2
I0426 18:37:47.618767  2235 net.cpp:369] ReLU2_2 -> conv2_2 (in-place)
I0426 18:37:47.619280  2235 net.cpp:124] Setting up ReLU2_2
I0426 18:37:47.619312  2235 net.cpp:131] Top shape: 5 128 112 112 (8028160)
I0426 18:37:47.619325  2235 net.cpp:139] Memory required for data: 404418620
I0426 18:37:47.619338  2235 layer_factory.hpp:77] Creating layer pool2
I0426 18:37:47.619357  2235 net.cpp:86] Creating Layer pool2
I0426 18:37:47.619370  2235 net.cpp:408] pool2 <- conv2_2
I0426 18:37:47.619395  2235 net.cpp:382] pool2 -> pool2
I0426 18:37:47.619527  2235 net.cpp:124] Setting up pool2
I0426 18:37:47.619554  2235 net.cpp:131] Top shape: 5 128 56 56 (2007040)
I0426 18:37:47.619565  2235 net.cpp:139] Memory required for data: 412446780
I0426 18:37:47.619580  2235 layer_factory.hpp:77] Creating layer conv3_1
I0426 18:37:47.619608  2235 net.cpp:86] Creating Layer conv3_1
I0426 18:37:47.619623  2235 net.cpp:408] conv3_1 <- pool2
I0426 18:37:47.619644  2235 net.cpp:382] conv3_1 -> conv3_1
I0426 18:37:47.632833  2235 net.cpp:124] Setting up conv3_1
I0426 18:37:47.632863  2235 net.cpp:131] Top shape: 5 256 56 56 (4014080)
I0426 18:37:47.632871  2235 net.cpp:139] Memory required for data: 428503100
I0426 18:37:47.632890  2235 layer_factory.hpp:77] Creating layer ReLU3_1
I0426 18:37:47.632905  2235 net.cpp:86] Creating Layer ReLU3_1
I0426 18:37:47.632912  2235 net.cpp:408] ReLU3_1 <- conv3_1
I0426 18:37:47.632930  2235 net.cpp:369] ReLU3_1 -> conv3_1 (in-place)
I0426 18:37:47.633713  2235 net.cpp:124] Setting up ReLU3_1
I0426 18:37:47.633740  2235 net.cpp:131] Top shape: 5 256 56 56 (4014080)
I0426 18:37:47.633750  2235 net.cpp:139] Memory required for data: 444559420
I0426 18:37:47.633759  2235 layer_factory.hpp:77] Creating layer conv3_2
I0426 18:37:47.633779  2235 net.cpp:86] Creating Layer conv3_2
I0426 18:37:47.633787  2235 net.cpp:408] conv3_2 <- conv3_1
I0426 18:37:47.633805  2235 net.cpp:382] conv3_2 -> conv3_2
I0426 18:37:47.645351  2235 net.cpp:124] Setting up conv3_2
I0426 18:37:47.645372  2235 net.cpp:131] Top shape: 5 256 56 56 (4014080)
I0426 18:37:47.645378  2235 net.cpp:139] Memory required for data: 460615740
I0426 18:37:47.645387  2235 layer_factory.hpp:77] Creating layer ReLU3_2
I0426 18:37:47.645395  2235 net.cpp:86] Creating Layer ReLU3_2
I0426 18:37:47.645401  2235 net.cpp:408] ReLU3_2 <- conv3_2
I0426 18:37:47.645408  2235 net.cpp:369] ReLU3_2 -> conv3_2 (in-place)
I0426 18:37:47.645900  2235 net.cpp:124] Setting up ReLU3_2
I0426 18:37:47.645916  2235 net.cpp:131] Top shape: 5 256 56 56 (4014080)
I0426 18:37:47.645921  2235 net.cpp:139] Memory required for data: 476672060
I0426 18:37:47.645926  2235 layer_factory.hpp:77] Creating layer conv3_3
I0426 18:37:47.645942  2235 net.cpp:86] Creating Layer conv3_3
I0426 18:37:47.645948  2235 net.cpp:408] conv3_3 <- conv3_2
I0426 18:37:47.645957  2235 net.cpp:382] conv3_3 -> conv3_3
I0426 18:37:47.654006  2235 net.cpp:124] Setting up conv3_3
I0426 18:37:47.654021  2235 net.cpp:131] Top shape: 5 256 56 56 (4014080)
I0426 18:37:47.654026  2235 net.cpp:139] Memory required for data: 492728380
I0426 18:37:47.654031  2235 layer_factory.hpp:77] Creating layer ReLU3_3
I0426 18:37:47.654037  2235 net.cpp:86] Creating Layer ReLU3_3
I0426 18:37:47.654040  2235 net.cpp:408] ReLU3_3 <- conv3_3
I0426 18:37:47.654047  2235 net.cpp:369] ReLU3_3 -> conv3_3 (in-place)
I0426 18:37:47.654211  2235 net.cpp:124] Setting up ReLU3_3
I0426 18:37:47.654219  2235 net.cpp:131] Top shape: 5 256 56 56 (4014080)
I0426 18:37:47.654223  2235 net.cpp:139] Memory required for data: 508784700
I0426 18:37:47.654227  2235 layer_factory.hpp:77] Creating layer conv3_4
I0426 18:37:47.654237  2235 net.cpp:86] Creating Layer conv3_4
I0426 18:37:47.654240  2235 net.cpp:408] conv3_4 <- conv3_3
I0426 18:37:47.654247  2235 net.cpp:382] conv3_4 -> conv3_4
I0426 18:37:47.660961  2235 net.cpp:124] Setting up conv3_4
I0426 18:37:47.660981  2235 net.cpp:131] Top shape: 5 256 56 56 (4014080)
I0426 18:37:47.660984  2235 net.cpp:139] Memory required for data: 524841020
I0426 18:37:47.660990  2235 layer_factory.hpp:77] Creating layer ReLU3_4
I0426 18:37:47.660997  2235 net.cpp:86] Creating Layer ReLU3_4
I0426 18:37:47.661000  2235 net.cpp:408] ReLU3_4 <- conv3_4
I0426 18:37:47.661005  2235 net.cpp:369] ReLU3_4 -> conv3_4 (in-place)
I0426 18:37:47.661329  2235 net.cpp:124] Setting up ReLU3_4
I0426 18:37:47.661339  2235 net.cpp:131] Top shape: 5 256 56 56 (4014080)
I0426 18:37:47.661344  2235 net.cpp:139] Memory required for data: 540897340
I0426 18:37:47.661346  2235 layer_factory.hpp:77] Creating layer pool3
I0426 18:37:47.661352  2235 net.cpp:86] Creating Layer pool3
I0426 18:37:47.661356  2235 net.cpp:408] pool3 <- conv3_4
I0426 18:37:47.661361  2235 net.cpp:382] pool3 -> pool3
I0426 18:37:47.661397  2235 net.cpp:124] Setting up pool3
I0426 18:37:47.661402  2235 net.cpp:131] Top shape: 5 256 28 28 (1003520)
I0426 18:37:47.661406  2235 net.cpp:139] Memory required for data: 544911420
I0426 18:37:47.661409  2235 layer_factory.hpp:77] Creating layer conv4_1
I0426 18:37:47.661417  2235 net.cpp:86] Creating Layer conv4_1
I0426 18:37:47.661420  2235 net.cpp:408] conv4_1 <- pool3
I0426 18:37:47.661427  2235 net.cpp:382] conv4_1 -> conv4_1
I0426 18:37:47.671639  2235 net.cpp:124] Setting up conv4_1
I0426 18:37:47.671663  2235 net.cpp:131] Top shape: 5 512 28 28 (2007040)
I0426 18:37:47.671665  2235 net.cpp:139] Memory required for data: 552939580
I0426 18:37:47.671675  2235 layer_factory.hpp:77] Creating layer ReLU4_1
I0426 18:37:47.671682  2235 net.cpp:86] Creating Layer ReLU4_1
I0426 18:37:47.671685  2235 net.cpp:408] ReLU4_1 <- conv4_1
I0426 18:37:47.671690  2235 net.cpp:369] ReLU4_1 -> conv4_1 (in-place)
I0426 18:37:47.671988  2235 net.cpp:124] Setting up ReLU4_1
I0426 18:37:47.671996  2235 net.cpp:131] Top shape: 5 512 28 28 (2007040)
I0426 18:37:47.671999  2235 net.cpp:139] Memory required for data: 560967740
I0426 18:37:47.672003  2235 layer_factory.hpp:77] Creating layer conv4_2
I0426 18:37:47.672009  2235 net.cpp:86] Creating Layer conv4_2
I0426 18:37:47.672013  2235 net.cpp:408] conv4_2 <- conv4_1
I0426 18:37:47.672019  2235 net.cpp:382] conv4_2 -> conv4_2
I0426 18:37:47.690865  2235 net.cpp:124] Setting up conv4_2
I0426 18:37:47.690894  2235 net.cpp:131] Top shape: 5 512 28 28 (2007040)
I0426 18:37:47.690899  2235 net.cpp:139] Memory required for data: 568995900
I0426 18:37:47.690907  2235 layer_factory.hpp:77] Creating layer ReLU4_2
I0426 18:37:47.690913  2235 net.cpp:86] Creating Layer ReLU4_2
I0426 18:37:47.690917  2235 net.cpp:408] ReLU4_2 <- conv4_2
I0426 18:37:47.690922  2235 net.cpp:369] ReLU4_2 -> conv4_2 (in-place)
I0426 18:37:47.691045  2235 net.cpp:124] Setting up ReLU4_2
I0426 18:37:47.691051  2235 net.cpp:131] Top shape: 5 512 28 28 (2007040)
I0426 18:37:47.691054  2235 net.cpp:139] Memory required for data: 577024060
I0426 18:37:47.691057  2235 layer_factory.hpp:77] Creating layer conv4_3
I0426 18:37:47.691066  2235 net.cpp:86] Creating Layer conv4_3
I0426 18:37:47.691068  2235 net.cpp:408] conv4_3 <- conv4_2
I0426 18:37:47.691074  2235 net.cpp:382] conv4_3 -> conv4_3
I0426 18:37:47.709872  2235 net.cpp:124] Setting up conv4_3
I0426 18:37:47.709898  2235 net.cpp:131] Top shape: 5 512 28 28 (2007040)
I0426 18:37:47.709903  2235 net.cpp:139] Memory required for data: 585052220
I0426 18:37:47.709909  2235 layer_factory.hpp:77] Creating layer ReLU4_3
I0426 18:37:47.709914  2235 net.cpp:86] Creating Layer ReLU4_3
I0426 18:37:47.709918  2235 net.cpp:408] ReLU4_3 <- conv4_3
I0426 18:37:47.709923  2235 net.cpp:369] ReLU4_3 -> conv4_3 (in-place)
I0426 18:37:47.710216  2235 net.cpp:124] Setting up ReLU4_3
I0426 18:37:47.710225  2235 net.cpp:131] Top shape: 5 512 28 28 (2007040)
I0426 18:37:47.710228  2235 net.cpp:139] Memory required for data: 593080380
I0426 18:37:47.710232  2235 layer_factory.hpp:77] Creating layer conv4_4
I0426 18:37:47.710239  2235 net.cpp:86] Creating Layer conv4_4
I0426 18:37:47.710247  2235 net.cpp:408] conv4_4 <- conv4_3
I0426 18:37:47.710260  2235 net.cpp:382] conv4_4 -> conv4_4
I0426 18:37:47.728905  2235 net.cpp:124] Setting up conv4_4
I0426 18:37:47.728932  2235 net.cpp:131] Top shape: 5 512 28 28 (2007040)
I0426 18:37:47.728935  2235 net.cpp:139] Memory required for data: 601108540
I0426 18:37:47.728943  2235 layer_factory.hpp:77] Creating layer ReLU4_4
I0426 18:37:47.728950  2235 net.cpp:86] Creating Layer ReLU4_4
I0426 18:37:47.728952  2235 net.cpp:408] ReLU4_4 <- conv4_4
I0426 18:37:47.728958  2235 net.cpp:369] ReLU4_4 -> conv4_4 (in-place)
I0426 18:37:47.729259  2235 net.cpp:124] Setting up ReLU4_4
I0426 18:37:47.729269  2235 net.cpp:131] Top shape: 5 512 28 28 (2007040)
I0426 18:37:47.729272  2235 net.cpp:139] Memory required for data: 609136700
I0426 18:37:47.729275  2235 layer_factory.hpp:77] Creating layer pool4
I0426 18:37:47.729280  2235 net.cpp:86] Creating Layer pool4
I0426 18:37:47.729284  2235 net.cpp:408] pool4 <- conv4_4
I0426 18:37:47.729288  2235 net.cpp:382] pool4 -> pool4
I0426 18:37:47.729321  2235 net.cpp:124] Setting up pool4
I0426 18:37:47.729326  2235 net.cpp:131] Top shape: 5 512 14 14 (501760)
I0426 18:37:47.729329  2235 net.cpp:139] Memory required for data: 611143740
I0426 18:37:47.729332  2235 layer_factory.hpp:77] Creating layer conv5_1
I0426 18:37:47.729339  2235 net.cpp:86] Creating Layer conv5_1
I0426 18:37:47.729342  2235 net.cpp:408] conv5_1 <- pool4
I0426 18:37:47.729347  2235 net.cpp:382] conv5_1 -> conv5_1
I0426 18:37:47.748298  2235 net.cpp:124] Setting up conv5_1
I0426 18:37:47.748324  2235 net.cpp:131] Top shape: 5 512 14 14 (501760)
I0426 18:37:47.748327  2235 net.cpp:139] Memory required for data: 613150780
I0426 18:37:47.748334  2235 layer_factory.hpp:77] Creating layer ReLU5_1
I0426 18:37:47.748342  2235 net.cpp:86] Creating Layer ReLU5_1
I0426 18:37:47.748345  2235 net.cpp:408] ReLU5_1 <- conv5_1
I0426 18:37:47.748350  2235 net.cpp:369] ReLU5_1 -> conv5_1 (in-place)
I0426 18:37:47.748476  2235 net.cpp:124] Setting up ReLU5_1
I0426 18:37:47.748484  2235 net.cpp:131] Top shape: 5 512 14 14 (501760)
I0426 18:37:47.748486  2235 net.cpp:139] Memory required for data: 615157820
I0426 18:37:47.748489  2235 layer_factory.hpp:77] Creating layer conv5_2
I0426 18:37:47.748500  2235 net.cpp:86] Creating Layer conv5_2
I0426 18:37:47.748503  2235 net.cpp:408] conv5_2 <- conv5_1
I0426 18:37:47.748508  2235 net.cpp:382] conv5_2 -> conv5_2
I0426 18:37:47.767377  2235 net.cpp:124] Setting up conv5_2
I0426 18:37:47.767402  2235 net.cpp:131] Top shape: 5 512 14 14 (501760)
I0426 18:37:47.767406  2235 net.cpp:139] Memory required for data: 617164860
I0426 18:37:47.767413  2235 layer_factory.hpp:77] Creating layer ReLU5_2
I0426 18:37:47.767421  2235 net.cpp:86] Creating Layer ReLU5_2
I0426 18:37:47.767423  2235 net.cpp:408] ReLU5_2 <- conv5_2
I0426 18:37:47.767429  2235 net.cpp:369] ReLU5_2 -> conv5_2 (in-place)
I0426 18:37:47.767720  2235 net.cpp:124] Setting up ReLU5_2
I0426 18:37:47.767730  2235 net.cpp:131] Top shape: 5 512 14 14 (501760)
I0426 18:37:47.767734  2235 net.cpp:139] Memory required for data: 619171900
I0426 18:37:47.767736  2235 layer_factory.hpp:77] Creating layer conv5_3
I0426 18:37:47.767745  2235 net.cpp:86] Creating Layer conv5_3
I0426 18:37:47.767747  2235 net.cpp:408] conv5_3 <- conv5_2
I0426 18:37:47.767752  2235 net.cpp:382] conv5_3 -> conv5_3
I0426 18:37:47.786417  2235 net.cpp:124] Setting up conv5_3
I0426 18:37:47.786443  2235 net.cpp:131] Top shape: 5 512 14 14 (501760)
I0426 18:37:47.786448  2235 net.cpp:139] Memory required for data: 621178940
I0426 18:37:47.786453  2235 layer_factory.hpp:77] Creating layer ReLU5_3
I0426 18:37:47.786460  2235 net.cpp:86] Creating Layer ReLU5_3
I0426 18:37:47.786463  2235 net.cpp:408] ReLU5_3 <- conv5_3
I0426 18:37:47.786469  2235 net.cpp:369] ReLU5_3 -> conv5_3 (in-place)
I0426 18:37:47.786773  2235 net.cpp:124] Setting up ReLU5_3
I0426 18:37:47.786783  2235 net.cpp:131] Top shape: 5 512 14 14 (501760)
I0426 18:37:47.786785  2235 net.cpp:139] Memory required for data: 623185980
I0426 18:37:47.786793  2235 layer_factory.hpp:77] Creating layer conv5_4
I0426 18:37:47.786808  2235 net.cpp:86] Creating Layer conv5_4
I0426 18:37:47.786811  2235 net.cpp:408] conv5_4 <- conv5_3
I0426 18:37:47.786818  2235 net.cpp:382] conv5_4 -> conv5_4
I0426 18:37:47.805867  2235 net.cpp:124] Setting up conv5_4
I0426 18:37:47.805896  2235 net.cpp:131] Top shape: 5 512 14 14 (501760)
I0426 18:37:47.805902  2235 net.cpp:139] Memory required for data: 625193020
I0426 18:37:47.805908  2235 layer_factory.hpp:77] Creating layer ReLU5_4
I0426 18:37:47.805914  2235 net.cpp:86] Creating Layer ReLU5_4
I0426 18:37:47.805918  2235 net.cpp:408] ReLU5_4 <- conv5_4
I0426 18:37:47.805922  2235 net.cpp:369] ReLU5_4 -> conv5_4 (in-place)
I0426 18:37:47.806046  2235 net.cpp:124] Setting up ReLU5_4
I0426 18:37:47.806051  2235 net.cpp:131] Top shape: 5 512 14 14 (501760)
I0426 18:37:47.806054  2235 net.cpp:139] Memory required for data: 627200060
I0426 18:37:47.806057  2235 layer_factory.hpp:77] Creating layer pool5
I0426 18:37:47.806062  2235 net.cpp:86] Creating Layer pool5
I0426 18:37:47.806066  2235 net.cpp:408] pool5 <- conv5_4
I0426 18:37:47.806071  2235 net.cpp:382] pool5 -> pool5
I0426 18:37:47.806108  2235 net.cpp:124] Setting up pool5
I0426 18:37:47.806113  2235 net.cpp:131] Top shape: 5 512 7 7 (125440)
I0426 18:37:47.806116  2235 net.cpp:139] Memory required for data: 627701820
I0426 18:37:47.806118  2235 layer_factory.hpp:77] Creating layer fc6
I0426 18:37:47.806124  2235 net.cpp:86] Creating Layer fc6
I0426 18:37:47.806128  2235 net.cpp:408] fc6 <- pool5
I0426 18:37:47.806131  2235 net.cpp:382] fc6 -> fc6
I0426 18:37:47.918800  2235 net.cpp:124] Setting up fc6
I0426 18:37:47.918828  2235 net.cpp:131] Top shape: 5 4096 (20480)
I0426 18:37:47.918833  2235 net.cpp:139] Memory required for data: 627783740
I0426 18:37:47.918844  2235 layer_factory.hpp:77] Creating layer ReLU6
I0426 18:37:47.918853  2235 net.cpp:86] Creating Layer ReLU6
I0426 18:37:47.918855  2235 net.cpp:408] ReLU6 <- fc6
I0426 18:37:47.918861  2235 net.cpp:369] ReLU6 -> fc6 (in-place)
I0426 18:37:47.919253  2235 net.cpp:124] Setting up ReLU6
I0426 18:37:47.919261  2235 net.cpp:131] Top shape: 5 4096 (20480)
I0426 18:37:47.919265  2235 net.cpp:139] Memory required for data: 627865660
I0426 18:37:47.919267  2235 layer_factory.hpp:77] Creating layer drop6
I0426 18:37:47.919273  2235 net.cpp:86] Creating Layer drop6
I0426 18:37:47.919276  2235 net.cpp:408] drop6 <- fc6
I0426 18:37:47.919281  2235 net.cpp:369] drop6 -> fc6 (in-place)
I0426 18:37:47.919307  2235 net.cpp:124] Setting up drop6
I0426 18:37:47.919312  2235 net.cpp:131] Top shape: 5 4096 (20480)
I0426 18:37:47.919315  2235 net.cpp:139] Memory required for data: 627947580
I0426 18:37:47.919317  2235 layer_factory.hpp:77] Creating layer fc7
I0426 18:37:47.919322  2235 net.cpp:86] Creating Layer fc7
I0426 18:37:47.919325  2235 net.cpp:408] fc7 <- fc6
I0426 18:37:47.919329  2235 net.cpp:382] fc7 -> fc7
I0426 18:37:47.938218  2235 net.cpp:124] Setting up fc7
I0426 18:37:47.938243  2235 net.cpp:131] Top shape: 5 4096 (20480)
I0426 18:37:47.938246  2235 net.cpp:139] Memory required for data: 628029500
I0426 18:37:47.938254  2235 layer_factory.hpp:77] Creating layer ReLU7
I0426 18:37:47.938261  2235 net.cpp:86] Creating Layer ReLU7
I0426 18:37:47.938277  2235 net.cpp:408] ReLU7 <- fc7
I0426 18:37:47.938282  2235 net.cpp:369] ReLU7 -> fc7 (in-place)
I0426 18:37:47.938446  2235 net.cpp:124] Setting up ReLU7
I0426 18:37:47.938452  2235 net.cpp:131] Top shape: 5 4096 (20480)
I0426 18:37:47.938455  2235 net.cpp:139] Memory required for data: 628111420
I0426 18:37:47.938458  2235 layer_factory.hpp:77] Creating layer drop7
I0426 18:37:47.938465  2235 net.cpp:86] Creating Layer drop7
I0426 18:37:47.938468  2235 net.cpp:408] drop7 <- fc7
I0426 18:37:47.938472  2235 net.cpp:369] drop7 -> fc7 (in-place)
I0426 18:37:47.938495  2235 net.cpp:124] Setting up drop7
I0426 18:37:47.938499  2235 net.cpp:131] Top shape: 5 4096 (20480)
I0426 18:37:47.938503  2235 net.cpp:139] Memory required for data: 628193340
I0426 18:37:47.938509  2235 layer_factory.hpp:77] Creating layer fcLFWoverYTF8
I0426 18:37:47.938519  2235 net.cpp:86] Creating Layer fcLFWoverYTF8
I0426 18:37:47.938524  2235 net.cpp:408] fcLFWoverYTF8 <- fc7
I0426 18:37:47.938529  2235 net.cpp:382] fcLFWoverYTF8 -> fcLFWoverYTF8
I0426 18:37:47.964290  2235 net.cpp:124] Setting up fcLFWoverYTF8
I0426 18:37:47.964314  2235 net.cpp:131] Top shape: 5 5749 (28745)
I0426 18:37:47.964318  2235 net.cpp:139] Memory required for data: 628308320
I0426 18:37:47.964325  2235 layer_factory.hpp:77] Creating layer fcLFWoverYTF8_fcLFWoverYTF8_0_split
I0426 18:37:47.964332  2235 net.cpp:86] Creating Layer fcLFWoverYTF8_fcLFWoverYTF8_0_split
I0426 18:37:47.964336  2235 net.cpp:408] fcLFWoverYTF8_fcLFWoverYTF8_0_split <- fcLFWoverYTF8
I0426 18:37:47.964342  2235 net.cpp:382] fcLFWoverYTF8_fcLFWoverYTF8_0_split -> fcLFWoverYTF8_fcLFWoverYTF8_0_split_0
I0426 18:37:47.964350  2235 net.cpp:382] fcLFWoverYTF8_fcLFWoverYTF8_0_split -> fcLFWoverYTF8_fcLFWoverYTF8_0_split_1
I0426 18:37:47.964382  2235 net.cpp:124] Setting up fcLFWoverYTF8_fcLFWoverYTF8_0_split
I0426 18:37:47.964387  2235 net.cpp:131] Top shape: 5 5749 (28745)
I0426 18:37:47.964391  2235 net.cpp:131] Top shape: 5 5749 (28745)
I0426 18:37:47.964393  2235 net.cpp:139] Memory required for data: 628538280
I0426 18:37:47.964396  2235 layer_factory.hpp:77] Creating layer accuracyLFWoverYTF
I0426 18:37:47.964403  2235 net.cpp:86] Creating Layer accuracyLFWoverYTF
I0426 18:37:47.964406  2235 net.cpp:408] accuracyLFWoverYTF <- fcLFWoverYTF8_fcLFWoverYTF8_0_split_0
I0426 18:37:47.964411  2235 net.cpp:408] accuracyLFWoverYTF <- label_data_1_split_0
…
I0426 18:37:47.965512  2235 net.cpp:296] The NetState phase (1) differed from the phase (0) specified by a rule in layer data
I0426 18:37:47.965711  2235 net.cpp:53] Initializing net from parameters: 
name: "VGG_ILSVRC_19_layers"
state {
  phase: TEST
}
layer {
  name: "data"
  type: "Data"
  top: "data"
  top: "label"
  include {
    phase: TEST
  }
  transform_param {
    mirror: false
    crop_size: 224
    mean_file: "/home/abc-5/Desktop/DOP17_SK_SM/Run3_15_3/LFW_mean_15_3.binaryproto"
  }
  data_param {
    source: "/home/abc-5/Desktop/DOP17_SK_SM/Run3_15_3/LFW_val_lmdb_15_3"
    batch_size: 4
    backend: LMDB
  }
}
layer {
  name: "conv1_1"
  type: "Convolution"
  bottom: "data"
  top: "conv1_1"
  param {
    lr_mult: 1
    decay_mult: 1
  }
  param {
    lr_mult: 2
    decay_mult: 0
  }
  convolution_param {
    num_output: 64
    pad: 1
    kernel_size: 3
    stride: 1
    weight_filler {
      type: "msra"
      variance_norm: AVERAGE
    }
    bias_filler {
      type: "constant"
      value: 0
    }
  }
}
layer {
  name: "ReLU1_1"
  type: "ReLU"
  bottom: "conv1_1"
  top: "conv1_1"
}
layer {
  name: "conv1_2"
  type: "Convolution"
  bottom: "conv1_1"
  top: "conv1_2"
  param {
    lr_mult: 1
    decay_mult: 1
  }
  param {
    lr_mult: 2
    decay_mult: 0
  }
  convolution_param {
    num_output: 64
    pad: 1
    kernel_size: 3
    stride: 1
    weight_filler {
      type: "msra"
      variance_norm: AVERAGE
    }
    bias_filler {
      type: "constant"
      value: 0
    }
  }
}
layer {
  name: "ReLU1_2"
  type: "ReLU"
  bottom: "conv1_2"
  top: "conv1_2"
}
layer {
  name: "pool1"
  type: "Pooling"
  bottom: "conv1_2"
  top: "pool1"
  pooling_param {
    pool: MAX
    kernel_size: 2
    stride: 2
  }
}
layer {
  name: "conv2_1"
  type: "Convolution"
  bottom: "pool1"
  top: "conv2_1"
  param {
    lr_mult: 1
    decay_mult: 1
  }
  param {
    lr_mult: 2
    decay_mult: 0
  }
  convolution_param {
    num_output: 128
    pad: 1
    kernel_size: 3
    stride: 1
    weight_filler {
      type: "msra"
      variance_norm: AVERAGE
    }
    bias_filler {
      type: "constant"
      value: 0
    }
  }
}
layer {
  name: "ReLU2_1"
  type: "ReLU"
  bottom: "conv2_1"
  top: "conv2_1"
}
layer {
  name: "conv2_2"
  type: "Convolution"
  bottom: "conv2_1"
  top: "conv2_2"
  param {
    lr_mult: 1
    decay_mult: 1
  }
  param {
    lr_mult: 2
    decay_mult: 0
  }
  convolution_param {
    num_output: 128
    pad: 1
    kernel_size: 3
    stride: 1
    weight_filler {
      type: "msra"
      variance_norm: AVERAGE
    }
    bias_filler {
      type: "constant"
      value: 0
    }
  }
}
layer {
  name: "ReLU2_2"
  type: "ReLU"
  bottom: "conv2_2"
  top: "conv2_2"
}
layer {
  name: "pool2"
  type: "Pooling"
  bottom: "conv2_2"
  top: "pool2"
  pooling_param {
    pool: MAX
    kernel_size: 2
    stride: 2
  }
}
layer {
  name: "conv3_1"
  type: "Convolution"
  bottom: "pool2"
  top: "conv3_1"
  param {
    lr_mult: 1
    decay_mult: 1
  }
  param {
    lr_mult: 2
    decay_mult: 0
  }
  convolution_param {
    num_output: 256
    pad: 1
    kernel_size: 3
    stride: 1
    weight_filler {
      type: "msra"
      variance_norm: AVERAGE
    }
    bias_filler {
      type: "constant"
      value: 0
    }
  }
}
layer {
  name: "ReLU3_1"
  type: "ReLU"
  bottom: "conv3_1"
  top: "conv3_1"
}
layer {
  name: "conv3_2"
  type: "Convolution"
  bottom: "conv3_1"
  top: "conv3_2"
  param {
    lr_mult: 1
    decay_mult: 1
  }
  param {
    lr_mult: 2
    decay_mult: 0
  }
  convolution_param {
    num_output: 256
    pad: 1
    kernel_size: 3
    stride: 1
    weight_filler {
      type: "msra"
      variance_norm: AVERAGE
    }
    bias_filler {
      type: "constant"
      value: 0
    }
  }
}
layer {
  name: "ReLU3_2"
  type: "ReLU"
  bottom: "conv3_2"
  top: "conv3_2"
}
layer {
  name: "conv3_3"
  type: "Convolution"
  bottom: "conv3_2"
  top: "conv3_3"
  param {
    lr_mult: 1
    decay_mult: 1
  }
  param {
    lr_mult: 2
    decay_mult: 0
  }
  convolution_param {
    num_output: 256
    pad: 1
    kernel_size: 3
    stride: 1
    weight_filler {
      type: "msra"
      variance_norm: AVERAGE
    }
    bias_filler {
      type: "constant"
      value: 0
    }
  }
}
layer {
  name: "ReLU3_3"
  type: "ReLU"
  bottom: "conv3_3"
  top: "conv3_3"
}
layer {
  name: "conv3_4"
  type: "Convolution"
  bottom: "conv3_3"
  top: "conv3_4"
  param {
    lr_mult: 1
    decay_mult: 1
  }
  param {
    lr_mult: 2
    decay_mult: 0
  }
  convolution_param {
    num_output: 256
    pad: 1
    kernel_size: 3
    stride: 1
    weight_filler {
      type: "msra"
      variance_norm: AVERAGE
    }
    bias_filler {
      type: "constant"
      value: 0
    }
  }
}
layer {
  name: "ReLU3_4"
  type: "ReLU"
  bottom: "conv3_4"
  top: "conv3_4"
}
layer {
  name: "pool3"
  type: "Pooling"
  bottom: "conv3_4"
  top: "pool3"
  pooling_param {
    pool: MAX
    kernel_size: 2
    stride: 2
  }
}
layer {
  name: "conv4_1"
  type: "Convolution"
  bottom: "pool3"
  top: "conv4_1"
  param {
    lr_mult: 1
    decay_mult: 1
  }
  param {
    lr_mult: 2
    decay_mult: 0
  }
  convolution_param {
    num_output: 512
    pad: 1
    kernel_size: 3
    stride: 1
    weight_filler {
      type: "msra"
      variance_norm: AVERAGE
    }
    bias_filler {
      type: "constant"
      value: 0
    }
  }
}
layer {
  name: "ReLU4_1"
  type: "ReLU"
  bottom: "conv4_1"
  top: "conv4_1"
}
layer {
  name: "conv4_2"
  type: "Convolution"
  bottom: "conv4_1"
  top: "conv4_2"
  param {
    lr_mult: 1
    decay_mult: 1
  }
  param {
    lr_mult: 2
    decay_mult: 0
  }
  convolution_param {
    num_output: 512
    pad: 1
    kernel_size: 3
    stride: 1
    weight_filler {
      type: "msra"
      variance_norm: AVERAGE
    }
    bias_filler {
      type: "constant"
      value: 0
    }
  }
}
layer {
  name: "ReLU4_2"
  type: "ReLU"
  bottom: "conv4_2"
  top: "conv4_2"
}
layer {
  name: "conv4_3"
  type: "Convolution"
  bottom: "conv4_2"
  top: "conv4_3"
  param {
    lr_mult: 1
    decay_mult: 1
  }
  param {
    lr_mult: 2
    decay_mult: 0
  }
  convolution_param {
    num_output: 512
    pad: 1
    kernel_size: 3
    stride: 1
    weight_filler {
      type: "msra"
      variance_norm: AVERAGE
    }
    bias_filler {
      type: "constant"
      value: 0
    }
  }
}
layer {
  name: "ReLU4_3"
  type: "ReLU"
  bottom: "conv4_3"
  top: "conv4_3"
}
layer {
  name: "conv4_4"
  type: "Convolution"
  bottom: "conv4_3"
  top: "conv4_4"
  param {
    lr_mult: 1
    decay_mult: 1
  }
  param {
    lr_mult: 2
    decay_mult: 0
  }
  convolution_param {
    num_output: 512
    pad: 1
    kernel_size: 3
    stride: 1
    weight_filler {
      type: "msra"
      variance_norm: AVERAGE
    }
    bias_filler {
      type: "constant"
      value: 0
    }
  }
}
layer {
  name: "ReLU4_4"
  type: "ReLU"
  bottom: "conv4_4"
  top: "conv4_4"
}
layer {
  name: "pool4"
  type: "Pooling"
  bottom: "conv4_4"
  top: "pool4"
  pooling_param {
    pool: MAX
    kernel_size: 2
    stride: 2
  }
}
layer {
  name: "conv5_1"
  type: "Convolution"
  bottom: "pool4"
  top: "conv5_1"
  param {
    lr_mult: 1
    decay_mult: 1
  }
  param {
    lr_mult: 2
    decay_mult: 0
  }
  convolution_param {
    num_output: 512
    pad: 1
    kernel_size: 3
    stride: 1
    weight_filler {
      type: "msra"
      variance_norm: AVERAGE
    }
    bias_filler {
      type: "constant"
      value: 0
    }
  }
}
layer {
  name: "ReLU5_1"
  type: "ReLU"
  bottom: "conv5_1"
  top: "conv5_1"
}
layer {
  name: "conv5_2"
  type: "Convolution"
  bottom: "conv5_1"
  top: "conv5_2"
  param {
    lr_mult: 1
    decay_mult: 1
  }
  param {
    lr_mult: 2
    decay_mult: 0
  }
  convolution_param {
    num_output: 512
    pad: 1
    kernel_size: 3
    stride: 1
    weight_filler {
      type: "msra"
      variance_norm: AVERAGE
    }
    bias_filler {
      type: "constant"
      value: 0
    }
  }
}
layer {
  name: "ReLU5_2"
  type: "ReLU"
  bottom: "conv5_2"
  top: "conv5_2"
}
layer {
  name: "conv5_3"
  type: "Convolution"
  bottom: "conv5_2"
  top: "conv5_3"
  param {
    lr_mult: 1
    decay_mult: 1
  }
  param {
    lr_mult: 2
    decay_mult: 0
  }
  convolution_param {
    num_output: 512
    pad: 1
    kernel_size: 3
    stride: 1
    weight_filler {
      type: "msra"
      variance_norm: AVERAGE
    }
    bias_filler {
      type: "constant"
      value: 0
    }
  }
}
layer {
  name: "ReLU5_3"
  type: "ReLU"
  bottom: "conv5_3"
  top: "conv5_3"
}
layer {
  name: "conv5_4"
  type: "Convolution"
  bottom: "conv5_3"
  top: "conv5_4"
  param {
    lr_mult: 1
    decay_mult: 1
  }
  param {
    lr_mult: 2
    decay_mult: 0
  }
  convolution_param {
    num_output: 512
    pad: 1
    kernel_size: 3
    stride: 1
    weight_filler {
      type: "msra"
      variance_norm: AVERAGE
    }
    bias_filler {
      type: "constant"
      value: 0
    }
  }
}
layer {
  name: "ReLU5_4"
  type: "ReLU"
  bottom: "conv5_4"
  top: "conv5_4"
}
layer {
  name: "pool5"
  type: "Pooling"
  bottom: "conv5_4"
  top: "pool5"
  pooling_param {
    pool: MAX
    kernel_size: 2
    stride: 2
  }
}
layer {
  name: "fc6"
  type: "InnerProduct"
  bottom: "pool5"
  top: "fc6"
  inner_product_param {
    num_output: 4096
  }
}
layer {
  name: "ReLU6"
  type: "ReLU"
  bottom: "fc6"
  top: "fc6"
}
layer {
  name: "drop6"
  type: "Dropout"
  bottom: "fc6"
  top: "fc6"
  dropout_param {
    dropout_ratio: 0.5
  }
}
layer {
  name: "fc7"
  type: "InnerProduct"
  bottom: "fc6"
  top: "fc7"
  inner_product_param {
    num_output: 4096
  }
}
layer {
  name: "ReLU7"
  type: "ReLU"
  bottom: "fc7"
  top: "fc7"
}
layer {
  name: "drop7"
  type: "Dropout"
  bottom: "fc7"
  top: "fc7"
  dropout_param {
    dropout_ratio: 0.5
  }
}
layer {
  name: "fcLFWoverYTF8"
  type: "InnerProduct"
  bottom: "fc7"
  top: "fcLFWoverYTF8"
  inner_product_param {
    num_output: 5749
  }
}
layer {
  name: "accuracyLFWoverYTF"
  type: "Accuracy"
  bottom: "fcLFWoverYTF8"
  bottom: "label"
  top: "accuracyLFWoverYTF"
  include {
    phase: TEST
  }
  include {
    phase: TRAIN
  }
}
layer {
  name: "accuracyLFWoverYTF"
  type: "SoftmaxWithLoss"
  bottom: "fcLFWoverYTF8"
  bottom: "label"
  top: "lossYTF"
}
I0426 18:37:47.965818  2235 layer_factory.hpp:77] Creating layer data
I0426 18:37:48.019693  2235 db_lmdb.cpp:35] Opened lmdb /home/abc-5/Desktop/DOP17_SK_SM/Run3_15_3/LFW_val_lmdb_15_3
I0426 18:37:48.079340  2235 net.cpp:86] Creating Layer data
I0426 18:37:48.079421  2235 net.cpp:382] data -> data
I0426 18:37:48.079460  2235 net.cpp:382] data -> label
I0426 18:37:48.079497  2235 data_transformer.cpp:25] Loading mean file from: /home/abc-5/Desktop/DOP17_SK_SM/Run3_15_3/LFW_mean_15_3.binaryproto
I0426 18:37:48.085410  2235 data_layer.cpp:45] output data size: 4,3,224,224
I0426 18:37:48.098747  2235 net.cpp:124] Setting up data
I0426 18:37:48.098830  2235 net.cpp:131] Top shape: 4 3 224 224 (602112)
I0426 18:37:48.098860  2235 net.cpp:131] Top shape: 4 (4)
I0426 18:37:48.098872  2235 net.cpp:139] Memory required for data: 2408464
I0426 18:37:48.098898  2235 layer_factory.hpp:77] Creating layer label_data_1_split
I0426 18:37:48.098927  2235 net.cpp:86] Creating Layer label_data_1_split
I0426 18:37:48.098943  2235 net.cpp:408] label_data_1_split <- label
I0426 18:37:48.098964  2235 net.cpp:382] label_data_1_split -> label_data_1_split_0
I0426 18:37:48.098992  2235 net.cpp:382] label_data_1_split -> label_data_1_split_1
I0426 18:37:48.099345  2235 net.cpp:124] Setting up label_data_1_split
I0426 18:37:48.099401  2235 net.cpp:131] Top shape: 4 (4)
I0426 18:37:48.099421  2235 net.cpp:131] Top shape: 4 (4)
I0426 18:37:48.099432  2235 net.cpp:139] Memory required for data: 2408496
I0426 18:37:48.099447  2235 layer_factory.hpp:77] Creating layer conv1_1
I0426 18:37:48.099483  2235 net.cpp:86] Creating Layer conv1_1
I0426 18:37:48.099500  2235 net.cpp:408] conv1_1 <- data
I0426 18:37:48.099524  2235 net.cpp:382] conv1_1 -> conv1_1
I0426 18:37:48.105840  2235 net.cpp:124] Setting up conv1_1
I0426 18:37:48.105901  2235 net.cpp:131] Top shape: 4 64 224 224 (12845056)
I0426 18:37:48.105919  2235 net.cpp:139] Memory required for data: 53788720
I0426 18:37:48.105957  2235 layer_factory.hpp:77] Creating layer ReLU1_1
I0426 18:37:48.105979  2235 net.cpp:86] Creating Layer ReLU1_1
I0426 18:37:48.105993  2235 net.cpp:408] ReLU1_1 <- conv1_1
I0426 18:37:48.106014  2235 net.cpp:369] ReLU1_1 -> conv1_1 (in-place)
I0426 18:37:48.106590  2235 net.cpp:124] Setting up ReLU1_1
I0426 18:37:48.106621  2235 net.cpp:131] Top shape: 4 64 224 224 (12845056)
I0426 18:37:48.106634  2235 net.cpp:139] Memory required for data: 105168944
I0426 18:37:48.106657  2235 layer_factory.hpp:77] Creating layer conv1_2
I0426 18:37:48.106689  2235 net.cpp:86] Creating Layer conv1_2
I0426 18:37:48.106704  2235 net.cpp:408] conv1_2 <- conv1_1
I0426 18:37:48.106727  2235 net.cpp:382] conv1_2 -> conv1_2
I0426 18:37:48.113076  2235 net.cpp:124] Setting up conv1_2
I0426 18:37:48.113108  2235 net.cpp:131] Top shape: 4 64 224 224 (12845056)
I0426 18:37:48.113118  2235 net.cpp:139] Memory required for data: 156549168
I0426 18:37:48.113138  2235 layer_factory.hpp:77] Creating layer ReLU1_2
I0426 18:37:48.113153  2235 net.cpp:86] Creating Layer ReLU1_2
I0426 18:37:48.113162  2235 net.cpp:408] ReLU1_2 <- conv1_2
I0426 18:37:48.113175  2235 net.cpp:369] ReLU1_2 -> conv1_2 (in-place)
I0426 18:37:48.114032  2235 net.cpp:124] Setting up ReLU1_2
I0426 18:37:48.114060  2235 net.cpp:131] Top shape: 4 64 224 224 (12845056)
I0426 18:37:48.114082  2235 net.cpp:139] Memory required for data: 207929392
I0426 18:37:48.114107  2235 layer_factory.hpp:77] Creating layer pool1
I0426 18:37:48.114122  2235 net.cpp:86] Creating Layer pool1
I0426 18:37:48.114131  2235 net.cpp:408] pool1 <- conv1_2
I0426 18:37:48.114145  2235 net.cpp:382] pool1 -> pool1
I0426 18:37:48.114253  2235 net.cpp:124] Setting up pool1
I0426 18:37:48.114269  2235 net.cpp:131] Top shape: 4 64 112 112 (3211264)
I0426 18:37:48.114277  2235 net.cpp:139] Memory required for data: 220774448
I0426 18:37:48.114286  2235 layer_factory.hpp:77] Creating layer conv2_1
I0426 18:37:48.114305  2235 net.cpp:86] Creating Layer conv2_1
I0426 18:37:48.114313  2235 net.cpp:408] conv2_1 <- pool1
I0426 18:37:48.114326  2235 net.cpp:382] conv2_1 -> conv2_1
I0426 18:37:48.118309  2235 net.cpp:124] Setting up conv2_1
I0426 18:37:48.118338  2235 net.cpp:131] Top shape: 4 128 112 112 (6422528)
I0426 18:37:48.118346  2235 net.cpp:139] Memory required for data: 246464560
I0426 18:37:48.118362  2235 layer_factory.hpp:77] Creating layer ReLU2_1
I0426 18:37:48.118377  2235 net.cpp:86] Creating Layer ReLU2_1
I0426 18:37:48.118386  2235 net.cpp:408] ReLU2_1 <- conv2_1
I0426 18:37:48.118396  2235 net.cpp:369] ReLU2_1 -> conv2_1 (in-place)
I0426 18:37:48.119063  2235 net.cpp:124] Setting up ReLU2_1
I0426 18:37:48.119086  2235 net.cpp:131] Top shape: 4 128 112 112 (6422528)
I0426 18:37:48.119091  2235 net.cpp:139] Memory required for data: 272154672
I0426 18:37:48.119097  2235 layer_factory.hpp:77] Creating layer conv2_2
I0426 18:37:48.119112  2235 net.cpp:86] Creating Layer conv2_2
I0426 18:37:48.119120  2235 net.cpp:408] conv2_2 <- conv2_1
I0426 18:37:48.119132  2235 net.cpp:382] conv2_2 -> conv2_2
I0426 18:37:48.124213  2235 net.cpp:124] Setting up conv2_2
I0426 18:37:48.124233  2235 net.cpp:131] Top shape: 4 128 112 112 (6422528)
I0426 18:37:48.124240  2235 net.cpp:139] Memory required for data: 297844784
I0426 18:37:48.124250  2235 layer_factory.hpp:77] Creating layer ReLU2_2
I0426 18:37:48.124258  2235 net.cpp:86] Creating Layer ReLU2_2
I0426 18:37:48.124264  2235 net.cpp:408] ReLU2_2 <- conv2_2
I0426 18:37:48.124272  2235 net.cpp:369] ReLU2_2 -> conv2_2 (in-place)
I0426 18:37:48.124498  2235 net.cpp:124] Setting up ReLU2_2
I0426 18:37:48.124511  2235 net.cpp:131] Top shape: 4 128 112 112 (6422528)
I0426 18:37:48.124516  2235 net.cpp:139] Memory required for data: 323534896
I0426 18:37:48.124522  2235 layer_factory.hpp:77] Creating layer pool2
I0426 18:37:48.124531  2235 net.cpp:86] Creating Layer pool2
I0426 18:37:48.124536  2235 net.cpp:408] pool2 <- conv2_2
I0426 18:37:48.124542  2235 net.cpp:382] pool2 -> pool2
I0426 18:37:48.124608  2235 net.cpp:124] Setting up pool2
I0426 18:37:48.124616  2235 net.cpp:131] Top shape: 4 128 56 56 (1605632)
I0426 18:37:48.124621  2235 net.cpp:139] Memory required for data: 329957424
I0426 18:37:48.124626  2235 layer_factory.hpp:77] Creating layer conv3_1
I0426 18:37:48.124639  2235 net.cpp:86] Creating Layer conv3_1
I0426 18:37:48.124644  2235 net.cpp:408] conv3_1 <- pool2
I0426 18:37:48.124652  2235 net.cpp:382] conv3_1 -> conv3_1
I0426 18:37:48.130192  2235 net.cpp:124] Setting up conv3_1
I0426 18:37:48.130208  2235 net.cpp:131] Top shape: 4 256 56 56 (3211264)
I0426 18:37:48.130213  2235 net.cpp:139] Memory required for data: 342802480
I0426 18:37:48.130224  2235 layer_factory.hpp:77] Creating layer ReLU3_1
I0426 18:37:48.130231  2235 net.cpp:86] Creating Layer ReLU3_1
I0426 18:37:48.130236  2235 net.cpp:408] ReLU3_1 <- conv3_1
I0426 18:37:48.130244  2235 net.cpp:369] ReLU3_1 -> conv3_1 (in-place)
I0426 18:37:48.130681  2235 net.cpp:124] Setting up ReLU3_1
I0426 18:37:48.130693  2235 net.cpp:131] Top shape: 4 256 56 56 (3211264)
I0426 18:37:48.130698  2235 net.cpp:139] Memory required for data: 355647536
I0426 18:37:48.130703  2235 layer_factory.hpp:77] Creating layer conv3_2
I0426 18:37:48.130712  2235 net.cpp:86] Creating Layer conv3_2
I0426 18:37:48.130717  2235 net.cpp:408] conv3_2 <- conv3_1
I0426 18:37:48.130724  2235 net.cpp:382] conv3_2 -> conv3_2
I0426 18:37:48.137997  2235 net.cpp:124] Setting up conv3_2
I0426 18:37:48.138025  2235 net.cpp:131] Top shape: 4 256 56 56 (3211264)
I0426 18:37:48.138029  2235 net.cpp:139] Memory required for data: 368492592
I0426 18:37:48.138036  2235 layer_factory.hpp:77] Creating layer ReLU3_2
I0426 18:37:48.138042  2235 net.cpp:86] Creating Layer ReLU3_2
I0426 18:37:48.138046  2235 net.cpp:408] ReLU3_2 <- conv3_2
I0426 18:37:48.138051  2235 net.cpp:369] ReLU3_2 -> conv3_2 (in-place)
I0426 18:37:48.138407  2235 net.cpp:124] Setting up ReLU3_2
I0426 18:37:48.138418  2235 net.cpp:131] Top shape: 4 256 56 56 (3211264)
I0426 18:37:48.138422  2235 net.cpp:139] Memory required for data: 381337648
I0426 18:37:48.138425  2235 layer_factory.hpp:77] Creating layer conv3_3
I0426 18:37:48.138437  2235 net.cpp:86] Creating Layer conv3_3
I0426 18:37:48.138439  2235 net.cpp:408] conv3_3 <- conv3_2
I0426 18:37:48.138447  2235 net.cpp:382] conv3_3 -> conv3_3
I0426 18:37:48.145272  2235 net.cpp:124] Setting up conv3_3
I0426 18:37:48.145283  2235 net.cpp:131] Top shape: 4 256 56 56 (3211264)
I0426 18:37:48.145287  2235 net.cpp:139] Memory required for data: 394182704
I0426 18:37:48.145292  2235 layer_factory.hpp:77] Creating layer ReLU3_3
I0426 18:37:48.145297  2235 net.cpp:86] Creating Layer ReLU3_3
I0426 18:37:48.145299  2235 net.cpp:408] ReLU3_3 <- conv3_3
I0426 18:37:48.145304  2235 net.cpp:369] ReLU3_3 -> conv3_3 (in-place)
I0426 18:37:48.145439  2235 net.cpp:124] Setting up ReLU3_3
I0426 18:37:48.145447  2235 net.cpp:131] Top shape: 4 256 56 56 (3211264)
I0426 18:37:48.145449  2235 net.cpp:139] Memory required for data: 407027760
I0426 18:37:48.145452  2235 layer_factory.hpp:77] Creating layer conv3_4
I0426 18:37:48.145458  2235 net.cpp:86] Creating Layer conv3_4
I0426 18:37:48.145462  2235 net.cpp:408] conv3_4 <- conv3_3
I0426 18:37:48.145467  2235 net.cpp:382] conv3_4 -> conv3_4
I0426 18:37:48.151113  2235 net.cpp:124] Setting up conv3_4
I0426 18:37:48.151126  2235 net.cpp:131] Top shape: 4 256 56 56 (3211264)
I0426 18:37:48.151130  2235 net.cpp:139] Memory required for data: 419872816
I0426 18:37:48.151135  2235 layer_factory.hpp:77] Creating layer ReLU3_4
I0426 18:37:48.151140  2235 net.cpp:86] Creating Layer ReLU3_4
I0426 18:37:48.151144  2235 net.cpp:408] ReLU3_4 <- conv3_4
I0426 18:37:48.151149  2235 net.cpp:369] ReLU3_4 -> conv3_4 (in-place)
I0426 18:37:48.151446  2235 net.cpp:124] Setting up ReLU3_4
I0426 18:37:48.151455  2235 net.cpp:131] Top shape: 4 256 56 56 (3211264)
I0426 18:37:48.151458  2235 net.cpp:139] Memory required for data: 432717872
I0426 18:37:48.151463  2235 layer_factory.hpp:77] Creating layer pool3
I0426 18:37:48.151474  2235 net.cpp:86] Creating Layer pool3
I0426 18:37:48.151477  2235 net.cpp:408] pool3 <- conv3_4
I0426 18:37:48.151481  2235 net.cpp:382] pool3 -> pool3
I0426 18:37:48.151520  2235 net.cpp:124] Setting up pool3
I0426 18:37:48.151525  2235 net.cpp:131] Top shape: 4 256 28 28 (802816)
I0426 18:37:48.151527  2235 net.cpp:139] Memory required for data: 435929136
I0426 18:37:48.151530  2235 layer_factory.hpp:77] Creating layer conv4_1
I0426 18:37:48.151537  2235 net.cpp:86] Creating Layer conv4_1
I0426 18:37:48.151540  2235 net.cpp:408] conv4_1 <- pool3
I0426 18:37:48.151546  2235 net.cpp:382] conv4_1 -> conv4_1
I0426 18:37:48.161607  2235 net.cpp:124] Setting up conv4_1
I0426 18:37:48.161628  2235 net.cpp:131] Top shape: 4 512 28 28 (1605632)
I0426 18:37:48.161633  2235 net.cpp:139] Memory required for data: 442351664
I0426 18:37:48.161643  2235 layer_factory.hpp:77] Creating layer ReLU4_1
I0426 18:37:48.161649  2235 net.cpp:86] Creating Layer ReLU4_1
I0426 18:37:48.161653  2235 net.cpp:408] ReLU4_1 <- conv4_1
I0426 18:37:48.161659  2235 net.cpp:369] ReLU4_1 -> conv4_1 (in-place)
I0426 18:37:48.161970  2235 net.cpp:124] Setting up ReLU4_1
I0426 18:37:48.161979  2235 net.cpp:131] Top shape: 4 512 28 28 (1605632)
I0426 18:37:48.161983  2235 net.cpp:139] Memory required for data: 448774192
I0426 18:37:48.161986  2235 layer_factory.hpp:77] Creating layer conv4_2
I0426 18:37:48.161994  2235 net.cpp:86] Creating Layer conv4_2
I0426 18:37:48.162001  2235 net.cpp:408] conv4_2 <- conv4_1
I0426 18:37:48.162014  2235 net.cpp:382] conv4_2 -> conv4_2
I0426 18:37:48.180974  2235 net.cpp:124] Setting up conv4_2
I0426 18:37:48.180997  2235 net.cpp:131] Top shape: 4 512 28 28 (1605632)
I0426 18:37:48.181001  2235 net.cpp:139] Memory required for data: 455196720
I0426 18:37:48.181007  2235 layer_factory.hpp:77] Creating layer ReLU4_2
I0426 18:37:48.181015  2235 net.cpp:86] Creating Layer ReLU4_2
I0426 18:37:48.181018  2235 net.cpp:408] ReLU4_2 <- conv4_2
I0426 18:37:48.181022  2235 net.cpp:369] ReLU4_2 -> conv4_2 (in-place)
I0426 18:37:48.181156  2235 net.cpp:124] Setting up ReLU4_2
I0426 18:37:48.181164  2235 net.cpp:131] Top shape: 4 512 28 28 (1605632)
I0426 18:37:48.181166  2235 net.cpp:139] Memory required for data: 461619248
I0426 18:37:48.181169  2235 layer_factory.hpp:77] Creating layer conv4_3
I0426 18:37:48.181176  2235 net.cpp:86] Creating Layer conv4_3
I0426 18:37:48.181180  2235 net.cpp:408] conv4_3 <- conv4_2
I0426 18:37:48.181186  2235 net.cpp:382] conv4_3 -> conv4_3
I0426 18:37:48.200244  2235 net.cpp:124] Setting up conv4_3
I0426 18:37:48.200266  2235 net.cpp:131] Top shape: 4 512 28 28 (1605632)
I0426 18:37:48.200273  2235 net.cpp:139] Memory required for data: 468041776
I0426 18:37:48.200278  2235 layer_factory.hpp:77] Creating layer ReLU4_3
I0426 18:37:48.200285  2235 net.cpp:86] Creating Layer ReLU4_3
I0426 18:37:48.200289  2235 net.cpp:408] ReLU4_3 <- conv4_3
I0426 18:37:48.200294  2235 net.cpp:369] ReLU4_3 -> conv4_3 (in-place)
I0426 18:37:48.200623  2235 net.cpp:124] Setting up ReLU4_3
I0426 18:37:48.200633  2235 net.cpp:131] Top shape: 4 512 28 28 (1605632)
I0426 18:37:48.200634  2235 net.cpp:139] Memory required for data: 474464304
I0426 18:37:48.200639  2235 layer_factory.hpp:77] Creating layer conv4_4
I0426 18:37:48.200646  2235 net.cpp:86] Creating Layer conv4_4
I0426 18:37:48.200649  2235 net.cpp:408] conv4_4 <- conv4_3
I0426 18:37:48.200655  2235 net.cpp:382] conv4_4 -> conv4_4
I0426 18:37:48.219949  2235 net.cpp:124] Setting up conv4_4
I0426 18:37:48.219972  2235 net.cpp:131] Top shape: 4 512 28 28 (1605632)
I0426 18:37:48.219976  2235 net.cpp:139] Memory required for data: 480886832
I0426 18:37:48.219982  2235 layer_factory.hpp:77] Creating layer ReLU4_4
I0426 18:37:48.219990  2235 net.cpp:86] Creating Layer ReLU4_4
I0426 18:37:48.219992  2235 net.cpp:408] ReLU4_4 <- conv4_4
I0426 18:37:48.219997  2235 net.cpp:369] ReLU4_4 -> conv4_4 (in-place)
I0426 18:37:48.220670  2235 net.cpp:124] Setting up ReLU4_4
I0426 18:37:48.220679  2235 net.cpp:131] Top shape: 4 512 28 28 (1605632)
I0426 18:37:48.220684  2235 net.cpp:139] Memory required for data: 487309360
I0426 18:37:48.220686  2235 layer_factory.hpp:77] Creating layer pool4
I0426 18:37:48.220691  2235 net.cpp:86] Creating Layer pool4
I0426 18:37:48.220695  2235 net.cpp:408] pool4 <- conv4_4
I0426 18:37:48.220700  2235 net.cpp:382] pool4 -> pool4
I0426 18:37:48.220748  2235 net.cpp:124] Setting up pool4
I0426 18:37:48.220753  2235 net.cpp:131] Top shape: 4 512 14 14 (401408)
I0426 18:37:48.220757  2235 net.cpp:139] Memory required for data: 488914992
I0426 18:37:48.220759  2235 layer_factory.hpp:77] Creating layer conv5_1
I0426 18:37:48.220767  2235 net.cpp:86] Creating Layer conv5_1
I0426 18:37:48.220770  2235 net.cpp:408] conv5_1 <- pool4
I0426 18:37:48.220775  2235 net.cpp:382] conv5_1 -> conv5_1
I0426 18:37:48.240061  2235 net.cpp:124] Setting up conv5_1
I0426 18:37:48.240084  2235 net.cpp:131] Top shape: 4 512 14 14 (401408)
I0426 18:37:48.240088  2235 net.cpp:139] Memory required for data: 490520624
I0426 18:37:48.240095  2235 layer_factory.hpp:77] Creating layer ReLU5_1
I0426 18:37:48.240103  2235 net.cpp:86] Creating Layer ReLU5_1
I0426 18:37:48.240106  2235 net.cpp:408] ReLU5_1 <- conv5_1
I0426 18:37:48.240113  2235 net.cpp:369] ReLU5_1 -> conv5_1 (in-place)
I0426 18:37:48.240250  2235 net.cpp:124] Setting up ReLU5_1
I0426 18:37:48.240257  2235 net.cpp:131] Top shape: 4 512 14 14 (401408)
I0426 18:37:48.240260  2235 net.cpp:139] Memory required for data: 492126256
I0426 18:37:48.240267  2235 layer_factory.hpp:77] Creating layer conv5_2
I0426 18:37:48.240285  2235 net.cpp:86] Creating Layer conv5_2
I0426 18:37:48.240290  2235 net.cpp:408] conv5_2 <- conv5_1
I0426 18:37:48.240295  2235 net.cpp:382] conv5_2 -> conv5_2
I0426 18:37:48.259516  2235 net.cpp:124] Setting up conv5_2
I0426 18:37:48.259538  2235 net.cpp:131] Top shape: 4 512 14 14 (401408)
I0426 18:37:48.259541  2235 net.cpp:139] Memory required for data: 493731888
I0426 18:37:48.259548  2235 layer_factory.hpp:77] Creating layer ReLU5_2
I0426 18:37:48.259554  2235 net.cpp:86] Creating Layer ReLU5_2
I0426 18:37:48.259558  2235 net.cpp:408] ReLU5_2 <- conv5_2
I0426 18:37:48.259563  2235 net.cpp:369] ReLU5_2 -> conv5_2 (in-place)
I0426 18:37:48.259876  2235 net.cpp:124] Setting up ReLU5_2
I0426 18:37:48.259886  2235 net.cpp:131] Top shape: 4 512 14 14 (401408)
I0426 18:37:48.259888  2235 net.cpp:139] Memory required for data: 495337520
I0426 18:37:48.259891  2235 layer_factory.hpp:77] Creating layer conv5_3
I0426 18:37:48.259901  2235 net.cpp:86] Creating Layer conv5_3
I0426 18:37:48.259903  2235 net.cpp:408] conv5_3 <- conv5_2
I0426 18:37:48.259909  2235 net.cpp:382] conv5_3 -> conv5_3
I0426 18:37:48.278599  2235 net.cpp:124] Setting up conv5_3
I0426 18:37:48.278622  2235 net.cpp:131] Top shape: 4 512 14 14 (401408)
I0426 18:37:48.278626  2235 net.cpp:139] Memory required for data: 496943152
I0426 18:37:48.278632  2235 layer_factory.hpp:77] Creating layer ReLU5_3
I0426 18:37:48.278638  2235 net.cpp:86] Creating Layer ReLU5_3
I0426 18:37:48.278642  2235 net.cpp:408] ReLU5_3 <- conv5_3
I0426 18:37:48.278648  2235 net.cpp:369] ReLU5_3 -> conv5_3 (in-place)
I0426 18:37:48.278975  2235 net.cpp:124] Setting up ReLU5_3
I0426 18:37:48.278982  2235 net.cpp:131] Top shape: 4 512 14 14 (401408)
I0426 18:37:48.278985  2235 net.cpp:139] Memory required for data: 498548784
I0426 18:37:48.278988  2235 layer_factory.hpp:77] Creating layer conv5_4
I0426 18:37:48.278997  2235 net.cpp:86] Creating Layer conv5_4
I0426 18:37:48.279000  2235 net.cpp:408] conv5_4 <- conv5_3
I0426 18:37:48.279006  2235 net.cpp:382] conv5_4 -> conv5_4
I0426 18:37:48.297956  2235 net.cpp:124] Setting up conv5_4
I0426 18:37:48.297983  2235 net.cpp:131] Top shape: 4 512 14 14 (401408)
I0426 18:37:48.297988  2235 net.cpp:139] Memory required for data: 500154416
I0426 18:37:48.297996  2235 layer_factory.hpp:77] Creating layer ReLU5_4
I0426 18:37:48.298003  2235 net.cpp:86] Creating Layer ReLU5_4
I0426 18:37:48.298007  2235 net.cpp:408] ReLU5_4 <- conv5_4
I0426 18:37:48.298024  2235 net.cpp:369] ReLU5_4 -> conv5_4 (in-place)
I0426 18:37:48.298158  2235 net.cpp:124] Setting up ReLU5_4
I0426 18:37:48.298166  2235 net.cpp:131] Top shape: 4 512 14 14 (401408)
I0426 18:37:48.298169  2235 net.cpp:139] Memory required for data: 501760048
I0426 18:37:48.298171  2235 layer_factory.hpp:77] Creating layer pool5
I0426 18:37:48.298177  2235 net.cpp:86] Creating Layer pool5
I0426 18:37:48.298180  2235 net.cpp:408] pool5 <- conv5_4
I0426 18:37:48.298185  2235 net.cpp:382] pool5 -> pool5
I0426 18:37:48.298229  2235 net.cpp:124] Setting up pool5
I0426 18:37:48.298234  2235 net.cpp:131] Top shape: 4 512 7 7 (100352)
I0426 18:37:48.298236  2235 net.cpp:139] Memory required for data: 502161456
I0426 18:37:48.298239  2235 layer_factory.hpp:77] Creating layer fc6
I0426 18:37:48.298245  2235 net.cpp:86] Creating Layer fc6
I0426 18:37:48.298249  2235 net.cpp:408] fc6 <- pool5
I0426 18:37:48.298252  2235 net.cpp:382] fc6 -> fc6
I0426 18:37:48.410686  2235 net.cpp:124] Setting up fc6
I0426 18:37:48.410719  2235 net.cpp:131] Top shape: 4 4096 (16384)
I0426 18:37:48.410727  2235 net.cpp:139] Memory required for data: 502226992
I0426 18:37:48.410742  2235 layer_factory.hpp:77] Creating layer ReLU6
I0426 18:37:48.410750  2235 net.cpp:86] Creating Layer ReLU6
I0426 18:37:48.410753  2235 net.cpp:408] ReLU6 <- fc6
I0426 18:37:48.410758  2235 net.cpp:369] ReLU6 -> fc6 (in-place)
I0426 18:37:48.411150  2235 net.cpp:124] Setting up ReLU6
I0426 18:37:48.411159  2235 net.cpp:131] Top shape: 4 4096 (16384)
I0426 18:37:48.411167  2235 net.cpp:139] Memory required for data: 502292528
I0426 18:37:48.411175  2235 layer_factory.hpp:77] Creating layer drop6
I0426 18:37:48.411182  2235 net.cpp:86] Creating Layer drop6
I0426 18:37:48.411185  2235 net.cpp:408] drop6 <- fc6
I0426 18:37:48.411191  2235 net.cpp:369] drop6 -> fc6 (in-place)
I0426 18:37:48.411219  2235 net.cpp:124] Setting up drop6
I0426 18:37:48.411223  2235 net.cpp:131] Top shape: 4 4096 (16384)
I0426 18:37:48.411226  2235 net.cpp:139] Memory required for data: 502358064
I0426 18:37:48.411228  2235 layer_factory.hpp:77] Creating layer fc7
I0426 18:37:48.411242  2235 net.cpp:86] Creating Layer fc7
I0426 18:37:48.411245  2235 net.cpp:408] fc7 <- fc6
I0426 18:37:48.411250  2235 net.cpp:382] fc7 -> fc7
I0426 18:37:48.429875  2235 net.cpp:124] Setting up fc7
I0426 18:37:48.429899  2235 net.cpp:131] Top shape: 4 4096 (16384)
I0426 18:37:48.429903  2235 net.cpp:139] Memory required for data: 502423600
I0426 18:37:48.429910  2235 layer_factory.hpp:77] Creating layer ReLU7
I0426 18:37:48.429918  2235 net.cpp:86] Creating Layer ReLU7
I0426 18:37:48.429921  2235 net.cpp:408] ReLU7 <- fc7
I0426 18:37:48.429926  2235 net.cpp:369] ReLU7 -> fc7 (in-place)
I0426 18:37:48.430099  2235 net.cpp:124] Setting up ReLU7
I0426 18:37:48.430106  2235 net.cpp:131] Top shape: 4 4096 (16384)
I0426 18:37:48.430109  2235 net.cpp:139] Memory required for data: 502489136
I0426 18:37:48.430112  2235 layer_factory.hpp:77] Creating layer drop7
I0426 18:37:48.430119  2235 net.cpp:86] Creating Layer drop7
I0426 18:37:48.430121  2235 net.cpp:408] drop7 <- fc7
I0426 18:37:48.430125  2235 net.cpp:369] drop7 -> fc7 (in-place)
I0426 18:37:48.430152  2235 net.cpp:124] Setting up drop7
I0426 18:37:48.430157  2235 net.cpp:131] Top shape: 4 4096 (16384)
I0426 18:37:48.430160  2235 net.cpp:139] Memory required for data: 502554672
I0426 18:37:48.430162  2235 layer_factory.hpp:77] Creating layer fcLFWoverYTF8
I0426 18:37:48.430167  2235 net.cpp:86] Creating Layer fcLFWoverYTF8
I0426 18:37:48.430171  2235 net.cpp:408] fcLFWoverYTF8 <- fc7
I0426 18:37:48.430176  2235 net.cpp:382] fcLFWoverYTF8 -> fcLFWoverYTF8
I0426 18:37:48.456854  2235 net.cpp:124] Setting up fcLFWoverYTF8
I0426 18:37:48.456881  2235 net.cpp:131] Top shape: 4 5749 (22996)
I0426 18:37:48.456883  2235 net.cpp:139] Memory required for data: 502646656
I0426 18:37:48.456890  2235 layer_factory.hpp:77] Creating layer fcLFWoverYTF8_fcLFWoverYTF8_0_split
I0426 18:37:48.456898  2235 net.cpp:86] Creating Layer fcLFWoverYTF8_fcLFWoverYTF8_0_split
I0426 18:37:48.456902  2235 net.cpp:408] fcLFWoverYTF8_fcLFWoverYTF8_0_split <- fcLFWoverYTF8
I0426 18:37:48.456908  2235 net.cpp:382] fcLFWoverYTF8_fcLFWoverYTF8_0_split -> fcLFWoverYTF8_fcLFWoverYTF8_0_split_0
I0426 18:37:48.456915  2235 net.cpp:382] fcLFWoverYTF8_fcLFWoverYTF8_0_split -> fcLFWoverYTF8_fcLFWoverYTF8_0_split_1
I0426 18:37:48.456956  2235 net.cpp:124] Setting up fcLFWoverYTF8_fcLFWoverYTF8_0_split
I0426 18:37:48.456961  2235 net.cpp:131] Top shape: 4 5749 (22996)
I0426 18:37:48.456965  2235 net.cpp:131] Top shape: 4 5749 (22996)
I0426 18:37:48.456967  2235 net.cpp:139] Memory required for data: 502830624
I0426 18:37:48.456970  2235 layer_factory.hpp:77] Creating layer accuracyLFWoverYTF
I0426 18:37:48.456975  2235 net.cpp:86] Creating Layer accuracyLFWoverYTF
I0426 18:37:48.456979  2235 net.cpp:408] accuracyLFWoverYTF <- fcLFWoverYTF8_fcLFWoverYTF8_0_split_0
I0426 18:37:48.456982  2235 net.cpp:408] accuracyLFWoverYTF <- label_data_1_split_0
…
