…
I0316 16:01:08.080401  1883 net.cpp:296] The NetState phase (0) differed from the phase (1) specified by a rule in layer accuracyLFW
I0316 16:01:08.080631  1883 net.cpp:53] Initializing net from parameters: 
name: "VGG_ILSVRC_19_layers"
state {
  phase: TRAIN
  level: 0
  stage: ""
}
layer {
  name: "data"
  type: "Data"
  top: "data"
  top: "label"
  include {
    phase: TRAIN
  }
  transform_param {
    mirror: true
    crop_size: 224
    mean_file: "/home/abc-5/Desktop/DOP17_SK_SM/Run3_15_3/LFW_mean_15_3.binaryproto"
  }
  data_param {
    source: "/home/abc-5/Desktop/DOP17_SK_SM/Run3_15_3/LFW_train_lmdb_15_3"
    batch_size: 10
    backend: LMDB
  }
}
layer {
  name: "conv1_1"
  type: "Convolution"
  bottom: "data"
  top: "conv1_1"
  param {
    lr_mult: 0
    decay_mult: 0
  }
  param {
    lr_mult: 0
    decay_mult: 0
  }
  convolution_param {
    num_output: 64
    pad: 1
    kernel_size: 3
    stride: 1
    weight_filler {
      type: "gaussian"
      std: 0.01
    }
    bias_filler {
      type: "constant"
      value: 0
    }
  }
}
layer {
  name: "ReLU1_1"
  type: "ReLU"
  bottom: "conv1_1"
  top: "conv1_1"
}
layer {
  name: "conv1_2"
  type: "Convolution"
  bottom: "conv1_1"
  top: "conv1_2"
  param {
    lr_mult: 0
    decay_mult: 0
  }
  param {
    lr_mult: 0
    decay_mult: 0
  }
  convolution_param {
    num_output: 64
    pad: 1
    kernel_size: 3
    stride: 1
    weight_filler {
      type: "gaussian"
      std: 0.01
    }
    bias_filler {
      type: "constant"
      value: 0
    }
  }
}
layer {
  name: "ReLU1_2"
  type: "ReLU"
  bottom: "conv1_2"
  top: "conv1_2"
}
layer {
  name: "pool1"
  type: "Pooling"
  bottom: "conv1_2"
  top: "pool1"
  pooling_param {
    pool: MAX
    kernel_size: 2
    stride: 2
  }
}
layer {
  name: "conv2_1"
  type: "Convolution"
  bottom: "pool1"
  top: "conv2_1"
  param {
    lr_mult: 0
    decay_mult: 0
  }
  param {
    lr_mult: 0
    decay_mult: 0
  }
  convolution_param {
    num_output: 128
    pad: 1
    kernel_size: 3
    stride: 1
    weight_filler {
      type: "gaussian"
      std: 0.01
    }
    bias_filler {
      type: "constant"
      value: 0
    }
  }
}
layer {
  name: "ReLU2_1"
  type: "ReLU"
  bottom: "conv2_1"
  top: "conv2_1"
}
layer {
  name: "conv2_2"
  type: "Convolution"
  bottom: "conv2_1"
  top: "conv2_2"
  param {
    lr_mult: 1
    decay_mult: 1
  }
  param {
    lr_mult: 2
    decay_mult: 0
  }
  convolution_param {
    num_output: 128
    pad: 1
    kernel_size: 3
    stride: 1
    weight_filler {
      type: "gaussian"
      std: 0.01
    }
    bias_filler {
      type: "constant"
      value: 0
    }
  }
}
layer {
  name: "ReLU2_2"
  type: "ReLU"
  bottom: "conv2_2"
  top: "conv2_2"
}
layer {
  name: "pool2"
  type: "Pooling"
  bottom: "conv2_2"
  top: "pool2"
  pooling_param {
    pool: MAX
    kernel_size: 2
    stride: 2
  }
}
layer {
  name: "conv3_1"
  type: "Convolution"
  bottom: "pool2"
  top: "conv3_1"
  param {
    lr_mult: 1
    decay_mult: 1
  }
  param {
    lr_mult: 2
    decay_mult: 0
  }
  convolution_param {
    num_output: 256
    pad: 1
    kernel_size: 3
    stride: 1
    weight_filler {
      type: "gaussian"
      std: 0.01
    }
    bias_filler {
      type: "constant"
      value: 0
    }
  }
}
layer {
  name: "ReLU3_1"
  type: "ReLU"
  bottom: "conv3_1"
  top: "conv3_1"
}
layer {
  name: "conv3_2"
  type: "Convolution"
  bottom: "conv3_1"
  top: "conv3_2"
  param {
    lr_mult: 1
    decay_mult: 1
  }
  param {
    lr_mult: 2
    decay_mult: 0
  }
  convolution_param {
    num_output: 256
    pad: 1
    kernel_size: 3
    stride: 1
    weight_filler {
      type: "gaussian"
      std: 0.01
    }
    bias_filler {
      type: "constant"
      value: 0
    }
  }
}
layer {
  name: "ReLU3_2"
  type: "ReLU"
  bottom: "conv3_2"
  top: "conv3_2"
}
layer {
  name: "conv3_3"
  type: "Convolution"
  bottom: "conv3_2"
  top: "conv3_3"
  param {
    lr_mult: 1
    decay_mult: 1
  }
  param {
    lr_mult: 2
    decay_mult: 0
  }
  convolution_param {
    num_output: 256
    pad: 1
    kernel_size: 3
    stride: 1
    weight_filler {
      type: "gaussian"
      std: 0.01
    }
    bias_filler {
      type: "constant"
      value: 0
    }
  }
}
layer {
  name: "ReLU3_3"
  type: "ReLU"
  bottom: "conv3_3"
  top: "conv3_3"
}
layer {
  name: "conv3_4"
  type: "Convolution"
  bottom: "conv3_3"
  top: "conv3_4"
  param {
    lr_mult: 1
    decay_mult: 1
  }
  param {
    lr_mult: 2
    decay_mult: 0
  }
  convolution_param {
    num_output: 256
    pad: 1
    kernel_size: 3
    stride: 1
    weight_filler {
      type: "gaussian"
      std: 0.01
    }
    bias_filler {
      type: "constant"
      value: 0
    }
  }
}
layer {
  name: "ReLU3_4"
  type: "ReLU"
  bottom: "conv3_4"
  top: "conv3_4"
}
layer {
  name: "pool3"
  type: "Pooling"
  bottom: "conv3_4"
  top: "pool3"
  pooling_param {
    pool: MAX
    kernel_size: 2
    stride: 2
  }
}
layer {
  name: "conv4_1"
  type: "Convolution"
  bottom: "pool3"
  top: "conv4_1"
  param {
    lr_mult: 1
    decay_mult: 1
  }
  param {
    lr_mult: 2
    decay_mult: 0
  }
  convolution_param {
    num_output: 512
    pad: 1
    kernel_size: 3
    stride: 1
    weight_filler {
      type: "gaussian"
      std: 0.01
    }
    bias_filler {
      type: "constant"
      value: 0
    }
  }
}
layer {
  name: "ReLU4_1"
  type: "ReLU"
  bottom: "conv4_1"
  top: "conv4_1"
}
layer {
  name: "conv4_2"
  type: "Convolution"
  bottom: "conv4_1"
  top: "conv4_2"
  param {
    lr_mult: 1
    decay_mult: 1
  }
  param {
    lr_mult: 2
    decay_mult: 0
  }
  convolution_param {
    num_output: 512
    pad: 1
    kernel_size: 3
    stride: 1
    weight_filler {
      type: "gaussian"
      std: 0.01
    }
    bias_filler {
      type: "constant"
      value: 0
    }
  }
}
layer {
  name: "ReLU4_2"
  type: "ReLU"
  bottom: "conv4_2"
  top: "conv4_2"
}
layer {
  name: "conv4_3"
  type: "Convolution"
  bottom: "conv4_2"
  top: "conv4_3"
  param {
    lr_mult: 1
    decay_mult: 1
  }
  param {
    lr_mult: 2
    decay_mult: 0
  }
  convolution_param {
    num_output: 512
    pad: 1
    kernel_size: 3
    stride: 1
    weight_filler {
      type: "gaussian"
      std: 0.01
    }
    bias_filler {
      type: "constant"
      value: 0
    }
  }
}
layer {
  name: "ReLU4_3"
  type: "ReLU"
  bottom: "conv4_3"
  top: "conv4_3"
}
layer {
  name: "conv4_4"
  type: "Convolution"
  bottom: "conv4_3"
  top: "conv4_4"
  param {
    lr_mult: 1
    decay_mult: 1
  }
  param {
    lr_mult: 2
    decay_mult: 0
  }
  convolution_param {
    num_output: 512
    pad: 1
    kernel_size: 3
    stride: 1
    weight_filler {
      type: "gaussian"
      std: 0.01
    }
    bias_filler {
      type: "constant"
      value: 0
    }
  }
}
layer {
  name: "ReLU4_4"
  type: "ReLU"
  bottom: "conv4_4"
  top: "conv4_4"
}
layer {
  name: "pool4"
  type: "Pooling"
  bottom: "conv4_4"
  top: "pool4"
  pooling_param {
    pool: MAX
    kernel_size: 2
    stride: 2
  }
}
layer {
  name: "conv5_1"
  type: "Convolution"
  bottom: "pool4"
  top: "conv5_1"
  param {
    lr_mult: 1
    decay_mult: 1
  }
  param {
    lr_mult: 2
    decay_mult: 0
  }
  convolution_param {
    num_output: 512
    pad: 1
    kernel_size: 3
    stride: 1
    weight_filler {
      type: "gaussian"
      std: 0.01
    }
    bias_filler {
      type: "constant"
      value: 0
    }
  }
}
layer {
  name: "ReLU5_1"
  type: "ReLU"
  bottom: "conv5_1"
  top: "conv5_1"
}
layer {
  name: "conv5_2"
  type: "Convolution"
  bottom: "conv5_1"
  top: "conv5_2"
  param {
    lr_mult: 1
    decay_mult: 1
  }
  param {
    lr_mult: 2
    decay_mult: 0
  }
  convolution_param {
    num_output: 512
    pad: 1
    kernel_size: 3
    stride: 1
    weight_filler {
      type: "gaussian"
      std: 0.01
    }
    bias_filler {
      type: "constant"
      value: 0
    }
  }
}
layer {
  name: "ReLU5_2"
  type: "ReLU"
  bottom: "conv5_2"
  top: "conv5_2"
}
layer {
  name: "conv5_3"
  type: "Convolution"
  bottom: "conv5_2"
  top: "conv5_3"
  param {
    lr_mult: 1
    decay_mult: 1
  }
  param {
    lr_mult: 2
    decay_mult: 0
  }
  convolution_param {
    num_output: 512
    pad: 1
    kernel_size: 3
    stride: 1
    weight_filler {
      type: "gaussian"
      std: 0.01
    }
    bias_filler {
      type: "constant"
      value: 0
    }
  }
}
layer {
  name: "ReLU5_3"
  type: "ReLU"
  bottom: "conv5_3"
  top: "conv5_3"
}
layer {
  name: "conv5_4"
  type: "Convolution"
  bottom: "conv5_3"
  top: "conv5_4"
  param {
    lr_mult: 1
    decay_mult: 1
  }
  param {
    lr_mult: 2
    decay_mult: 0
  }
  convolution_param {
    num_output: 512
    pad: 1
    kernel_size: 3
    stride: 1
    weight_filler {
      type: "gaussian"
      std: 0.01
    }
    bias_filler {
      type: "constant"
      value: 0
    }
  }
}
layer {
  name: "ReLU5_4"
  type: "ReLU"
  bottom: "conv5_4"
  top: "conv5_4"
}
layer {
  name: "pool5"
  type: "Pooling"
  bottom: "conv5_4"
  top: "pool5"
  pooling_param {
    pool: MAX
    kernel_size: 2
    stride: 2
  }
}
layer {
  name: "fc6"
  type: "InnerProduct"
  bottom: "pool5"
  top: "fc6"
  inner_product_param {
    num_output: 4096
  }
}
layer {
  name: "ReLU6"
  type: "ReLU"
  bottom: "fc6"
  top: "fc6"
}
layer {
  name: "drop6"
  type: "Dropout"
  bottom: "fc6"
  top: "fc6"
  dropout_param {
    dropout_ratio: 0.5
  }
}
layer {
  name: "fc7"
  type: "InnerProduct"
  bottom: "fc6"
  top: "fc7"
  inner_product_param {
    num_output: 4096
  }
}
layer {
  name: "ReLU7"
  type: "ReLU"
  bottom: "fc7"
  top: "fc7"
}
layer {
  name: "drop7"
  type: "Dropout"
  bottom: "fc7"
  top: "fc7"
  dropout_param {
    dropout_ratio: 0.5
  }
}
layer {
  name: "fcLFW8"
  type: "InnerProduct"
  bottom: "fc7"
  top: "fcLFW8"
  inner_product_param {
    num_output: 5749
  }
}
layer {
  name: "accuracyLFW"
  type: "Accuracy"
  bottom: "fcLFW8"
  bottom: "label"
  top: "accuracyLFW"
  include {
    phase: TEST
  }
  include {
    phase: TRAIN
  }
}
layer {
  name: "lossLFW"
  type: "SoftmaxWithLoss"
  bottom: "fcLFW8"
  bottom: "label"
  top: "lossLFW"
}
I0316 16:01:08.080792  1883 layer_factory.hpp:77] Creating layer data
I0316 16:01:08.197974  1883 db_lmdb.cpp:35] Opened lmdb /home/abc-5/Desktop/DOP17_SK_SM/Run3_15_3/LFW_train_lmdb_15_3
I0316 16:01:08.211309  1883 net.cpp:86] Creating Layer data
I0316 16:01:08.211329  1883 net.cpp:382] data -> data
I0316 16:01:08.211349  1883 net.cpp:382] data -> label
I0316 16:01:08.211359  1883 data_transformer.cpp:25] Loading mean file from: /home/abc-5/Desktop/DOP17_SK_SM/Run3_15_3/LFW_mean_15_3.binaryproto
I0316 16:01:08.399272  1883 data_layer.cpp:45] output data size: 10,3,224,224
I0316 16:01:08.407546  1883 net.cpp:124] Setting up data
I0316 16:01:08.407572  1883 net.cpp:131] Top shape: 10 3 224 224 (1505280)
I0316 16:01:08.407575  1883 net.cpp:131] Top shape: 10 (10)
I0316 16:01:08.407578  1883 net.cpp:139] Memory required for data: 6021160
I0316 16:01:08.407587  1883 layer_factory.hpp:77] Creating layer label_data_1_split
I0316 16:01:08.407608  1883 net.cpp:86] Creating Layer label_data_1_split
I0316 16:01:08.407613  1883 net.cpp:408] label_data_1_split <- label
I0316 16:01:08.407621  1883 net.cpp:382] label_data_1_split -> label_data_1_split_0
I0316 16:01:08.407629  1883 net.cpp:382] label_data_1_split -> label_data_1_split_1
I0316 16:01:08.407655  1883 net.cpp:124] Setting up label_data_1_split
I0316 16:01:08.407665  1883 net.cpp:131] Top shape: 10 (10)
I0316 16:01:08.407673  1883 net.cpp:131] Top shape: 10 (10)
I0316 16:01:08.407675  1883 net.cpp:139] Memory required for data: 6021240
I0316 16:01:08.407678  1883 layer_factory.hpp:77] Creating layer conv1_1
I0316 16:01:08.407690  1883 net.cpp:86] Creating Layer conv1_1
I0316 16:01:08.407693  1883 net.cpp:408] conv1_1 <- data
I0316 16:01:08.407697  1883 net.cpp:382] conv1_1 -> conv1_1
I0316 16:01:23.392916  1883 net.cpp:124] Setting up conv1_1
I0316 16:01:23.392987  1883 net.cpp:131] Top shape: 10 64 224 224 (32112640)
I0316 16:01:23.393005  1883 net.cpp:139] Memory required for data: 134471800
I0316 16:01:23.393060  1883 layer_factory.hpp:77] Creating layer ReLU1_1
I0316 16:01:23.393096  1883 net.cpp:86] Creating Layer ReLU1_1
I0316 16:01:23.393110  1883 net.cpp:408] ReLU1_1 <- conv1_1
I0316 16:01:23.393132  1883 net.cpp:369] ReLU1_1 -> conv1_1 (in-place)
I0316 16:01:23.393702  1883 net.cpp:124] Setting up ReLU1_1
I0316 16:01:23.393733  1883 net.cpp:131] Top shape: 10 64 224 224 (32112640)
I0316 16:01:23.393745  1883 net.cpp:139] Memory required for data: 262922360
I0316 16:01:23.393760  1883 layer_factory.hpp:77] Creating layer conv1_2
I0316 16:01:23.393795  1883 net.cpp:86] Creating Layer conv1_2
I0316 16:01:23.393807  1883 net.cpp:408] conv1_2 <- conv1_1
I0316 16:01:23.393827  1883 net.cpp:382] conv1_2 -> conv1_2
I0316 16:01:23.399166  1883 net.cpp:124] Setting up conv1_2
I0316 16:01:23.399212  1883 net.cpp:131] Top shape: 10 64 224 224 (32112640)
I0316 16:01:23.399226  1883 net.cpp:139] Memory required for data: 391372920
I0316 16:01:23.399255  1883 layer_factory.hpp:77] Creating layer ReLU1_2
I0316 16:01:23.399276  1883 net.cpp:86] Creating Layer ReLU1_2
I0316 16:01:23.399288  1883 net.cpp:408] ReLU1_2 <- conv1_2
I0316 16:01:23.399305  1883 net.cpp:369] ReLU1_2 -> conv1_2 (in-place)
I0316 16:01:23.400373  1883 net.cpp:124] Setting up ReLU1_2
I0316 16:01:23.400408  1883 net.cpp:131] Top shape: 10 64 224 224 (32112640)
I0316 16:01:23.400418  1883 net.cpp:139] Memory required for data: 519823480
I0316 16:01:23.400429  1883 layer_factory.hpp:77] Creating layer pool1
I0316 16:01:23.400446  1883 net.cpp:86] Creating Layer pool1
I0316 16:01:23.400460  1883 net.cpp:408] pool1 <- conv1_2
I0316 16:01:23.400475  1883 net.cpp:382] pool1 -> pool1
I0316 16:01:23.400604  1883 net.cpp:124] Setting up pool1
I0316 16:01:23.400622  1883 net.cpp:131] Top shape: 10 64 112 112 (8028160)
I0316 16:01:23.400635  1883 net.cpp:139] Memory required for data: 551936120
I0316 16:01:23.400645  1883 layer_factory.hpp:77] Creating layer conv2_1
I0316 16:01:23.400667  1883 net.cpp:86] Creating Layer conv2_1
I0316 16:01:23.400679  1883 net.cpp:408] conv2_1 <- pool1
I0316 16:01:23.400697  1883 net.cpp:382] conv2_1 -> conv2_1
I0316 16:01:23.407182  1883 net.cpp:124] Setting up conv2_1
I0316 16:01:23.408844  1883 net.cpp:131] Top shape: 10 128 112 112 (16056320)
I0316 16:01:23.408864  1883 net.cpp:139] Memory required for data: 616161400
I0316 16:01:23.408897  1883 layer_factory.hpp:77] Creating layer ReLU2_1
I0316 16:01:23.408922  1883 net.cpp:86] Creating Layer ReLU2_1
I0316 16:01:23.408934  1883 net.cpp:408] ReLU2_1 <- conv2_1
I0316 16:01:23.408951  1883 net.cpp:369] ReLU2_1 -> conv2_1 (in-place)
I0316 16:01:23.410122  1883 net.cpp:124] Setting up ReLU2_1
I0316 16:01:23.410158  1883 net.cpp:131] Top shape: 10 128 112 112 (16056320)
I0316 16:01:23.410171  1883 net.cpp:139] Memory required for data: 680386680
I0316 16:01:23.410181  1883 layer_factory.hpp:77] Creating layer conv2_2
I0316 16:01:23.410212  1883 net.cpp:86] Creating Layer conv2_2
I0316 16:01:23.410224  1883 net.cpp:408] conv2_2 <- conv2_1
I0316 16:01:23.410274  1883 net.cpp:382] conv2_2 -> conv2_2
I0316 16:01:23.449242  1883 net.cpp:124] Setting up conv2_2
I0316 16:01:23.449309  1883 net.cpp:131] Top shape: 10 128 112 112 (16056320)
I0316 16:01:23.449323  1883 net.cpp:139] Memory required for data: 744611960
I0316 16:01:23.449349  1883 layer_factory.hpp:77] Creating layer ReLU2_2
I0316 16:01:23.449376  1883 net.cpp:86] Creating Layer ReLU2_2
I0316 16:01:23.449404  1883 net.cpp:408] ReLU2_2 <- conv2_2
I0316 16:01:23.449448  1883 net.cpp:369] ReLU2_2 -> conv2_2 (in-place)
I0316 16:01:23.450098  1883 net.cpp:124] Setting up ReLU2_2
I0316 16:01:23.450129  1883 net.cpp:131] Top shape: 10 128 112 112 (16056320)
I0316 16:01:23.450142  1883 net.cpp:139] Memory required for data: 808837240
I0316 16:01:23.450153  1883 layer_factory.hpp:77] Creating layer pool2
I0316 16:01:23.450170  1883 net.cpp:86] Creating Layer pool2
I0316 16:01:23.450182  1883 net.cpp:408] pool2 <- conv2_2
I0316 16:01:23.450199  1883 net.cpp:382] pool2 -> pool2
I0316 16:01:23.450366  1883 net.cpp:124] Setting up pool2
I0316 16:01:23.450389  1883 net.cpp:131] Top shape: 10 128 56 56 (4014080)
I0316 16:01:23.450399  1883 net.cpp:139] Memory required for data: 824893560
I0316 16:01:23.450412  1883 layer_factory.hpp:77] Creating layer conv3_1
I0316 16:01:23.450438  1883 net.cpp:86] Creating Layer conv3_1
I0316 16:01:23.450449  1883 net.cpp:408] conv3_1 <- pool2
I0316 16:01:23.450465  1883 net.cpp:382] conv3_1 -> conv3_1
I0316 16:01:23.511749  1883 net.cpp:124] Setting up conv3_1
I0316 16:01:23.511816  1883 net.cpp:131] Top shape: 10 256 56 56 (8028160)
I0316 16:01:23.511829  1883 net.cpp:139] Memory required for data: 857006200
I0316 16:01:23.511865  1883 layer_factory.hpp:77] Creating layer ReLU3_1
I0316 16:01:23.511889  1883 net.cpp:86] Creating Layer ReLU3_1
I0316 16:01:23.511903  1883 net.cpp:408] ReLU3_1 <- conv3_1
I0316 16:01:23.511919  1883 net.cpp:369] ReLU3_1 -> conv3_1 (in-place)
I0316 16:01:23.513058  1883 net.cpp:124] Setting up ReLU3_1
I0316 16:01:23.513093  1883 net.cpp:131] Top shape: 10 256 56 56 (8028160)
I0316 16:01:23.513104  1883 net.cpp:139] Memory required for data: 889118840
I0316 16:01:23.513116  1883 layer_factory.hpp:77] Creating layer conv3_2
I0316 16:01:23.513151  1883 net.cpp:86] Creating Layer conv3_2
I0316 16:01:23.513175  1883 net.cpp:408] conv3_2 <- conv3_1
I0316 16:01:23.513195  1883 net.cpp:382] conv3_2 -> conv3_2
I0316 16:01:23.536018  1883 net.cpp:124] Setting up conv3_2
I0316 16:01:23.536061  1883 net.cpp:131] Top shape: 10 256 56 56 (8028160)
I0316 16:01:23.536070  1883 net.cpp:139] Memory required for data: 921231480
I0316 16:01:23.536087  1883 layer_factory.hpp:77] Creating layer ReLU3_2
I0316 16:01:23.536101  1883 net.cpp:86] Creating Layer ReLU3_2
I0316 16:01:23.536109  1883 net.cpp:408] ReLU3_2 <- conv3_2
I0316 16:01:23.536123  1883 net.cpp:369] ReLU3_2 -> conv3_2 (in-place)
I0316 16:01:23.536864  1883 net.cpp:124] Setting up ReLU3_2
I0316 16:01:23.536885  1883 net.cpp:131] Top shape: 10 256 56 56 (8028160)
I0316 16:01:23.536892  1883 net.cpp:139] Memory required for data: 953344120
I0316 16:01:23.536901  1883 layer_factory.hpp:77] Creating layer conv3_3
I0316 16:01:23.536926  1883 net.cpp:86] Creating Layer conv3_3
I0316 16:01:23.536934  1883 net.cpp:408] conv3_3 <- conv3_2
I0316 16:01:23.536947  1883 net.cpp:382] conv3_3 -> conv3_3
I0316 16:01:23.549289  1883 net.cpp:124] Setting up conv3_3
I0316 16:01:23.549319  1883 net.cpp:131] Top shape: 10 256 56 56 (8028160)
I0316 16:01:23.549324  1883 net.cpp:139] Memory required for data: 985456760
I0316 16:01:23.549335  1883 layer_factory.hpp:77] Creating layer ReLU3_3
I0316 16:01:23.549345  1883 net.cpp:86] Creating Layer ReLU3_3
I0316 16:01:23.549350  1883 net.cpp:408] ReLU3_3 <- conv3_3
I0316 16:01:23.549357  1883 net.cpp:369] ReLU3_3 -> conv3_3 (in-place)
I0316 16:01:23.549553  1883 net.cpp:124] Setting up ReLU3_3
I0316 16:01:23.549564  1883 net.cpp:131] Top shape: 10 256 56 56 (8028160)
I0316 16:01:23.549569  1883 net.cpp:139] Memory required for data: 1017569400
I0316 16:01:23.549573  1883 layer_factory.hpp:77] Creating layer conv3_4
I0316 16:01:23.549585  1883 net.cpp:86] Creating Layer conv3_4
I0316 16:01:23.549592  1883 net.cpp:408] conv3_4 <- conv3_3
I0316 16:01:23.549612  1883 net.cpp:382] conv3_4 -> conv3_4
I0316 16:01:23.557791  1883 net.cpp:124] Setting up conv3_4
I0316 16:01:23.557816  1883 net.cpp:131] Top shape: 10 256 56 56 (8028160)
I0316 16:01:23.557821  1883 net.cpp:139] Memory required for data: 1049682040
I0316 16:01:23.557835  1883 layer_factory.hpp:77] Creating layer ReLU3_4
I0316 16:01:23.557850  1883 net.cpp:86] Creating Layer ReLU3_4
I0316 16:01:23.557854  1883 net.cpp:408] ReLU3_4 <- conv3_4
I0316 16:01:23.557860  1883 net.cpp:369] ReLU3_4 -> conv3_4 (in-place)
I0316 16:01:23.558228  1883 net.cpp:124] Setting up ReLU3_4
I0316 16:01:23.558246  1883 net.cpp:131] Top shape: 10 256 56 56 (8028160)
I0316 16:01:23.558254  1883 net.cpp:139] Memory required for data: 1081794680
I0316 16:01:23.558257  1883 layer_factory.hpp:77] Creating layer pool3
I0316 16:01:23.558264  1883 net.cpp:86] Creating Layer pool3
I0316 16:01:23.558267  1883 net.cpp:408] pool3 <- conv3_4
I0316 16:01:23.558274  1883 net.cpp:382] pool3 -> pool3
I0316 16:01:23.558313  1883 net.cpp:124] Setting up pool3
I0316 16:01:23.558320  1883 net.cpp:131] Top shape: 10 256 28 28 (2007040)
I0316 16:01:23.558323  1883 net.cpp:139] Memory required for data: 1089822840
I0316 16:01:23.558326  1883 layer_factory.hpp:77] Creating layer conv4_1
I0316 16:01:23.558336  1883 net.cpp:86] Creating Layer conv4_1
I0316 16:01:23.558339  1883 net.cpp:408] conv4_1 <- pool3
I0316 16:01:23.558344  1883 net.cpp:382] conv4_1 -> conv4_1
I0316 16:01:23.569515  1883 net.cpp:124] Setting up conv4_1
I0316 16:01:23.569536  1883 net.cpp:131] Top shape: 10 512 28 28 (4014080)
I0316 16:01:23.569540  1883 net.cpp:139] Memory required for data: 1105879160
I0316 16:01:23.569550  1883 layer_factory.hpp:77] Creating layer ReLU4_1
I0316 16:01:23.569556  1883 net.cpp:86] Creating Layer ReLU4_1
I0316 16:01:23.569561  1883 net.cpp:408] ReLU4_1 <- conv4_1
I0316 16:01:23.569564  1883 net.cpp:369] ReLU4_1 -> conv4_1 (in-place)
I0316 16:01:23.569844  1883 net.cpp:124] Setting up ReLU4_1
I0316 16:01:23.569851  1883 net.cpp:131] Top shape: 10 512 28 28 (4014080)
I0316 16:01:23.569854  1883 net.cpp:139] Memory required for data: 1121935480
I0316 16:01:23.569857  1883 layer_factory.hpp:77] Creating layer conv4_2
I0316 16:01:23.569865  1883 net.cpp:86] Creating Layer conv4_2
I0316 16:01:23.569869  1883 net.cpp:408] conv4_2 <- conv4_1
I0316 16:01:23.569872  1883 net.cpp:382] conv4_2 -> conv4_2
I0316 16:01:23.589370  1883 net.cpp:124] Setting up conv4_2
I0316 16:01:23.589393  1883 net.cpp:131] Top shape: 10 512 28 28 (4014080)
I0316 16:01:23.589396  1883 net.cpp:139] Memory required for data: 1137991800
I0316 16:01:23.589403  1883 layer_factory.hpp:77] Creating layer ReLU4_2
I0316 16:01:23.589409  1883 net.cpp:86] Creating Layer ReLU4_2
I0316 16:01:23.589413  1883 net.cpp:408] ReLU4_2 <- conv4_2
I0316 16:01:23.589417  1883 net.cpp:369] ReLU4_2 -> conv4_2 (in-place)
I0316 16:01:23.589864  1883 net.cpp:124] Setting up ReLU4_2
I0316 16:01:23.589871  1883 net.cpp:131] Top shape: 10 512 28 28 (4014080)
I0316 16:01:23.589875  1883 net.cpp:139] Memory required for data: 1154048120
I0316 16:01:23.589877  1883 layer_factory.hpp:77] Creating layer conv4_3
I0316 16:01:23.589913  1883 net.cpp:86] Creating Layer conv4_3
I0316 16:01:23.589917  1883 net.cpp:408] conv4_3 <- conv4_2
I0316 16:01:23.589921  1883 net.cpp:382] conv4_3 -> conv4_3
I0316 16:01:23.609491  1883 net.cpp:124] Setting up conv4_3
I0316 16:01:23.609513  1883 net.cpp:131] Top shape: 10 512 28 28 (4014080)
I0316 16:01:23.609516  1883 net.cpp:139] Memory required for data: 1170104440
I0316 16:01:23.609524  1883 layer_factory.hpp:77] Creating layer ReLU4_3
I0316 16:01:23.609529  1883 net.cpp:86] Creating Layer ReLU4_3
I0316 16:01:23.609534  1883 net.cpp:408] ReLU4_3 <- conv4_3
I0316 16:01:23.609537  1883 net.cpp:369] ReLU4_3 -> conv4_3 (in-place)
I0316 16:01:23.609815  1883 net.cpp:124] Setting up ReLU4_3
I0316 16:01:23.609823  1883 net.cpp:131] Top shape: 10 512 28 28 (4014080)
I0316 16:01:23.609827  1883 net.cpp:139] Memory required for data: 1186160760
I0316 16:01:23.609829  1883 layer_factory.hpp:77] Creating layer conv4_4
I0316 16:01:23.609838  1883 net.cpp:86] Creating Layer conv4_4
I0316 16:01:23.609840  1883 net.cpp:408] conv4_4 <- conv4_3
I0316 16:01:23.609845  1883 net.cpp:382] conv4_4 -> conv4_4
I0316 16:01:23.628957  1883 net.cpp:124] Setting up conv4_4
I0316 16:01:23.628979  1883 net.cpp:131] Top shape: 10 512 28 28 (4014080)
I0316 16:01:23.628988  1883 net.cpp:139] Memory required for data: 1202217080
I0316 16:01:23.628995  1883 layer_factory.hpp:77] Creating layer ReLU4_4
I0316 16:01:23.629003  1883 net.cpp:86] Creating Layer ReLU4_4
I0316 16:01:23.629005  1883 net.cpp:408] ReLU4_4 <- conv4_4
I0316 16:01:23.629009  1883 net.cpp:369] ReLU4_4 -> conv4_4 (in-place)
I0316 16:01:23.629295  1883 net.cpp:124] Setting up ReLU4_4
I0316 16:01:23.629303  1883 net.cpp:131] Top shape: 10 512 28 28 (4014080)
I0316 16:01:23.629307  1883 net.cpp:139] Memory required for data: 1218273400
I0316 16:01:23.629308  1883 layer_factory.hpp:77] Creating layer pool4
I0316 16:01:23.629313  1883 net.cpp:86] Creating Layer pool4
I0316 16:01:23.629317  1883 net.cpp:408] pool4 <- conv4_4
I0316 16:01:23.629320  1883 net.cpp:382] pool4 -> pool4
I0316 16:01:23.629350  1883 net.cpp:124] Setting up pool4
I0316 16:01:23.629355  1883 net.cpp:131] Top shape: 10 512 14 14 (1003520)
I0316 16:01:23.629359  1883 net.cpp:139] Memory required for data: 1222287480
I0316 16:01:23.629360  1883 layer_factory.hpp:77] Creating layer conv5_1
I0316 16:01:23.629367  1883 net.cpp:86] Creating Layer conv5_1
I0316 16:01:23.629370  1883 net.cpp:408] conv5_1 <- pool4
I0316 16:01:23.629374  1883 net.cpp:382] conv5_1 -> conv5_1
I0316 16:01:23.648603  1883 net.cpp:124] Setting up conv5_1
I0316 16:01:23.648625  1883 net.cpp:131] Top shape: 10 512 14 14 (1003520)
I0316 16:01:23.648629  1883 net.cpp:139] Memory required for data: 1226301560
I0316 16:01:23.648636  1883 layer_factory.hpp:77] Creating layer ReLU5_1
I0316 16:01:23.648643  1883 net.cpp:86] Creating Layer ReLU5_1
I0316 16:01:23.648646  1883 net.cpp:408] ReLU5_1 <- conv5_1
I0316 16:01:23.648651  1883 net.cpp:369] ReLU5_1 -> conv5_1 (in-place)
I0316 16:01:23.648768  1883 net.cpp:124] Setting up ReLU5_1
I0316 16:01:23.648774  1883 net.cpp:131] Top shape: 10 512 14 14 (1003520)
I0316 16:01:23.648777  1883 net.cpp:139] Memory required for data: 1230315640
I0316 16:01:23.648780  1883 layer_factory.hpp:77] Creating layer conv5_2
I0316 16:01:23.648790  1883 net.cpp:86] Creating Layer conv5_2
I0316 16:01:23.648793  1883 net.cpp:408] conv5_2 <- conv5_1
I0316 16:01:23.648798  1883 net.cpp:382] conv5_2 -> conv5_2
I0316 16:01:23.668016  1883 net.cpp:124] Setting up conv5_2
I0316 16:01:23.668037  1883 net.cpp:131] Top shape: 10 512 14 14 (1003520)
I0316 16:01:23.668040  1883 net.cpp:139] Memory required for data: 1234329720
I0316 16:01:23.668047  1883 layer_factory.hpp:77] Creating layer ReLU5_2
I0316 16:01:23.668054  1883 net.cpp:86] Creating Layer ReLU5_2
I0316 16:01:23.668057  1883 net.cpp:408] ReLU5_2 <- conv5_2
I0316 16:01:23.668061  1883 net.cpp:369] ReLU5_2 -> conv5_2 (in-place)
I0316 16:01:23.668325  1883 net.cpp:124] Setting up ReLU5_2
I0316 16:01:23.668334  1883 net.cpp:131] Top shape: 10 512 14 14 (1003520)
I0316 16:01:23.668336  1883 net.cpp:139] Memory required for data: 1238343800
I0316 16:01:23.668339  1883 layer_factory.hpp:77] Creating layer conv5_3
I0316 16:01:23.668360  1883 net.cpp:86] Creating Layer conv5_3
I0316 16:01:23.668365  1883 net.cpp:408] conv5_3 <- conv5_2
I0316 16:01:23.668368  1883 net.cpp:382] conv5_3 -> conv5_3
I0316 16:01:23.687424  1883 net.cpp:124] Setting up conv5_3
I0316 16:01:23.687448  1883 net.cpp:131] Top shape: 10 512 14 14 (1003520)
I0316 16:01:23.687450  1883 net.cpp:139] Memory required for data: 1242357880
I0316 16:01:23.687458  1883 layer_factory.hpp:77] Creating layer ReLU5_3
I0316 16:01:23.687464  1883 net.cpp:86] Creating Layer ReLU5_3
I0316 16:01:23.687469  1883 net.cpp:408] ReLU5_3 <- conv5_3
I0316 16:01:23.687472  1883 net.cpp:369] ReLU5_3 -> conv5_3 (in-place)
I0316 16:01:23.687754  1883 net.cpp:124] Setting up ReLU5_3
I0316 16:01:23.687762  1883 net.cpp:131] Top shape: 10 512 14 14 (1003520)
I0316 16:01:23.687767  1883 net.cpp:139] Memory required for data: 1246371960
I0316 16:01:23.687770  1883 layer_factory.hpp:77] Creating layer conv5_4
I0316 16:01:23.687782  1883 net.cpp:86] Creating Layer conv5_4
I0316 16:01:23.687790  1883 net.cpp:408] conv5_4 <- conv5_3
I0316 16:01:23.687803  1883 net.cpp:382] conv5_4 -> conv5_4
I0316 16:01:23.706856  1883 net.cpp:124] Setting up conv5_4
I0316 16:01:23.706892  1883 net.cpp:131] Top shape: 10 512 14 14 (1003520)
I0316 16:01:23.706895  1883 net.cpp:139] Memory required for data: 1250386040
I0316 16:01:23.706902  1883 layer_factory.hpp:77] Creating layer ReLU5_4
I0316 16:01:23.706908  1883 net.cpp:86] Creating Layer ReLU5_4
I0316 16:01:23.706912  1883 net.cpp:408] ReLU5_4 <- conv5_4
I0316 16:01:23.706917  1883 net.cpp:369] ReLU5_4 -> conv5_4 (in-place)
I0316 16:01:23.707023  1883 net.cpp:124] Setting up ReLU5_4
I0316 16:01:23.707029  1883 net.cpp:131] Top shape: 10 512 14 14 (1003520)
I0316 16:01:23.707032  1883 net.cpp:139] Memory required for data: 1254400120
I0316 16:01:23.707034  1883 layer_factory.hpp:77] Creating layer pool5
I0316 16:01:23.707039  1883 net.cpp:86] Creating Layer pool5
I0316 16:01:23.707042  1883 net.cpp:408] pool5 <- conv5_4
I0316 16:01:23.707046  1883 net.cpp:382] pool5 -> pool5
I0316 16:01:23.707080  1883 net.cpp:124] Setting up pool5
I0316 16:01:23.707085  1883 net.cpp:131] Top shape: 10 512 7 7 (250880)
I0316 16:01:23.707088  1883 net.cpp:139] Memory required for data: 1255403640
I0316 16:01:23.707092  1883 layer_factory.hpp:77] Creating layer fc6
I0316 16:01:23.707095  1883 net.cpp:86] Creating Layer fc6
I0316 16:01:23.707098  1883 net.cpp:408] fc6 <- pool5
I0316 16:01:23.707103  1883 net.cpp:382] fc6 -> fc6
I0316 16:01:23.835234  1883 net.cpp:124] Setting up fc6
I0316 16:01:23.835259  1883 net.cpp:131] Top shape: 10 4096 (40960)
I0316 16:01:23.835263  1883 net.cpp:139] Memory required for data: 1255567480
I0316 16:01:23.835275  1883 layer_factory.hpp:77] Creating layer ReLU6
I0316 16:01:23.835283  1883 net.cpp:86] Creating Layer ReLU6
I0316 16:01:23.835286  1883 net.cpp:408] ReLU6 <- fc6
I0316 16:01:23.835291  1883 net.cpp:369] ReLU6 -> fc6 (in-place)
I0316 16:01:23.835674  1883 net.cpp:124] Setting up ReLU6
I0316 16:01:23.835681  1883 net.cpp:131] Top shape: 10 4096 (40960)
I0316 16:01:23.835685  1883 net.cpp:139] Memory required for data: 1255731320
I0316 16:01:23.835687  1883 layer_factory.hpp:77] Creating layer drop6
I0316 16:01:23.835692  1883 net.cpp:86] Creating Layer drop6
I0316 16:01:23.835695  1883 net.cpp:408] drop6 <- fc6
I0316 16:01:23.835700  1883 net.cpp:369] drop6 -> fc6 (in-place)
I0316 16:01:23.835726  1883 net.cpp:124] Setting up drop6
I0316 16:01:23.835731  1883 net.cpp:131] Top shape: 10 4096 (40960)
I0316 16:01:23.835733  1883 net.cpp:139] Memory required for data: 1255895160
I0316 16:01:23.835736  1883 layer_factory.hpp:77] Creating layer fc7
I0316 16:01:23.835741  1883 net.cpp:86] Creating Layer fc7
I0316 16:01:23.835744  1883 net.cpp:408] fc7 <- fc6
I0316 16:01:23.835748  1883 net.cpp:382] fc7 -> fc7
I0316 16:01:23.863260  1883 net.cpp:124] Setting up fc7
I0316 16:01:23.863288  1883 net.cpp:131] Top shape: 10 4096 (40960)
I0316 16:01:23.863293  1883 net.cpp:139] Memory required for data: 1256059000
I0316 16:01:23.863306  1883 layer_factory.hpp:77] Creating layer ReLU7
I0316 16:01:23.863315  1883 net.cpp:86] Creating Layer ReLU7
I0316 16:01:23.863322  1883 net.cpp:408] ReLU7 <- fc7
I0316 16:01:23.863329  1883 net.cpp:369] ReLU7 -> fc7 (in-place)
I0316 16:01:23.863548  1883 net.cpp:124] Setting up ReLU7
I0316 16:01:23.863557  1883 net.cpp:131] Top shape: 10 4096 (40960)
I0316 16:01:23.863561  1883 net.cpp:139] Memory required for data: 1256222840
I0316 16:01:23.863566  1883 layer_factory.hpp:77] Creating layer drop7
I0316 16:01:23.863574  1883 net.cpp:86] Creating Layer drop7
I0316 16:01:23.863579  1883 net.cpp:408] drop7 <- fc7
I0316 16:01:23.863585  1883 net.cpp:369] drop7 -> fc7 (in-place)
I0316 16:01:23.863620  1883 net.cpp:124] Setting up drop7
I0316 16:01:23.863626  1883 net.cpp:131] Top shape: 10 4096 (40960)
I0316 16:01:23.863631  1883 net.cpp:139] Memory required for data: 1256386680
I0316 16:01:23.863634  1883 layer_factory.hpp:77] Creating layer fcLFW8
I0316 16:01:23.863642  1883 net.cpp:86] Creating Layer fcLFW8
I0316 16:01:23.863652  1883 net.cpp:408] fcLFW8 <- fc7
I0316 16:01:23.863665  1883 net.cpp:382] fcLFW8 -> fcLFW8
I0316 16:01:23.894649  1883 net.cpp:124] Setting up fcLFW8
I0316 16:01:23.894677  1883 net.cpp:131] Top shape: 10 5749 (57490)
I0316 16:01:23.894682  1883 net.cpp:139] Memory required for data: 1256616640
I0316 16:01:23.894692  1883 layer_factory.hpp:77] Creating layer fcLFW8_fcLFW8_0_split
I0316 16:01:23.894701  1883 net.cpp:86] Creating Layer fcLFW8_fcLFW8_0_split
I0316 16:01:23.894706  1883 net.cpp:408] fcLFW8_fcLFW8_0_split <- fcLFW8
I0316 16:01:23.894713  1883 net.cpp:382] fcLFW8_fcLFW8_0_split -> fcLFW8_fcLFW8_0_split_0
I0316 16:01:23.894722  1883 net.cpp:382] fcLFW8_fcLFW8_0_split -> fcLFW8_fcLFW8_0_split_1
I0316 16:01:23.894764  1883 net.cpp:124] Setting up fcLFW8_fcLFW8_0_split
I0316 16:01:23.894771  1883 net.cpp:131] Top shape: 10 5749 (57490)
I0316 16:01:23.894775  1883 net.cpp:131] Top shape: 10 5749 (57490)
I0316 16:01:23.894779  1883 net.cpp:139] Memory required for data: 1257076560
I0316 16:01:23.894783  1883 layer_factory.hpp:77] Creating layer accuracyLFW
I0316 16:01:23.894790  1883 net.cpp:86] Creating Layer accuracyLFW
I0316 16:01:23.894794  1883 net.cpp:408] accuracyLFW <- fcLFW8_fcLFW8_0_split_0
I0316 16:01:23.894799  1883 net.cpp:408] accuracyLFW <- label_data_1_split_0
I0316 16:01:23.894805  1883 net.cpp:382] accuracyLFW -> accuracyLFW
…
I0316 16:01:23.896312  1883 net.cpp:296] The NetState phase (1) differed from the phase (0) specified by a rule in layer data
I0316 16:01:23.896606  1883 net.cpp:53] Initializing net from parameters: 
name: "VGG_ILSVRC_19_layers"
state {
  phase: TEST
}
layer {
  name: "data"
  type: "Data"
  top: "data"
  top: "label"
  include {
    phase: TEST
  }
  transform_param {
    mirror: false
    crop_size: 224
    mean_file: "/home/abc-5/Desktop/DOP17_SK_SM/Run3_15_3/LFW_mean_15_3.binaryproto"
  }
  data_param {
    source: "/home/abc-5/Desktop/DOP17_SK_SM/Run3_15_3/LFW_val_lmdb_15_3"
    batch_size: 5
    backend: LMDB
  }
}
layer {
  name: "conv1_1"
  type: "Convolution"
  bottom: "data"
  top: "conv1_1"
  param {
    lr_mult: 0
    decay_mult: 0
  }
  param {
    lr_mult: 0
    decay_mult: 0
  }
  convolution_param {
    num_output: 64
    pad: 1
    kernel_size: 3
    stride: 1
    weight_filler {
      type: "gaussian"
      std: 0.01
    }
    bias_filler {
      type: "constant"
      value: 0
    }
  }
}
layer {
  name: "ReLU1_1"
  type: "ReLU"
  bottom: "conv1_1"
  top: "conv1_1"
}
layer {
  name: "conv1_2"
  type: "Convolution"
  bottom: "conv1_1"
  top: "conv1_2"
  param {
    lr_mult: 0
    decay_mult: 0
  }
  param {
    lr_mult: 0
    decay_mult: 0
  }
  convolution_param {
    num_output: 64
    pad: 1
    kernel_size: 3
    stride: 1
    weight_filler {
      type: "gaussian"
      std: 0.01
    }
    bias_filler {
      type: "constant"
      value: 0
    }
  }
}
layer {
  name: "ReLU1_2"
  type: "ReLU"
  bottom: "conv1_2"
  top: "conv1_2"
}
layer {
  name: "pool1"
  type: "Pooling"
  bottom: "conv1_2"
  top: "pool1"
  pooling_param {
    pool: MAX
    kernel_size: 2
    stride: 2
  }
}
layer {
  name: "conv2_1"
  type: "Convolution"
  bottom: "pool1"
  top: "conv2_1"
  param {
    lr_mult: 0
    decay_mult: 0
  }
  param {
    lr_mult: 0
    decay_mult: 0
  }
  convolution_param {
    num_output: 128
    pad: 1
    kernel_size: 3
    stride: 1
    weight_filler {
      type: "gaussian"
      std: 0.01
    }
    bias_filler {
      type: "constant"
      value: 0
    }
  }
}
layer {
  name: "ReLU2_1"
  type: "ReLU"
  bottom: "conv2_1"
  top: "conv2_1"
}
layer {
  name: "conv2_2"
  type: "Convolution"
  bottom: "conv2_1"
  top: "conv2_2"
  param {
    lr_mult: 1
    decay_mult: 1
  }
  param {
    lr_mult: 2
    decay_mult: 0
  }
  convolution_param {
    num_output: 128
    pad: 1
    kernel_size: 3
    stride: 1
    weight_filler {
      type: "gaussian"
      std: 0.01
    }
    bias_filler {
      type: "constant"
      value: 0
    }
  }
}
layer {
  name: "ReLU2_2"
  type: "ReLU"
  bottom: "conv2_2"
  top: "conv2_2"
}
layer {
  name: "pool2"
  type: "Pooling"
  bottom: "conv2_2"
  top: "pool2"
  pooling_param {
    pool: MAX
    kernel_size: 2
    stride: 2
  }
}
layer {
  name: "conv3_1"
  type: "Convolution"
  bottom: "pool2"
  top: "conv3_1"
  param {
    lr_mult: 1
    decay_mult: 1
  }
  param {
    lr_mult: 2
    decay_mult: 0
  }
  convolution_param {
    num_output: 256
    pad: 1
    kernel_size: 3
    stride: 1
    weight_filler {
      type: "gaussian"
      std: 0.01
    }
    bias_filler {
      type: "constant"
      value: 0
    }
  }
}
layer {
  name: "ReLU3_1"
  type: "ReLU"
  bottom: "conv3_1"
  top: "conv3_1"
}
layer {
  name: "conv3_2"
  type: "Convolution"
  bottom: "conv3_1"
  top: "conv3_2"
  param {
    lr_mult: 1
    decay_mult: 1
  }
  param {
    lr_mult: 2
    decay_mult: 0
  }
  convolution_param {
    num_output: 256
    pad: 1
    kernel_size: 3
    stride: 1
    weight_filler {
      type: "gaussian"
      std: 0.01
    }
    bias_filler {
      type: "constant"
      value: 0
    }
  }
}
layer {
  name: "ReLU3_2"
  type: "ReLU"
  bottom: "conv3_2"
  top: "conv3_2"
}
layer {
  name: "conv3_3"
  type: "Convolution"
  bottom: "conv3_2"
  top: "conv3_3"
  param {
    lr_mult: 1
    decay_mult: 1
  }
  param {
    lr_mult: 2
    decay_mult: 0
  }
  convolution_param {
    num_output: 256
    pad: 1
    kernel_size: 3
    stride: 1
    weight_filler {
      type: "gaussian"
      std: 0.01
    }
    bias_filler {
      type: "constant"
      value: 0
    }
  }
}
layer {
  name: "ReLU3_3"
  type: "ReLU"
  bottom: "conv3_3"
  top: "conv3_3"
}
layer {
  name: "conv3_4"
  type: "Convolution"
  bottom: "conv3_3"
  top: "conv3_4"
  param {
    lr_mult: 1
    decay_mult: 1
  }
  param {
    lr_mult: 2
    decay_mult: 0
  }
  convolution_param {
    num_output: 256
    pad: 1
    kernel_size: 3
    stride: 1
    weight_filler {
      type: "gaussian"
      std: 0.01
    }
    bias_filler {
      type: "constant"
      value: 0
    }
  }
}
layer {
  name: "ReLU3_4"
  type: "ReLU"
  bottom: "conv3_4"
  top: "conv3_4"
}
layer {
  name: "pool3"
  type: "Pooling"
  bottom: "conv3_4"
  top: "pool3"
  pooling_param {
    pool: MAX
    kernel_size: 2
    stride: 2
  }
}
layer {
  name: "conv4_1"
  type: "Convolution"
  bottom: "pool3"
  top: "conv4_1"
  param {
    lr_mult: 1
    decay_mult: 1
  }
  param {
    lr_mult: 2
    decay_mult: 0
  }
  convolution_param {
    num_output: 512
    pad: 1
    kernel_size: 3
    stride: 1
    weight_filler {
      type: "gaussian"
      std: 0.01
    }
    bias_filler {
      type: "constant"
      value: 0
    }
  }
}
layer {
  name: "ReLU4_1"
  type: "ReLU"
  bottom: "conv4_1"
  top: "conv4_1"
}
layer {
  name: "conv4_2"
  type: "Convolution"
  bottom: "conv4_1"
  top: "conv4_2"
  param {
    lr_mult: 1
    decay_mult: 1
  }
  param {
    lr_mult: 2
    decay_mult: 0
  }
  convolution_param {
    num_output: 512
    pad: 1
    kernel_size: 3
    stride: 1
    weight_filler {
      type: "gaussian"
      std: 0.01
    }
    bias_filler {
      type: "constant"
      value: 0
    }
  }
}
layer {
  name: "ReLU4_2"
  type: "ReLU"
  bottom: "conv4_2"
  top: "conv4_2"
}
layer {
  name: "conv4_3"
  type: "Convolution"
  bottom: "conv4_2"
  top: "conv4_3"
  param {
    lr_mult: 1
    decay_mult: 1
  }
  param {
    lr_mult: 2
    decay_mult: 0
  }
  convolution_param {
    num_output: 512
    pad: 1
    kernel_size: 3
    stride: 1
    weight_filler {
      type: "gaussian"
      std: 0.01
    }
    bias_filler {
      type: "constant"
      value: 0
    }
  }
}
layer {
  name: "ReLU4_3"
  type: "ReLU"
  bottom: "conv4_3"
  top: "conv4_3"
}
layer {
  name: "conv4_4"
  type: "Convolution"
  bottom: "conv4_3"
  top: "conv4_4"
  param {
    lr_mult: 1
    decay_mult: 1
  }
  param {
    lr_mult: 2
    decay_mult: 0
  }
  convolution_param {
    num_output: 512
    pad: 1
    kernel_size: 3
    stride: 1
    weight_filler {
      type: "gaussian"
      std: 0.01
    }
    bias_filler {
      type: "constant"
      value: 0
    }
  }
}
layer {
  name: "ReLU4_4"
  type: "ReLU"
  bottom: "conv4_4"
  top: "conv4_4"
}
layer {
  name: "pool4"
  type: "Pooling"
  bottom: "conv4_4"
  top: "pool4"
  pooling_param {
    pool: MAX
    kernel_size: 2
    stride: 2
  }
}
layer {
  name: "conv5_1"
  type: "Convolution"
  bottom: "pool4"
  top: "conv5_1"
  param {
    lr_mult: 1
    decay_mult: 1
  }
  param {
    lr_mult: 2
    decay_mult: 0
  }
  convolution_param {
    num_output: 512
    pad: 1
    kernel_size: 3
    stride: 1
    weight_filler {
      type: "gaussian"
      std: 0.01
    }
    bias_filler {
      type: "constant"
      value: 0
    }
  }
}
layer {
  name: "ReLU5_1"
  type: "ReLU"
  bottom: "conv5_1"
  top: "conv5_1"
}
layer {
  name: "conv5_2"
  type: "Convolution"
  bottom: "conv5_1"
  top: "conv5_2"
  param {
    lr_mult: 1
    decay_mult: 1
  }
  param {
    lr_mult: 2
    decay_mult: 0
  }
  convolution_param {
    num_output: 512
    pad: 1
    kernel_size: 3
    stride: 1
    weight_filler {
      type: "gaussian"
      std: 0.01
    }
    bias_filler {
      type: "constant"
      value: 0
    }
  }
}
layer {
  name: "ReLU5_2"
  type: "ReLU"
  bottom: "conv5_2"
  top: "conv5_2"
}
layer {
  name: "conv5_3"
  type: "Convolution"
  bottom: "conv5_2"
  top: "conv5_3"
  param {
    lr_mult: 1
    decay_mult: 1
  }
  param {
    lr_mult: 2
    decay_mult: 0
  }
  convolution_param {
    num_output: 512
    pad: 1
    kernel_size: 3
    stride: 1
    weight_filler {
      type: "gaussian"
      std: 0.01
    }
    bias_filler {
      type: "constant"
      value: 0
    }
  }
}
layer {
  name: "ReLU5_3"
  type: "ReLU"
  bottom: "conv5_3"
  top: "conv5_3"
}
layer {
  name: "conv5_4"
  type: "Convolution"
  bottom: "conv5_3"
  top: "conv5_4"
  param {
    lr_mult: 1
    decay_mult: 1
  }
  param {
    lr_mult: 2
    decay_mult: 0
  }
  convolution_param {
    num_output: 512
    pad: 1
    kernel_size: 3
    stride: 1
    weight_filler {
      type: "gaussian"
      std: 0.01
    }
    bias_filler {
      type: "constant"
      value: 0
    }
  }
}
layer {
  name: "ReLU5_4"
  type: "ReLU"
  bottom: "conv5_4"
  top: "conv5_4"
}
layer {
  name: "pool5"
  type: "Pooling"
  bottom: "conv5_4"
  top: "pool5"
  pooling_param {
    pool: MAX
    kernel_size: 2
    stride: 2
  }
}
layer {
  name: "fc6"
  type: "InnerProduct"
  bottom: "pool5"
  top: "fc6"
  inner_product_param {
    num_output: 4096
  }
}
layer {
  name: "ReLU6"
  type: "ReLU"
  bottom: "fc6"
  top: "fc6"
}
layer {
  name: "drop6"
  type: "Dropout"
  bottom: "fc6"
  top: "fc6"
  dropout_param {
    dropout_ratio: 0.5
  }
}
layer {
  name: "fc7"
  type: "InnerProduct"
  bottom: "fc6"
  top: "fc7"
  inner_product_param {
    num_output: 4096
  }
}
layer {
  name: "ReLU7"
  type: "ReLU"
  bottom: "fc7"
  top: "fc7"
}
layer {
  name: "drop7"
  type: "Dropout"
  bottom: "fc7"
  top: "fc7"
  dropout_param {
    dropout_ratio: 0.5
  }
}
layer {
  name: "fcLFW8"
  type: "InnerProduct"
  bottom: "fc7"
  top: "fcLFW8"
  inner_product_param {
    num_output: 5749
  }
}
layer {
  name: "accuracyLFW"
  type: "Accuracy"
  bottom: "fcLFW8"
  bottom: "label"
  top: "accuracyLFW"
  include {
    phase: TEST
  }
  include {
    phase: TRAIN
  }
}
layer {
  name: "lossLFW"
  type: "SoftmaxWithLoss"
  bottom: "fcLFW8"
  bottom: "label"
  top: "lossLFW"
}
I0316 16:01:23.896759  1883 layer_factory.hpp:77] Creating layer data
I0316 16:01:24.483582  1883 db_lmdb.cpp:35] Opened lmdb /home/abc-5/Desktop/DOP17_SK_SM/Run3_15_3/LFW_val_lmdb_15_3
I0316 16:01:24.618423  1883 net.cpp:86] Creating Layer data
I0316 16:01:24.618453  1883 net.cpp:382] data -> data
I0316 16:01:24.618464  1883 net.cpp:382] data -> label
I0316 16:01:24.618472  1883 data_transformer.cpp:25] Loading mean file from: /home/abc-5/Desktop/DOP17_SK_SM/Run3_15_3/LFW_mean_15_3.binaryproto
I0316 16:01:24.643434  1883 data_layer.cpp:45] output data size: 5,3,224,224
I0316 16:01:24.654222  1883 net.cpp:124] Setting up data
I0316 16:01:24.654299  1883 net.cpp:131] Top shape: 5 3 224 224 (752640)
I0316 16:01:24.654310  1883 net.cpp:131] Top shape: 5 (5)
I0316 16:01:24.654319  1883 net.cpp:139] Memory required for data: 3010580
I0316 16:01:24.654330  1883 layer_factory.hpp:77] Creating layer label_data_1_split
I0316 16:01:24.654352  1883 net.cpp:86] Creating Layer label_data_1_split
I0316 16:01:24.654362  1883 net.cpp:408] label_data_1_split <- label
I0316 16:01:24.654376  1883 net.cpp:382] label_data_1_split -> label_data_1_split_0
I0316 16:01:24.654394  1883 net.cpp:382] label_data_1_split -> label_data_1_split_1
I0316 16:01:24.654626  1883 net.cpp:124] Setting up label_data_1_split
I0316 16:01:24.654661  1883 net.cpp:131] Top shape: 5 (5)
I0316 16:01:24.654672  1883 net.cpp:131] Top shape: 5 (5)
I0316 16:01:24.654680  1883 net.cpp:139] Memory required for data: 3010620
I0316 16:01:24.654687  1883 layer_factory.hpp:77] Creating layer conv1_1
I0316 16:01:24.654714  1883 net.cpp:86] Creating Layer conv1_1
I0316 16:01:24.654723  1883 net.cpp:408] conv1_1 <- data
I0316 16:01:24.654736  1883 net.cpp:382] conv1_1 -> conv1_1
I0316 16:01:24.658609  1883 net.cpp:124] Setting up conv1_1
I0316 16:01:24.658648  1883 net.cpp:131] Top shape: 5 64 224 224 (16056320)
I0316 16:01:24.658659  1883 net.cpp:139] Memory required for data: 67235900
I0316 16:01:24.658681  1883 layer_factory.hpp:77] Creating layer ReLU1_1
I0316 16:01:24.658696  1883 net.cpp:86] Creating Layer ReLU1_1
I0316 16:01:24.658706  1883 net.cpp:408] ReLU1_1 <- conv1_1
I0316 16:01:24.658718  1883 net.cpp:369] ReLU1_1 -> conv1_1 (in-place)
I0316 16:01:24.659091  1883 net.cpp:124] Setting up ReLU1_1
I0316 16:01:24.659111  1883 net.cpp:131] Top shape: 5 64 224 224 (16056320)
I0316 16:01:24.659119  1883 net.cpp:139] Memory required for data: 131461180
I0316 16:01:24.659127  1883 layer_factory.hpp:77] Creating layer conv1_2
I0316 16:01:24.659148  1883 net.cpp:86] Creating Layer conv1_2
I0316 16:01:24.659157  1883 net.cpp:408] conv1_2 <- conv1_1
I0316 16:01:24.659171  1883 net.cpp:382] conv1_2 -> conv1_2
I0316 16:01:24.664443  1883 net.cpp:124] Setting up conv1_2
I0316 16:01:24.664475  1883 net.cpp:131] Top shape: 5 64 224 224 (16056320)
I0316 16:01:24.664484  1883 net.cpp:139] Memory required for data: 195686460
I0316 16:01:24.664506  1883 layer_factory.hpp:77] Creating layer ReLU1_2
I0316 16:01:24.664520  1883 net.cpp:86] Creating Layer ReLU1_2
I0316 16:01:24.664528  1883 net.cpp:408] ReLU1_2 <- conv1_2
I0316 16:01:24.664541  1883 net.cpp:369] ReLU1_2 -> conv1_2 (in-place)
I0316 16:01:24.665362  1883 net.cpp:124] Setting up ReLU1_2
I0316 16:01:24.665387  1883 net.cpp:131] Top shape: 5 64 224 224 (16056320)
I0316 16:01:24.665395  1883 net.cpp:139] Memory required for data: 259911740
I0316 16:01:24.665403  1883 layer_factory.hpp:77] Creating layer pool1
I0316 16:01:24.665418  1883 net.cpp:86] Creating Layer pool1
I0316 16:01:24.665427  1883 net.cpp:408] pool1 <- conv1_2
I0316 16:01:24.665439  1883 net.cpp:382] pool1 -> pool1
I0316 16:01:24.665540  1883 net.cpp:124] Setting up pool1
I0316 16:01:24.665556  1883 net.cpp:131] Top shape: 5 64 112 112 (4014080)
I0316 16:01:24.665565  1883 net.cpp:139] Memory required for data: 275968060
I0316 16:01:24.665571  1883 layer_factory.hpp:77] Creating layer conv2_1
I0316 16:01:24.665599  1883 net.cpp:86] Creating Layer conv2_1
I0316 16:01:24.665627  1883 net.cpp:408] conv2_1 <- pool1
I0316 16:01:24.665640  1883 net.cpp:382] conv2_1 -> conv2_1
I0316 16:01:24.669739  1883 net.cpp:124] Setting up conv2_1
I0316 16:01:24.669767  1883 net.cpp:131] Top shape: 5 128 112 112 (8028160)
I0316 16:01:24.669778  1883 net.cpp:139] Memory required for data: 308080700
I0316 16:01:24.669797  1883 layer_factory.hpp:77] Creating layer ReLU2_1
I0316 16:01:24.669813  1883 net.cpp:86] Creating Layer ReLU2_1
I0316 16:01:24.669822  1883 net.cpp:408] ReLU2_1 <- conv2_1
I0316 16:01:24.669836  1883 net.cpp:369] ReLU2_1 -> conv2_1 (in-place)
I0316 16:01:24.670652  1883 net.cpp:124] Setting up ReLU2_1
I0316 16:01:24.670677  1883 net.cpp:131] Top shape: 5 128 112 112 (8028160)
I0316 16:01:24.670686  1883 net.cpp:139] Memory required for data: 340193340
I0316 16:01:24.670696  1883 layer_factory.hpp:77] Creating layer conv2_2
I0316 16:01:24.670714  1883 net.cpp:86] Creating Layer conv2_2
I0316 16:01:24.670723  1883 net.cpp:408] conv2_2 <- conv2_1
I0316 16:01:24.670737  1883 net.cpp:382] conv2_2 -> conv2_2
I0316 16:01:24.676934  1883 net.cpp:124] Setting up conv2_2
I0316 16:01:24.676959  1883 net.cpp:131] Top shape: 5 128 112 112 (8028160)
I0316 16:01:24.676965  1883 net.cpp:139] Memory required for data: 372305980
I0316 16:01:24.676990  1883 layer_factory.hpp:77] Creating layer ReLU2_2
I0316 16:01:24.677002  1883 net.cpp:86] Creating Layer ReLU2_2
I0316 16:01:24.677009  1883 net.cpp:408] ReLU2_2 <- conv2_2
I0316 16:01:24.677018  1883 net.cpp:369] ReLU2_2 -> conv2_2 (in-place)
I0316 16:01:24.677301  1883 net.cpp:124] Setting up ReLU2_2
I0316 16:01:24.677316  1883 net.cpp:131] Top shape: 5 128 112 112 (8028160)
I0316 16:01:24.677322  1883 net.cpp:139] Memory required for data: 404418620
I0316 16:01:24.677328  1883 layer_factory.hpp:77] Creating layer pool2
I0316 16:01:24.677337  1883 net.cpp:86] Creating Layer pool2
I0316 16:01:24.677345  1883 net.cpp:408] pool2 <- conv2_2
I0316 16:01:24.677353  1883 net.cpp:382] pool2 -> pool2
I0316 16:01:24.677430  1883 net.cpp:124] Setting up pool2
I0316 16:01:24.677441  1883 net.cpp:131] Top shape: 5 128 56 56 (2007040)
I0316 16:01:24.677448  1883 net.cpp:139] Memory required for data: 412446780
I0316 16:01:24.677454  1883 layer_factory.hpp:77] Creating layer conv3_1
I0316 16:01:24.677467  1883 net.cpp:86] Creating Layer conv3_1
I0316 16:01:24.677474  1883 net.cpp:408] conv3_1 <- pool2
I0316 16:01:24.677484  1883 net.cpp:382] conv3_1 -> conv3_1
I0316 16:01:24.683910  1883 net.cpp:124] Setting up conv3_1
I0316 16:01:24.683933  1883 net.cpp:131] Top shape: 5 256 56 56 (4014080)
I0316 16:01:24.683936  1883 net.cpp:139] Memory required for data: 428503100
I0316 16:01:24.683950  1883 layer_factory.hpp:77] Creating layer ReLU3_1
I0316 16:01:24.683959  1883 net.cpp:86] Creating Layer ReLU3_1
I0316 16:01:24.683964  1883 net.cpp:408] ReLU3_1 <- conv3_1
I0316 16:01:24.683970  1883 net.cpp:369] ReLU3_1 -> conv3_1 (in-place)
I0316 16:01:24.684422  1883 net.cpp:124] Setting up ReLU3_1
I0316 16:01:24.684435  1883 net.cpp:131] Top shape: 5 256 56 56 (4014080)
I0316 16:01:24.684439  1883 net.cpp:139] Memory required for data: 444559420
I0316 16:01:24.684444  1883 layer_factory.hpp:77] Creating layer conv3_2
I0316 16:01:24.684455  1883 net.cpp:86] Creating Layer conv3_2
I0316 16:01:24.684460  1883 net.cpp:408] conv3_2 <- conv3_1
I0316 16:01:24.684468  1883 net.cpp:382] conv3_2 -> conv3_2
I0316 16:01:24.692800  1883 net.cpp:124] Setting up conv3_2
I0316 16:01:24.692816  1883 net.cpp:131] Top shape: 5 256 56 56 (4014080)
I0316 16:01:24.692821  1883 net.cpp:139] Memory required for data: 460615740
I0316 16:01:24.692827  1883 layer_factory.hpp:77] Creating layer ReLU3_2
I0316 16:01:24.692834  1883 net.cpp:86] Creating Layer ReLU3_2
I0316 16:01:24.692838  1883 net.cpp:408] ReLU3_2 <- conv3_2
I0316 16:01:24.692844  1883 net.cpp:369] ReLU3_2 -> conv3_2 (in-place)
I0316 16:01:24.693210  1883 net.cpp:124] Setting up ReLU3_2
I0316 16:01:24.693222  1883 net.cpp:131] Top shape: 5 256 56 56 (4014080)
I0316 16:01:24.693229  1883 net.cpp:139] Memory required for data: 476672060
I0316 16:01:24.693240  1883 layer_factory.hpp:77] Creating layer conv3_3
I0316 16:01:24.693250  1883 net.cpp:86] Creating Layer conv3_3
I0316 16:01:24.693254  1883 net.cpp:408] conv3_3 <- conv3_2
I0316 16:01:24.693261  1883 net.cpp:382] conv3_3 -> conv3_3
I0316 16:01:24.700214  1883 net.cpp:124] Setting up conv3_3
I0316 16:01:24.700233  1883 net.cpp:131] Top shape: 5 256 56 56 (4014080)
I0316 16:01:24.700237  1883 net.cpp:139] Memory required for data: 492728380
I0316 16:01:24.700244  1883 layer_factory.hpp:77] Creating layer ReLU3_3
I0316 16:01:24.700253  1883 net.cpp:86] Creating Layer ReLU3_3
I0316 16:01:24.700255  1883 net.cpp:408] ReLU3_3 <- conv3_3
I0316 16:01:24.700260  1883 net.cpp:369] ReLU3_3 -> conv3_3 (in-place)
I0316 16:01:24.700407  1883 net.cpp:124] Setting up ReLU3_3
I0316 16:01:24.700417  1883 net.cpp:131] Top shape: 5 256 56 56 (4014080)
I0316 16:01:24.700419  1883 net.cpp:139] Memory required for data: 508784700
I0316 16:01:24.700423  1883 layer_factory.hpp:77] Creating layer conv3_4
I0316 16:01:24.700431  1883 net.cpp:86] Creating Layer conv3_4
I0316 16:01:24.700434  1883 net.cpp:408] conv3_4 <- conv3_3
I0316 16:01:24.700439  1883 net.cpp:382] conv3_4 -> conv3_4
I0316 16:01:24.706225  1883 net.cpp:124] Setting up conv3_4
I0316 16:01:24.706244  1883 net.cpp:131] Top shape: 5 256 56 56 (4014080)
I0316 16:01:24.706248  1883 net.cpp:139] Memory required for data: 524841020
I0316 16:01:24.706254  1883 layer_factory.hpp:77] Creating layer ReLU3_4
I0316 16:01:24.706260  1883 net.cpp:86] Creating Layer ReLU3_4
I0316 16:01:24.706264  1883 net.cpp:408] ReLU3_4 <- conv3_4
I0316 16:01:24.706269  1883 net.cpp:369] ReLU3_4 -> conv3_4 (in-place)
I0316 16:01:24.706576  1883 net.cpp:124] Setting up ReLU3_4
I0316 16:01:24.706589  1883 net.cpp:131] Top shape: 5 256 56 56 (4014080)
I0316 16:01:24.706594  1883 net.cpp:139] Memory required for data: 540897340
I0316 16:01:24.706598  1883 layer_factory.hpp:77] Creating layer pool3
I0316 16:01:24.706606  1883 net.cpp:86] Creating Layer pool3
I0316 16:01:24.706611  1883 net.cpp:408] pool3 <- conv3_4
I0316 16:01:24.706615  1883 net.cpp:382] pool3 -> pool3
I0316 16:01:24.706657  1883 net.cpp:124] Setting up pool3
I0316 16:01:24.706662  1883 net.cpp:131] Top shape: 5 256 28 28 (1003520)
I0316 16:01:24.706665  1883 net.cpp:139] Memory required for data: 544911420
I0316 16:01:24.706667  1883 layer_factory.hpp:77] Creating layer conv4_1
I0316 16:01:24.706674  1883 net.cpp:86] Creating Layer conv4_1
I0316 16:01:24.706676  1883 net.cpp:408] conv4_1 <- pool3
I0316 16:01:24.706681  1883 net.cpp:382] conv4_1 -> conv4_1
I0316 16:01:24.716719  1883 net.cpp:124] Setting up conv4_1
I0316 16:01:24.716739  1883 net.cpp:131] Top shape: 5 512 28 28 (2007040)
I0316 16:01:24.716742  1883 net.cpp:139] Memory required for data: 552939580
I0316 16:01:24.716753  1883 layer_factory.hpp:77] Creating layer ReLU4_1
I0316 16:01:24.716760  1883 net.cpp:86] Creating Layer ReLU4_1
I0316 16:01:24.716764  1883 net.cpp:408] ReLU4_1 <- conv4_1
I0316 16:01:24.716768  1883 net.cpp:369] ReLU4_1 -> conv4_1 (in-place)
I0316 16:01:24.717069  1883 net.cpp:124] Setting up ReLU4_1
I0316 16:01:24.717077  1883 net.cpp:131] Top shape: 5 512 28 28 (2007040)
I0316 16:01:24.717080  1883 net.cpp:139] Memory required for data: 560967740
I0316 16:01:24.717083  1883 layer_factory.hpp:77] Creating layer conv4_2
I0316 16:01:24.717090  1883 net.cpp:86] Creating Layer conv4_2
I0316 16:01:24.717093  1883 net.cpp:408] conv4_2 <- conv4_1
I0316 16:01:24.717098  1883 net.cpp:382] conv4_2 -> conv4_2
I0316 16:01:24.736040  1883 net.cpp:124] Setting up conv4_2
I0316 16:01:24.736062  1883 net.cpp:131] Top shape: 5 512 28 28 (2007040)
I0316 16:01:24.736064  1883 net.cpp:139] Memory required for data: 568995900
I0316 16:01:24.736071  1883 layer_factory.hpp:77] Creating layer ReLU4_2
I0316 16:01:24.736078  1883 net.cpp:86] Creating Layer ReLU4_2
I0316 16:01:24.736080  1883 net.cpp:408] ReLU4_2 <- conv4_2
I0316 16:01:24.736085  1883 net.cpp:369] ReLU4_2 -> conv4_2 (in-place)
I0316 16:01:24.736212  1883 net.cpp:124] Setting up ReLU4_2
I0316 16:01:24.736223  1883 net.cpp:131] Top shape: 5 512 28 28 (2007040)
I0316 16:01:24.736225  1883 net.cpp:139] Memory required for data: 577024060
I0316 16:01:24.736228  1883 layer_factory.hpp:77] Creating layer conv4_3
I0316 16:01:24.736235  1883 net.cpp:86] Creating Layer conv4_3
I0316 16:01:24.736238  1883 net.cpp:408] conv4_3 <- conv4_2
I0316 16:01:24.736243  1883 net.cpp:382] conv4_3 -> conv4_3
I0316 16:01:24.755185  1883 net.cpp:124] Setting up conv4_3
I0316 16:01:24.755205  1883 net.cpp:131] Top shape: 5 512 28 28 (2007040)
I0316 16:01:24.755208  1883 net.cpp:139] Memory required for data: 585052220
I0316 16:01:24.755214  1883 layer_factory.hpp:77] Creating layer ReLU4_3
I0316 16:01:24.755221  1883 net.cpp:86] Creating Layer ReLU4_3
I0316 16:01:24.755224  1883 net.cpp:408] ReLU4_3 <- conv4_3
I0316 16:01:24.755229  1883 net.cpp:369] ReLU4_3 -> conv4_3 (in-place)
I0316 16:01:24.755537  1883 net.cpp:124] Setting up ReLU4_3
I0316 16:01:24.755547  1883 net.cpp:131] Top shape: 5 512 28 28 (2007040)
I0316 16:01:24.755549  1883 net.cpp:139] Memory required for data: 593080380
I0316 16:01:24.755553  1883 layer_factory.hpp:77] Creating layer conv4_4
I0316 16:01:24.755560  1883 net.cpp:86] Creating Layer conv4_4
I0316 16:01:24.755564  1883 net.cpp:408] conv4_4 <- conv4_3
I0316 16:01:24.755568  1883 net.cpp:382] conv4_4 -> conv4_4
I0316 16:01:24.775140  1883 net.cpp:124] Setting up conv4_4
I0316 16:01:24.775163  1883 net.cpp:131] Top shape: 5 512 28 28 (2007040)
I0316 16:01:24.775167  1883 net.cpp:139] Memory required for data: 601108540
I0316 16:01:24.775173  1883 layer_factory.hpp:77] Creating layer ReLU4_4
I0316 16:01:24.775179  1883 net.cpp:86] Creating Layer ReLU4_4
I0316 16:01:24.775183  1883 net.cpp:408] ReLU4_4 <- conv4_4
I0316 16:01:24.775189  1883 net.cpp:369] ReLU4_4 -> conv4_4 (in-place)
I0316 16:01:24.775512  1883 net.cpp:124] Setting up ReLU4_4
I0316 16:01:24.775521  1883 net.cpp:131] Top shape: 5 512 28 28 (2007040)
I0316 16:01:24.775523  1883 net.cpp:139] Memory required for data: 609136700
I0316 16:01:24.775527  1883 layer_factory.hpp:77] Creating layer pool4
I0316 16:01:24.775532  1883 net.cpp:86] Creating Layer pool4
I0316 16:01:24.775535  1883 net.cpp:408] pool4 <- conv4_4
I0316 16:01:24.775539  1883 net.cpp:382] pool4 -> pool4
I0316 16:01:24.775578  1883 net.cpp:124] Setting up pool4
I0316 16:01:24.775583  1883 net.cpp:131] Top shape: 5 512 14 14 (501760)
I0316 16:01:24.775585  1883 net.cpp:139] Memory required for data: 611143740
I0316 16:01:24.775588  1883 layer_factory.hpp:77] Creating layer conv5_1
I0316 16:01:24.775596  1883 net.cpp:86] Creating Layer conv5_1
I0316 16:01:24.775599  1883 net.cpp:408] conv5_1 <- pool4
I0316 16:01:24.775604  1883 net.cpp:382] conv5_1 -> conv5_1
I0316 16:01:24.794430  1883 net.cpp:124] Setting up conv5_1
I0316 16:01:24.794452  1883 net.cpp:131] Top shape: 5 512 14 14 (501760)
I0316 16:01:24.794456  1883 net.cpp:139] Memory required for data: 613150780
I0316 16:01:24.794462  1883 layer_factory.hpp:77] Creating layer ReLU5_1
I0316 16:01:24.794469  1883 net.cpp:86] Creating Layer ReLU5_1
I0316 16:01:24.794473  1883 net.cpp:408] ReLU5_1 <- conv5_1
I0316 16:01:24.794477  1883 net.cpp:369] ReLU5_1 -> conv5_1 (in-place)
I0316 16:01:24.794603  1883 net.cpp:124] Setting up ReLU5_1
I0316 16:01:24.794610  1883 net.cpp:131] Top shape: 5 512 14 14 (501760)
I0316 16:01:24.794612  1883 net.cpp:139] Memory required for data: 615157820
I0316 16:01:24.794615  1883 layer_factory.hpp:77] Creating layer conv5_2
I0316 16:01:24.794627  1883 net.cpp:86] Creating Layer conv5_2
I0316 16:01:24.794631  1883 net.cpp:408] conv5_2 <- conv5_1
I0316 16:01:24.794636  1883 net.cpp:382] conv5_2 -> conv5_2
I0316 16:01:24.813433  1883 net.cpp:124] Setting up conv5_2
I0316 16:01:24.813453  1883 net.cpp:131] Top shape: 5 512 14 14 (501760)
I0316 16:01:24.813457  1883 net.cpp:139] Memory required for data: 617164860
I0316 16:01:24.813462  1883 layer_factory.hpp:77] Creating layer ReLU5_2
I0316 16:01:24.813469  1883 net.cpp:86] Creating Layer ReLU5_2
I0316 16:01:24.813477  1883 net.cpp:408] ReLU5_2 <- conv5_2
I0316 16:01:24.813486  1883 net.cpp:369] ReLU5_2 -> conv5_2 (in-place)
I0316 16:01:24.813794  1883 net.cpp:124] Setting up ReLU5_2
I0316 16:01:24.813803  1883 net.cpp:131] Top shape: 5 512 14 14 (501760)
I0316 16:01:24.813807  1883 net.cpp:139] Memory required for data: 619171900
I0316 16:01:24.813809  1883 layer_factory.hpp:77] Creating layer conv5_3
I0316 16:01:24.813817  1883 net.cpp:86] Creating Layer conv5_3
I0316 16:01:24.813820  1883 net.cpp:408] conv5_3 <- conv5_2
I0316 16:01:24.813825  1883 net.cpp:382] conv5_3 -> conv5_3
I0316 16:01:24.832340  1883 net.cpp:124] Setting up conv5_3
I0316 16:01:24.832361  1883 net.cpp:131] Top shape: 5 512 14 14 (501760)
I0316 16:01:24.832365  1883 net.cpp:139] Memory required for data: 621178940
I0316 16:01:24.832370  1883 layer_factory.hpp:77] Creating layer ReLU5_3
I0316 16:01:24.832377  1883 net.cpp:86] Creating Layer ReLU5_3
I0316 16:01:24.832381  1883 net.cpp:408] ReLU5_3 <- conv5_3
I0316 16:01:24.832386  1883 net.cpp:369] ReLU5_3 -> conv5_3 (in-place)
I0316 16:01:24.832703  1883 net.cpp:124] Setting up ReLU5_3
I0316 16:01:24.832711  1883 net.cpp:131] Top shape: 5 512 14 14 (501760)
I0316 16:01:24.832715  1883 net.cpp:139] Memory required for data: 623185980
I0316 16:01:24.832717  1883 layer_factory.hpp:77] Creating layer conv5_4
I0316 16:01:24.832726  1883 net.cpp:86] Creating Layer conv5_4
I0316 16:01:24.832728  1883 net.cpp:408] conv5_4 <- conv5_3
I0316 16:01:24.832734  1883 net.cpp:382] conv5_4 -> conv5_4
I0316 16:01:24.851393  1883 net.cpp:124] Setting up conv5_4
I0316 16:01:24.851413  1883 net.cpp:131] Top shape: 5 512 14 14 (501760)
I0316 16:01:24.851415  1883 net.cpp:139] Memory required for data: 625193020
I0316 16:01:24.851421  1883 layer_factory.hpp:77] Creating layer ReLU5_4
I0316 16:01:24.851428  1883 net.cpp:86] Creating Layer ReLU5_4
I0316 16:01:24.851431  1883 net.cpp:408] ReLU5_4 <- conv5_4
I0316 16:01:24.851436  1883 net.cpp:369] ReLU5_4 -> conv5_4 (in-place)
I0316 16:01:24.851563  1883 net.cpp:124] Setting up ReLU5_4
I0316 16:01:24.851569  1883 net.cpp:131] Top shape: 5 512 14 14 (501760)
I0316 16:01:24.851572  1883 net.cpp:139] Memory required for data: 627200060
I0316 16:01:24.851574  1883 layer_factory.hpp:77] Creating layer pool5
I0316 16:01:24.851579  1883 net.cpp:86] Creating Layer pool5
I0316 16:01:24.851583  1883 net.cpp:408] pool5 <- conv5_4
I0316 16:01:24.851588  1883 net.cpp:382] pool5 -> pool5
I0316 16:01:24.851629  1883 net.cpp:124] Setting up pool5
I0316 16:01:24.851634  1883 net.cpp:131] Top shape: 5 512 7 7 (125440)
I0316 16:01:24.851637  1883 net.cpp:139] Memory required for data: 627701820
I0316 16:01:24.851640  1883 layer_factory.hpp:77] Creating layer fc6
I0316 16:01:24.851644  1883 net.cpp:86] Creating Layer fc6
I0316 16:01:24.851647  1883 net.cpp:408] fc6 <- pool5
I0316 16:01:24.851651  1883 net.cpp:382] fc6 -> fc6
I0316 16:01:24.964118  1883 net.cpp:124] Setting up fc6
I0316 16:01:24.964138  1883 net.cpp:131] Top shape: 5 4096 (20480)
I0316 16:01:24.964140  1883 net.cpp:139] Memory required for data: 627783740
I0316 16:01:24.964153  1883 layer_factory.hpp:77] Creating layer ReLU6
I0316 16:01:24.964159  1883 net.cpp:86] Creating Layer ReLU6
I0316 16:01:24.964164  1883 net.cpp:408] ReLU6 <- fc6
I0316 16:01:24.964169  1883 net.cpp:369] ReLU6 -> fc6 (in-place)
I0316 16:01:24.964576  1883 net.cpp:124] Setting up ReLU6
I0316 16:01:24.964583  1883 net.cpp:131] Top shape: 5 4096 (20480)
I0316 16:01:24.964586  1883 net.cpp:139] Memory required for data: 627865660
I0316 16:01:24.964588  1883 layer_factory.hpp:77] Creating layer drop6
I0316 16:01:24.964594  1883 net.cpp:86] Creating Layer drop6
I0316 16:01:24.964597  1883 net.cpp:408] drop6 <- fc6
I0316 16:01:24.964601  1883 net.cpp:369] drop6 -> fc6 (in-place)
I0316 16:01:24.964628  1883 net.cpp:124] Setting up drop6
I0316 16:01:24.964633  1883 net.cpp:131] Top shape: 5 4096 (20480)
I0316 16:01:24.964635  1883 net.cpp:139] Memory required for data: 627947580
I0316 16:01:24.964637  1883 layer_factory.hpp:77] Creating layer fc7
I0316 16:01:24.964646  1883 net.cpp:86] Creating Layer fc7
I0316 16:01:24.964655  1883 net.cpp:408] fc7 <- fc6
I0316 16:01:24.964660  1883 net.cpp:382] fc7 -> fc7
I0316 16:01:24.983572  1883 net.cpp:124] Setting up fc7
I0316 16:01:24.983594  1883 net.cpp:131] Top shape: 5 4096 (20480)
I0316 16:01:24.983598  1883 net.cpp:139] Memory required for data: 628029500
I0316 16:01:24.983605  1883 layer_factory.hpp:77] Creating layer ReLU7
I0316 16:01:24.983611  1883 net.cpp:86] Creating Layer ReLU7
I0316 16:01:24.983615  1883 net.cpp:408] ReLU7 <- fc7
I0316 16:01:24.983620  1883 net.cpp:369] ReLU7 -> fc7 (in-place)
I0316 16:01:24.983794  1883 net.cpp:124] Setting up ReLU7
I0316 16:01:24.983800  1883 net.cpp:131] Top shape: 5 4096 (20480)
I0316 16:01:24.983803  1883 net.cpp:139] Memory required for data: 628111420
I0316 16:01:24.983806  1883 layer_factory.hpp:77] Creating layer drop7
I0316 16:01:24.983811  1883 net.cpp:86] Creating Layer drop7
I0316 16:01:24.983814  1883 net.cpp:408] drop7 <- fc7
I0316 16:01:24.983817  1883 net.cpp:369] drop7 -> fc7 (in-place)
I0316 16:01:24.983844  1883 net.cpp:124] Setting up drop7
I0316 16:01:24.983847  1883 net.cpp:131] Top shape: 5 4096 (20480)
I0316 16:01:24.983850  1883 net.cpp:139] Memory required for data: 628193340
I0316 16:01:24.983852  1883 layer_factory.hpp:77] Creating layer fcLFW8
I0316 16:01:24.983857  1883 net.cpp:86] Creating Layer fcLFW8
I0316 16:01:24.983860  1883 net.cpp:408] fcLFW8 <- fc7
I0316 16:01:24.983865  1883 net.cpp:382] fcLFW8 -> fcLFW8
I0316 16:01:25.010617  1883 net.cpp:124] Setting up fcLFW8
I0316 16:01:25.010638  1883 net.cpp:131] Top shape: 5 5749 (28745)
I0316 16:01:25.010642  1883 net.cpp:139] Memory required for data: 628308320
I0316 16:01:25.010648  1883 layer_factory.hpp:77] Creating layer fcLFW8_fcLFW8_0_split
I0316 16:01:25.010660  1883 net.cpp:86] Creating Layer fcLFW8_fcLFW8_0_split
I0316 16:01:25.010665  1883 net.cpp:408] fcLFW8_fcLFW8_0_split <- fcLFW8
I0316 16:01:25.010670  1883 net.cpp:382] fcLFW8_fcLFW8_0_split -> fcLFW8_fcLFW8_0_split_0
I0316 16:01:25.010677  1883 net.cpp:382] fcLFW8_fcLFW8_0_split -> fcLFW8_fcLFW8_0_split_1
I0316 16:01:25.010720  1883 net.cpp:124] Setting up fcLFW8_fcLFW8_0_split
I0316 16:01:25.010725  1883 net.cpp:131] Top shape: 5 5749 (28745)
I0316 16:01:25.010727  1883 net.cpp:131] Top shape: 5 5749 (28745)
I0316 16:01:25.010730  1883 net.cpp:139] Memory required for data: 628538280
I0316 16:01:25.010732  1883 layer_factory.hpp:77] Creating layer accuracyLFW
I0316 16:01:25.010738  1883 net.cpp:86] Creating Layer accuracyLFW
I0316 16:01:25.010741  1883 net.cpp:408] accuracyLFW <- fcLFW8_fcLFW8_0_split_0
I0316 16:01:25.010745  1883 net.cpp:408] accuracyLFW <- label_data_1_split_0
I0316 16:01:25.010748  1883 net.cpp:382] accuracyLFW -> accuracyLFW
…
